continuous cartpole/rl_model/train_2022-02-16T23:10:08.409859/model/108390_critic.pt (torch, 8580 bytes, 9 tensors)

norm_layer.weight f4 [4]
00000000: 0000 803f 0000 803f 0000 803f 0000 803f
1.0 1.0 1.0 1.0

norm_layer.bias f4 [4]
00000000: 0000 0000 0000 0000 0000 0000 0000 0000
0.0 0.0 0.0 0.0

norm_layer.running_mean f4 [4]
00000000: 0000 0000 0000 0000 0000 0000 0000 0000
0.0 0.0 0.0 0.0

norm_layer.running_var f4 [4]
00000000: 0000 803f 0000 803f 0000 803f 0000 803f
1.0 1.0 1.0 1.0

first_layer.weight f4 [32, 5]
00000000: 9e24 2a41 9418 c840 2b4d 1842 a757 b641
00000010: 3949 153f 9cef 1142 007c 1641 6e9a 26c1
00000020: 5562 3440 c4ab 1dbf 0c66 06c2 db48 94c1
00000030: 2834 3dc2 1ad2 63c1 72ec a03d 7715 3f41
00000040: d91f efc1 2765 90c2 fe2b 91c1 bde8 4c3f
00000050: ad1a dfc1 b8bf 95c1 3771 37c2 efcf 87c1
00000060: cd78 913d 9278 f441 9b0f 9541 93a5 0042
00000070: b6cd 0240 73b2 ff3e 44ec 2842 9347 1541
00000080: 3a78 6bc2 2e1c 96bd 0e08 0e3e 28f4 d8c1
00000090: e69d 97c1 d1df 26c2 a357 5cc1 ff0e c9bd
000000a0: 5e1c 2642 6a3b 1b41 758b 52c2 ca0d b7c0
000000b0: 30f8 4d3e 029f 0ac2 380a 98c1 4e6c 50c2
000000c0: 91ca 67c1 dedd 963d 3ee8 bac1 62e6 8fc1
000000d0: 8698 33c2 11c2 44c1 7cd8 553e 6cfb a4c1
000000e0: 3d6e 3dc1 5de8 70c2 6b67 80c1 153d 8a3e
000000f0: 7b02 2842 939f 4e40 95fe 32c1 c87e de40
00000100: bda4 15bf b92d 5241 f130 b540 3d9c 2142
00000110: a8fe c740 ea84 4f3e 44c1 14c2 d507 9fc1
00000120: 7fdb 2bc2 ca6f 73c1 8e58 14be 2678 18c2
00000130: cd70 8fc1 156b 2dc2 2cb3 64c1 8eb6 943d
00000140: f81a b1c1 635e 63c1 3693 1bc2 c6ed 51c1
00000150: 61c2 a73d fcf0 2642 c9b6 4a41 1d11 b140
00000160: 266a ba40 3564 6b3d ad19 6c42 4b5d 9e40
00000170: da3f 7dc2 4d8c 78c0 be21 273e 0465 0ac2
00000180: fb19 90c1 5935 52c2 ad2b 5ec1 253f 943d
00000190: 6d41 d441 0518 ad40 8b52 e5be 259f d140
000001a0: 0330 22bf e286 08c2 2166 7fc1 b592 88c2
000001b0: b986 54c1 0bed eb3d c046 e641 6545 4941
000001c0: f160 1c42 b06a a440 2afd 883f c31a abc0
000001d0: b915 71be 36b7 2b42 226e 2d41 cce2 26bd
000001e0: 6ce8 2342 206e 5941 29e8 d241 ef9c e73e
000001f0: 0689 2f3e 3f4d d7c1 ce50 61c1 78c4 37c2
00000200: ae6b 3dc1 9b33 a03d 6ce5 ccc1 096a 60c1
00000210: b923 7cc2 56cb 3bc1 61c7 113f acce f2c1
00000220: e2ec 2bc1 1d74 0ac2 7223 4ec1 43a4 16c0
00000230: e829 e33e 89f9 07c0 8039 5842 6276 a941
00000240: 7455 01bc d269 0342 3846 4641 e360 4abf
00000250: 93c8 d6c0 3c47 bd3e b308 70c1 1af5 7ac1
00000260: e447 3cc2 2821 89c1 c153 a9be 18bc f5c1
00000270: 738c 8dc1 962b 4bc2 c654 47c1 e422 903d
10.63394 6.2530003 38.07536 22.792799 0.58314854 36.483994 9.405273 -10.412703
2.8185017 -0.6159022 -33.599655 -18.535574 -47.300934 -14.238794 0.07857598 11.94274
-29.89055 -72.19756 -18.14648 0.8004263 -27.888025 -18.718613 -45.86056 -16.97653
0.07103119 30.558872 18.63262 32.161694 2.0438056 0.49940833 42.23073 9.329974
-58.86741 -0.073295936 0.1387026 -27.119217 -18.952099 -41.71857 -13.771396 -0.098173134
41.527702 9.702005 -52.63619 -5.720433 0.20114207 -34.65528 -19.00499 -52.105766
-14.486955 0.073665366 -23.3634 -17.987492 -44.89895 -12.2973795 0.20883363 -20.622765
-11.839414 -60.226917 -16.050497 0.26999727 42.002422 3.2284896 -11.187154 6.952976
-0.58454496 13.136163 5.6622243 40.402576 6.249836 0.20265546 -37.188736 -19.878824
-42.96435 -15.214792 -0.14486906 -38.117332 -17.930079 -43.354572 -14.293743 0.07261382
-22.138168 -14.210544 -38.89376 -13.12055 0.08191372 41.735336 12.669625 5.533339
5.8254576 0.05746861 59.025074 4.9488883 -63.312355 -3.8835633 0.16321465 -34.598648
-18.012686 -52.552097 -13.885663 0.07238606 26.531946 5.409182 -0.44789538 6.550677
-0.6335451 -34.13172 -15.962434 -68.28654 -13.282891 0.11519822 28.784546 12.579442
39.09467 5.1380234 1.070226 -5.347017 -0.23543443 42.928917 10.839388 -0.040743634
40.976974 13.589386 26.36336 0.45236918 0.17142114 -26.912718 -14.082228 -45.941864
-11.838789 0.07822343 -25.612022 -14.0258875 -63.034885 -11.737143 0.56944853 -30.350914
-10.745333 -34.61339 -12.883654 -2.3537757 0.4436791 -2.1246054 54.056152 21.182804
-0.007893909 32.85334 12.392143 -0.7905409 -6.711984 0.3696841 -15.002124 -15.684839
-47.070206 -17.14119 -0.33071712 -30.716843 -17.693579 -50.792564 -12.458197 0.07037905

first_layer.bias f4 [32]
00000000: eadb 5fc1 5d7e 00c2 a5a9 4842 3806 2042
00000010: 8b8a 1a42 536e 58c0 2a49 83c1 05ae 2642
00000020: 83e4 81c1 191f 3a42 436b 4542 1f37 2642
00000030: 59bd 41c1 12ba 2bc2 c231 2442 9f9c 3142
00000040: 6a43 4242 38d7 3cc0 6137 aac1 4eac 3542
00000050: 5ee7 24c2 98ab 2542 1749 92c1 32f8 e9c1
00000060: 3758 88c0 09a0 4142 df21 3442 0cdd 0942
00000070: c073 98c1 f0d7 09c2 fb0d 2342 c180 4042
-13.99119 -32.1234 50.16567 40.006073 38.635296 -3.3817337 -16.410725 41.66994
-16.236578 46.53037 49.354748 41.55383 -12.108727 -42.93171 41.04859 44.40295
48.565834 -2.950636 -21.27704 45.418266 -41.225945 41.417572 -18.285688 -29.24619
-4.2607684 48.406284 45.033077 34.465866 -19.056519 -34.460876 40.763653 48.125736

inter_layer.weight f4 [32, 32]
00000000: 72af fcc0 964e adc2 5818 8442 105d 8d41
00000010: 8c83 2342 8daf 2ac1 c1f0 c8c2 90cb 6c42
00000020: eece 8cc2 a887 8942 0098 4e42 fc8c 2542
00000030: 31bc e1c1 da60 fdc2 e158 7e42 ab54 8842
00000040: 57bc 4042 654c a2c1 f349 69c2 6873 7542
00000050: 5570 28c2 f606 5242 ee0e 04c2 3930 cdc2
00000060: e0a7 19c2 71dc 4542 e69b 5442 1594 9841
00000070: bda9 b0c1 bc4a 1ac2 fcfd 0042 a8d7 8042
00000080: acb7 3dc1 6c5f 9dc2 4411 7c42 aefb 9141
00000090: 85a7 1b42 dd42 43c1 f893 b7c2 6b30 6942
000000a0: 6e51 83c2 3a60 8542 1269 4c42 bb9b 1c42
000000b0: 36a5 d3c1 d947 d1c2 a2bc 7d42 d0ba 8342
000000c0: 3faa 3d42 0117 bec1 e00c 4ec2 743c 7242
000000d0: 4f11 3ac2 c14a 5242 190d 05c2 a1b0 97c2
000000e0: af66 14c2 a781 4042 2e70 4c42 eaad 8f41
000000f0: 9d6f 94c1 a4fd 22c2 3441 f241 d57a 7742
00000100: 197d 0e40 6b0e 2542 8a55 77c2 652e 84c1
00000110: 2957 13c2 d9fb 43c0 8ca9 9042 1c9d 69c2
00000120: 63e1 3342 4a0b 80c2 c0a6 46c2 3a39 11c2
00000130: 46e0 8641 bb55 a942 7d0f 76c2 ae16 74c2
00000140: c821 39c2 6bca 4e41 2fdc 1842 a1f0 6cc2
00000150: f70d d941 c1c8 56c2 97cc e240 dd44 4b42
00000160: b853 b341 3323 43c2 9ff4 4cc2 891c 8dc1
00000170: b9f5 f440 4694 8c41 d95c e6c1 7d98 7dc2
00000180: b108 13c1 86ff b6c2 b266 8242 cf11 8841
00000190: 5226 2142 fe53 2ec1 6712 c1c2 028d 6642
000001a0: 1c05 8bc2 9fa3 8542 d11f 4842 abf7 2342
000001b0: 9773 d1c1 a6c7 e8c2 2830 7b42 ac97 8742
000001c0: b3d6 3c42 d785 b5c1 34bd 55c2 0d24 7542
000001d0: 2421 28c2 b425 5442 c8a1 02c2 6b78 a6c2
000001e0: fe6b 19c2 bb14 3e42 9e7b 5542 b3df 9c41
000001f0: 43a7 a1c1 99f9 1ac2 5dbd 0042 fcb7 7a42
00000200: eff6 47c1 1ca6 99c2 5640 7a42 ef65 8541
00000210: 9030 1d42 c199 58c1 f586 b9c2 fd71 6c42
00000220: 4ac4 7fc2 cd57 8642 9a18 4942 7655 1b42
00000230: 535f bec1 d2b3 c3c2 d4fe 7c42 ff1c 8742
00000240: d8bb 3a42 df6d c7c1 ba49 4ec2 de53 7342
00000250: 8c9e 3fc2 9d20 5942 2b70 00c2 d6e5 9cc2
00000260: c264 1ac2 e5be 3e42 983c 4e42 67cc 8e41
00000270: ee87 7bc1 9bd0 1ac2 9784 e841 3816 6d42
00000280: 18a3 1cc1 dd85 5ec2 9c6b 6b42 021b 6941
00000290: a5d2 0e42 0775 48c1 2644 95c2 f1b7 5f42
000002a0: 96ba 63c2 467f 7c42 1ad0 3b42 044a 1c42
000002b0: 00fb c0c1 31d4 d2c2 a700 7242 1d86 7442
000002c0: ec6f 2742 a21f acc1 1721 30c2 29f9 6b42
000002d0: 381c 0ac2 f63d 7042 d629 e1c1 b935 6bc2
000002e0: 7752 27c2 399b 3042 7c97 4842 2df7 8241
000002f0: 553c a5c1 92a8 f8c1 c4bb f141 7096 6742
00000300: 76ff bb3f 108b 2042 6552 79c2 bdbc 87c1
00000310: 1101 14c2 6f83 45c0 d397 9142 514c 68c2
00000320: e2b4 3042 f35d 81c2 c0c6 47c2 bc69 1cc2
00000330: 624c 8a41 41f0 a442 c4bd 79c2 d2d1 73c2
00000340: 6c9f 39c2 160f 3a41 b6ec 1842 9e20 6ec2
00000350: b386 db41 98ba 5fc2 9379 d140 5ea3 4d42
00000360: 0ff8 ae41 0fea 45c2 6a75 50c2 f50d 8cc1
00000370: 94e8 f340 c80a 8a41 78ac e9c1 b61b 7cc2
00000380: 490b 98be 6d19 2842 8f53 73c2 3fe0 7ec1
00000390: 58de 15c2 7486 69c0 f524 8242 d9d2 62c2
000003a0: dde7 1c42 630f 7bc2 39ea 47c2 511f 19c2
000003b0: 0fff 8041 0185 9f42 88fc 70c2 dcf6 6cc2
000003c0: 5fd8 3fc2 45f9 3341 2190 1342 dcab 6bc2
000003d0: ff6b c541 d550 53c2 adda c240 551f 4d42
000003e0: 4d92 ab41 3402 45c2 4c69 57c2 3329 a7c1
000003f0: a944 dc40 cd8b 9841 ba19 00c2 0220 7fc2
-7.8964167 -86.65349 66.04755 17.67044 40.878464 -10.667859 -100.47022 59.19879
-70.40416 68.76495 51.648438 41.38768 -28.21689 -126.68916 63.586796 68.16537
48.183926 -20.287302 -58.322216 61.3627 -42.1097 52.506798 -33.01458 -102.594185
-38.41394 49.465275 53.152245 19.072306 -22.08288 -38.572983 32.24803 64.4212
-11.857342 -78.68637 63.01686 18.24789 38.913593 -12.203824 -91.789 58.297283
-65.65904 66.68794 51.102608 39.15208 -26.45567 -104.64033 63.43421 65.86487
47.416256 -23.761232 -51.512573 60.559036 -46.516903 52.573 -33.26279 -75.84498
-37.100277 48.126614 51.10955 17.959919 -18.554499 -40.747696 30.281837 61.869953
2.2263854 41.26408 -61.833534 -16.522654 -36.835117 -3.0622466 72.33115 -58.403427
44.970104 -64.02205 -49.66284 -36.305885 16.859509 84.66744 -61.515125 -61.02215
-46.28299 12.924418 38.215023 -59.23499 27.131819 -53.69605 7.0874743 50.81725
22.415878 -48.784374 -51.238888 -17.638933 7.6549954 17.5724 -28.795336 -63.398914
-9.189622 -91.49907 65.20058 17.008696 40.287422 -10.895506 -96.53594 57.637703
-69.50998 66.81957 50.03107 40.991863 -26.18144 -116.38994 62.797028 67.796234
47.209667 -22.690351 -53.43477 61.285206 -42.032364 53.03682 -32.65799 -83.23519
-38.35546 47.520245 53.37072 19.609228 -20.20667 -38.743748 32.184925 62.679672
-12.4977865 -76.82443 62.562828 16.674772 39.297424 -13.537538 -92.76359 59.111317
-63.94169 67.171486 50.274025 38.833458 -23.796545 -97.85121 63.248856 67.55663
46.68344 -24.928648 -51.572 60.8319 -47.90483 54.28185 -32.10954 -78.4489
-38.598396 47.68642 51.559174 17.849806 -15.720686 -38.703716 29.064741 59.271698
-9.789818 -55.630726 58.855087 14.569094 35.705708 -12.528571 -74.6331 55.92963
-56.932213 63.12429 46.953224 39.07228 -24.122559 -105.41444 60.500637 61.13097
41.8593 -21.515446 -44.032314 58.99332 -34.527557 60.06051 -28.145428 -58.802464
-41.830532 44.151585 50.147934 16.370691 -20.654459 -31.08231 30.216682 57.89691
1.4687335 40.135803 -62.330463 -16.967157 -37.00104 -3.086147 72.79653 -58.074528
44.176643 -64.683495 -49.94409 -39.103256 17.287296 82.469246 -62.435318 -60.954903
-46.405685 11.628683 38.231163 -59.531853 27.440771 -55.93222 6.5460906 51.40954
21.871122 -49.478573 -52.114662 -17.506815 7.622141 17.255264 -29.209213 -63.02706
-0.2969611 42.02483 -60.8316 -15.929748 -37.467133 -3.6488314 65.07218 -56.705906
39.22643 -62.765026 -49.978733 -38.280582 16.12454 79.75977 -60.246613 -59.241074
-47.9613 11.248357 36.89075 -58.91783 24.677732 -52.828938 6.089194 51.280598
21.446436 -49.25215 -53.85283 -20.895117 6.8833814 19.068262 -32.025124 -63.781258

inter_layer.bias f4 [32]
00000000: 4af5 4842 e583 4042 f11c 4dc2 b1b0 4342
00000010: 3dc8 3442 4062 1d42 f968 4ac2 8225 4ac2
00000020: 7e36 4bc2 38e1 3742 2f15 2e42 ee59 43c2
00000030: 9864 3742 5523 4dc2 8c15 b8c1 0ad8 1642
00000040: cb27 43c2 90dc 42c2 0f17 4642 1b19 4fc2
00000050: 3f22 4242 07ab 43c2 7c0d 4342 0c02 43c2
00000060: 12c3 4742 6f4b 4642 99d6 46c2 37f6 3242
00000070: 6477 48c2 f6c5 46c2 13c6 47c2 3136 3e42
50.23954 48.128803 -51.278263 48.92255 45.195545 39.345947 -50.602512 -50.53663
-50.803215 45.96994 43.520687 -48.837822 45.848236 -51.284504 -23.01052 37.710976
-48.78886 -48.715393 49.52252 -51.774517 48.533443 -48.91702 48.76317 -48.752
49.9405 49.573666 -49.709568 44.740444 -50.116592 -49.69332 -49.94343 47.55292

final_layer.weight f4 [1, 32]
00000000: ea27 b342 985e af42 110d 4ac2 b483 aa42
00000010: 154a ae42 b935 9242 89d6 4bc2 da22 53c2
00000020: 8b4c 67c2 0f82 a142 a6f2 a142 2477 49c2
00000030: 7cee aa42 fbe5 4ec2 1b16 45c2 83ea 9b42
00000040: b96d 66c2 c781 50c2 f124 aa42 6aee 4dc2
00000050: c858 b142 ed2b 50c2 5593 a342 9001 5cc2
00000060: cf92 b042 49b8 a642 f5c6 5dc2 06fd ab42
00000070: 5836 49c2 2ae8 5ec2 f0e1 50c2 8d25 ad42
89.57796 87.68475 -50.51276 85.25723 87.14469 73.10493 -50.959507 -52.784035
-57.82475 80.75402 80.97392 -50.36635 85.46579 -51.72459 -49.271587 77.95803
-57.60715 -52.126736 85.07215 -51.482826 88.6734 -52.042896 81.78776 -55.001526
88.286736 83.35993 -55.444294 85.99419 -50.30307 -55.726723 -52.220642 86.57334
