continuous cartpole/rl_model/train_2022-02-16T23:10:08.409859/model/108680_critic.pt (torch, 8580 bytes, 9 tensors)

norm_layer.weight f4 [4]
0	0x3f800000	1.0
1	0x3f800000	1.0
2	0x3f800000	1.0
3	0x3f800000	1.0

norm_layer.bias f4 [4]
0	0x00000000	0.0
1	0x00000000	0.0
2	0x00000000	0.0
3	0x00000000	0.0

norm_layer.running_mean f4 [4]
0	0x00000000	0.0
1	0x00000000	0.0
2	0x00000000	0.0
3	0x00000000	0.0

norm_layer.running_var f4 [4]
0	0x3f800000	1.0
1	0x3f800000	1.0
2	0x3f800000	1.0
3	0x3f800000	1.0

first_layer.weight f4 [32, 5]
0	0x41359ef7	11.35131
1	0x40da0dea	6.8141985
2	0x421b5800	38.835938
3	0x41ba03f3	23.251928
4	0x3f09bbd1	0.5380221
5	0x4212c4b3	36.69209
6	0x4114e2ce	9.305372
7	0xc11ceecf	-9.808303
8	0x403bf44e	2.9367862
9	0xbf0816bd	-0.53159696
10	0xc205c226	-33.439598
11	0xc194fb88	-18.622818
12	0xc240a7fb	-48.164043
13	0xc166c784	-14.42371
14	0x3da15d8b	0.0787917
15	0x4141aa71	12.104112
16	0xc1efed04	-29.99073
17	0xc2922002	-73.062515
18	0xc1929095	-18.320597
19	0x3f4e6680	0.8062515
20	0xc1ddd2f3	-27.728003
21	0xc196727a	-18.805897
22	0xc23ae57f	-46.724117
23	0xc1894ac6	-17.16151
24	0x3d91e917	0.071245365
25	0x41fc5cff	31.545408
26	0x41963566	18.776073
27	0x4202420b	32.564495
28	0x400037ad	2.0033982
29	0x3ed1805b	0.4091824
30	0x4228f6db	42.24107
31	0x411933ba	9.575129
32	0xc2695677	-58.33444
33	0xbdcee583	-0.1010237
34	0x3e0941ca	0.13404003
35	0xc1d7ac8b	-26.95925
36	0xc1985099	-19.039354
37	0xc22a53bd	-42.581776
38	0xc15f4d2d	-13.956342
39	0xbdc89ea6	-0.09795885
40	0x4227ed00	41.981445
41	0x411be2af	9.742843
42	0xc250274b	-52.038372
43	0xc0b2f434	-5.59231
44	0x3e4c201d	0.19934125
45	0xc209fb1e	-34.49523
46	0xc198bce0	-19.092224
47	0xc253e017	-52.968838
48	0xc16ac000	-14.671875
49	0x3d974dc2	0.07387878
50	0xc1b9a0a0	-23.20343
51	0xc190991b	-18.074759
52	0xc2370c8f	-45.762264
53	0xc147b7b0	-12.482346
54	0x3e561090	0.20904756
55	0xc1a3b3bc	-20.46276
56	0xc13ed3b3	-11.926684
57	0xc2745c8a	-61.09037
58	0xc181e238	-16.235458
59	0x3e8a58fa	0.2702101
60	0x4227d98f	41.96246
61	0x4056dd96	3.3572745
62	0xc131cf42	-11.1131
63	0x40db4747	6.852451
64	0xbf206033	-0.6264679
65	0x414f9ee0	12.976288
66	0x40b7fb27	5.7494082
67	0x42250fbb	41.26536
68	0x40cde88f	6.4346385
69	0x3e4f4ce8	0.20244181
70	0xc2141d5b	-37.028667
71	0xc19fba7f	-19.966063
72	0xc22f4f5c	-43.8275
73	0xc1766544	-15.399723
74	0xbe14205e	-0.14465472
75	0xc217d43e	-37.957268
76	0xc190237c	-18.017326
77	0xc230dee8	-44.21768
78	0xc167a892	-14.478655
79	0x3d9526ea	0.07282813
80	0xc1afd357	-21.978193
81	0xc164c3cf	-14.297805
82	0xc21f0749	-39.757114
83	0xc154e366	-13.305517
84	0x3da83203	0.08212664
85	0x4227e825	41.976704
86	0x414d6280	12.836548
87	0x40cab014	6.333994
88	0x40bba3b5	5.863734
89	0x3d762f15	0.060103495
90	0x426b6bbb	58.855206
91	0x409eb786	4.959903
92	0xc27ca7ff	-63.16406
93	0xc0719ccc	-3.7751951
94	0x3e26f481	0.16304208
95	0xc209c11d	-34.438587
96	0xc190ccb2	-18.099949
97	0xc255a93a	-53.41526
98	0xc161212f	-14.070601
99	0x3d94af72	0.07260026
100	0x41d2f9d6	26.37199
101	0x40afe2b3	5.4964232
102	0x3ed482fa	0.41506177
103	0x40d789d4	6.7355747
104	0xbf223de7	-0.63375705
105	0xc207e2f2	-33.971626
106	0xc18065c6	-16.049694
107	0xc28a4c77	-69.149345
108	0xc1577c44	-13.467838
109	0x3dec5d01	0.115411766
110	0x41ecb6f2	29.589329
111	0x414ce458	12.805748
112	0x421c0aec	39.010666
113	0x40a4852d	5.141257
114	0x3f87705c	1.0581164
115	0xc0b03870	-5.5068893
116	0xbe17cd4a	-0.14824405
117	0x422f2ac3	43.79176
118	0x41306353	11.024249
119	0xbd27c304	-0.040957466
120	0x4227bcda	41.934425
121	0x41598232	13.594286
122	0x41d61bea	26.76363
123	0x3f112597	0.5669798
124	0x3e1f2e9b	0.15545122
125	0xc1d60599	-26.752733
126	0xc162b62b	-14.169475
127	0xc23b388a	-46.805214
128	0xc1406155	-12.023763
129	0x3da0a457	0.07843845
130	0xc1cb9dcc	-25.45205
131	0xc161cf68	-14.113136
132	0xc27f97b1	-63.898136
133	0xc13ec0e4	-11.922092
134	0x3f11d538	0.5696597
135	0xc1f0477c	-30.034904
136	0xc12d27f0	-10.82225
137	0xc20dfb15	-35.495197
138	0xc1512e4a	-13.073801
139	0xc017be90	-2.371006
140	0x3e912c6c	0.28354204
141	0xc00262d2	-2.0372815
142	0x425bae5a	54.920265
143	0x41aaf16e	21.367886
144	0xbc04d17c	-0.008106586
145	0x42060483	33.504406
146	0x4145713c	12.340145
147	0xbdd1227e	-0.10211657
148	0xc0d3ce64	-6.618944
149	0x3ebfb5bd	0.37443343
150	0xc16d7c7a	-14.84289
151	0xc17c5abc	-15.772152
152	0xc23fbbfa	-47.93357
153	0xc18a9c02	-17.326176
154	0xbea27fbc	-0.3173808
155	0xc1f4747d	-30.556879
156	0xc18e3f1f	-17.78082
157	0xc24e9f72	-51.65571
158	0xc14a4a39	-12.643121
159	0x3d909338	0.0705933

first_layer.bias f4 [32]
0	0xc16075c7	-14.028754
1	0xc2011a8d	-32.27593
2	0x424af4bb	50.738995
3	0x42224ffb	40.578106
4	0x421cd5e7	39.20889
5	0xc04f6d2c	-3.2410383
6	0xc1852a72	-16.645725
7	0x4228f928	42.243317
8	0xc183c6d2	-16.47208
9	0x423c6a29	47.103672
10	0x4247b67a	49.9282
11	0x42288275	42.1274
12	0xc142eb13	-12.182391
13	0xc22e04f3	-43.504833
14	0x42267cde	41.62194
15	0x4233e7b0	44.976257
16	0x42448ea8	49.139313
17	0xc051100e	-3.266605
18	0xc1abab97	-21.458784
19	0x4237f768	45.991608
20	0xc2273289	-41.79935
21	0x4227f6cc	41.991013
22	0xc1917c94	-18.18583
23	0xc1ee8e1a	-29.819386
24	0xc0851f31	-4.1600575
25	0x4243eb44	48.97975
26	0x42366d0a	45.606483
27	0x420c656f	35.099056
28	0xc19d0b53	-19.63053
29	0xc209df42	-34.468025
30	0x42255c3c	41.340073
31	0x4242cbd9	48.69907

inter_layer.weight f4 [32, 32]
0	0xc0fccec6	-7.900241
1	0xc2ae1585	-87.04203
2	0x42856e50	66.715454
3	0x4192aecb	18.335348
4	0x42262d65	41.54433
5	0xc12ef9ab	-10.935954
6	0xc2c8f882	-100.48537
7	0x426f83a9	59.878574
8	0xc28cf4c5	-70.478065
9	0x428ae3c7	69.44488
10	0x425143c1	52.316166
11	0x4228115d	42.016956
12	0xc1e30f66	-28.382519
13	0xc2fe9f21	-127.3108
14	0x428089c1	64.26905
15	0x4289ad53	68.838524
16	0x424349c6	48.822044
17	0xc1aaf6f7	-21.370588
18	0xc26a6ef7	-58.608364
19	0x42782bd3	62.042797
20	0xc22a94c8	-42.645294
21	0x4254c933	53.196484
22	0xc203fa68	-32.994537
23	0xc2ce49a4	-103.14383
24	0xc21bf707	-38.991238
25	0x424879e1	50.119022
26	0x425733ce	53.80059
27	0x419c2cb4	19.521828
28	0xc1b469d7	-22.55168
29	0xc21a2e43	-38.545177
30	0x42037450	32.863586
31	0x42823319	65.0998
32	0xc13dc756	-11.861166
33	0xc29e265b	-79.07491
34	0x427ebdae	63.685234
35	0x41974d6f	18.91281
36	0x421e515f	39.579464
37	0xc1478d01	-12.471925
38	0xc2b79bb9	-91.804146
39	0x426be886	58.977074
40	0xc2837744	-65.73294
41	0x4286bc5a	67.367874
42	0x424f14d4	51.77034
43	0x421f201e	39.781364
44	0xc1d4f86b	-26.621298
45	0xc2d28620	-105.26196
46	0x42803baa	64.11653
47	0x42851379	66.53803
48	0x424037b3	48.054394
49	0xc1c6c19b	-24.844534
50	0xc24f31e5	-51.798725
51	0x4274f4e5	61.239155
52	0xc23c35c3	-47.0525
53	0x42550cff	53.26269
54	0xc204f890	-33.242737
55	0xc298ca0c	-76.39462
56	0xc216b5d7	-37.677578
57	0x42431f1a	48.780373
58	0x424f081a	51.75791
59	0x4193468e	18.40945
60	0xc1982fbb	-19.023306
61	0xc222e12b	-40.71989
62	0x41f72e70	30.897675
63	0x427a3208	62.54886
64	0x400ebbac	2.2302046
65	0x42269c39	41.65256
66	0xc27a024a	-62.502235
67	0xc18980c6	-17.187878
68	0xc216014e	-37.501274
69	0xc032d21b	-2.7940738
70	0x4290b151	72.34632
71	0xc26c558d	-59.083546
72	0x42342d9f	45.04455
73	0xc281678c	-64.70224
74	0xc24952da	-50.33091
75	0xc213bde1	-36.93543
76	0x418833ab	17.025229
77	0x42aa9429	85.289375
78	0xc278ca98	-62.197845
79	0xc276c89b	-61.695904
80	0xc23baf83	-46.9214
81	0x41602193	14.008197
82	0x421a0157	38.50131
83	0xc26fa969	-59.91544
84	0x41dd5741	27.667604
85	0xc2598b40	-54.385986
86	0x40e2287b	7.0674415
87	0x424d7824	51.367325
88	0x41b7f29d	22.993464
89	0xc245c0ec	-49.4384
90	0xc24f8cca	-51.88749
91	0xc190b58e	-18.08865
92	0x4101fc3e	8.124083
93	0x418c5bd4	17.544838
94	0xc1eb4aa9	-29.411455
95	0xc28027f0	-64.078
96	0xc113185b	-9.193446
97	0xc2b7c676	-91.88762
98	0x4283bcaa	65.868484
99	0x418d6396	17.673626
100	0x4223d02e	40.9533
101	0xc1329e24	-11.163609
102	0xc2c11a28	-96.55109
103	0x42694521	58.31751
104	0xc28b2af2	-69.58388
105	0x4286ffc1	67.49952
106	0x424acb97	50.69882
107	0x42267c12	41.621162
108	0xc1d2c6cc	-26.347069
109	0xc2ea05ef	-117.01159
110	0x427deaf2	63.47944
111	0x4288f05a	68.46944
112	0x423f6428	47.84781
113	0xc1be307c	-23.773674
114	0xc256e239	-53.72092
115	0x4277dc81	61.965336
116	0xc22a4599	-42.567966
117	0x4256e7f4	53.726517
118	0xc2028d40	-32.63794
119	0xc2a791d6	-83.784836
120	0xc21bbb27	-38.932766
121	0x4240b230	48.17401
122	0x4258138d	54.019093
123	0x41a0785b	20.058767
124	0xc1a56767	-20.67549
125	0xc21add20	-38.715942
126	0x420333b7	32.800503
127	0x427d6f30	63.35858
128	0xc1480699	-12.501611
129	0xc29a6d0b	-77.212975
130	0x427cecc2	63.23121
131	0x418ab7b1	17.339693
132	0x421fda6b	39.9633
133	0xc15ce3e6	-13.805639
134	0xc2b98eb6	-92.77873
135	0x426f2a19	59.79111
136	0xc2800828	-64.01593
137	0x4287b3ee	67.851425
138	0x424bc45e	50.941765
139	0x421dd9da	39.462746
140	0xc1bfb288	-23.962173
141	0xc2c4f219	-98.47285
142	0x427fb99a	63.93125
143	0x428875a9	68.229805
144	0x423d494c	47.32158
145	0xc1d0187c	-26.011955
146	0xc24f6ebf	-51.85815
147	0x42760c4f	61.51202
148	0xc241c301	-48.440434
149	0x425be2dc	54.971542
150	0xc2005ba2	-32.089485
151	0xc29dff41	-78.99854
152	0xc21cb3ea	-39.175697
153	0x42415c59	48.340183
154	0x4250d486	52.207542
155	0x4192650c	18.29934
156	0xc181841f	-16.189512
157	0xc21ab422	-38.67591
158	0x41ed71d3	29.680578
159	0x426fcd6c	59.950607
160	0xc11cb2c8	-9.793648
161	0xc2601389	-56.019077
162	0x426e1820	59.52356
163	0x4173bee7	15.234107
164	0x42117c8f	36.37164
165	0xc14cbf43	-12.796695
166	0xc2954be5	-74.64823
167	0x42627022	56.609505
168	0xc26406ca	-57.00663
169	0x427f37df	63.80456
170	0x423e7bf6	47.621056
171	0x421ece7b	39.70164
172	0xc1c24e45	-24.288218
173	0xc2d41280	-106.03613
174	0x4274bb89	61.18314
175	0x427737d2	61.804512
176	0x4229fd73	42.49751
177	0xc1b4ca84	-22.598885
178	0xc2314620	-44.31848
179	0x426eb1ae	59.673515
180	0xc20c40bc	-35.063217
181	0x42730043	60.750256
182	0xc1e100cd	-28.125391
183	0xc26d68d0	-59.352356
184	0xc229a1b8	-42.40793
185	0x423338c0	44.80542
186	0x424b2f7a	50.796364
187	0x41868fed	16.820276
188	0xc1a8fc8f	-21.12332
189	0xc1f87031	-31.054781
190	0x41f6a929	30.832598
191	0x426a4db6	58.57589
192	0x3fbc7c96	1.4725521
193	0x422218dd	40.52428
194	0xc27bff23	-62.999157
195	0xc18d0f1c	-17.632378
196	0xc216ab35	-37.667194
197	0xc03459c0	-2.817978
198	0x42919f98	72.81171
199	0xc26b04c1	-58.754642
200	0x4231011e	44.25109
201	0xc282ba34	-65.36368
202	0xc24a72da	-50.61216
203	0xc21eee62	-39.732796
204	0x418b9fc4	17.45301
205	0x42a62ead	83.09116
206	0xc27c78df	-63.11804
207	0xc27683bc	-61.628647
208	0xc23c2d23	-47.04408
209	0x414b6638	12.712456
210	0x421a11dd	38.517445
211	0xc270d962	-60.212288
212	0x41dfcffb	27.976553
213	0xc2627d13	-56.622143
214	0x40d0d578	6.526058
215	0x424fd6a2	51.959602
216	0x41b396f2	22.448704
217	0xc24887c6	-50.13259
218	0xc2530d92	-52.763252
219	0xc18fa6f7	-17.956526
220	0x41017598	8.091209
221	0x4189d256	17.227703
222	0xc1ee9a43	-29.825323
223	0xc27ed33a	-63.706276
224	0xbe96176d	-0.29314747
225	0x4229a736	42.413292
226	0xc2760049	-61.50028
227	0xc184c27b	-16.594961
228	0xc2188875	-38.13326
229	0xc0585cf5	-3.3806736
230	0x42822cb7	65.08733
231	0xc2658b40	-57.385986
232	0x421d3416	39.300865
233	0xc27dc82e	-63.445488
234	0xc24a9649	-50.646763
235	0xc21ba3ed	-38.910084
236	0x4182526d	16.290247
237	0x42a0c36b	80.381676
238	0xc273b79b	-60.929302
239	0xc26fa8be	-59.914787
240	0xc2426610	-48.59967
241	0x4145503a	12.332087
242	0x4214b546	37.177025
243	0xc26e649a	-59.598244
244	0x41c9b540	25.213501
245	0xc256134a	-53.518837
246	0x40c23693	6.069162
247	0x424f5293	51.83064
248	0x41b03125	22.023996
249	0xc2479fe6	-49.90615
250	0xc25a016e	-54.501396
251	0xc1aac22d	-21.344812
252	0x40eb470c	7.3524227
253	0x4198535a	19.040699
254	0xc202904c	-32.640915
255	0xc280eb99	-64.46015

inter_layer.bias f4 [32]
0	0x424b3fd9	50.81235
1	0x4242ce77	48.701626
2	0xc24f67c8	-51.85135
3	0x4245fb45	49.49538
4	0x423712d0	45.76837
5	0x421face8	39.918854
6	0xc24cb3cf	-51.175594
7	0xc24c7053	-51.10969
8	0xc24d8145	-51.37624
9	0x423a2bd3	46.542797
10	0x42305fca	44.093544
11	0xc245a4c5	-49.410908
12	0x4239af2c	46.421066
13	0xc24f6e2a	-51.857582
14	0xc1bcab56	-23.58366
15	0x421922aa	38.28385
16	0xc2457293	-49.36189
17	0xc2452764	-49.288467
18	0x424861a3	50.09535
19	0xc25163f0	-52.347595
20	0x42446cce	49.106255
21	0xc245f5db	-49.490093
22	0x42455817	49.336025
23	0xc2454cd8	-49.325043
24	0x424a0da1	50.51331
25	0x42489609	50.14652
26	0xc2492165	-50.28261
27	0x423540cb	45.313274
28	0xc24ac23c	-50.689682
29	0xc24910c1	-50.26636
30	0xc24a10e7	-50.516506
31	0x424080c4	48.125748

final_layer.weight f4 [1, 32]
0	0x42b48582	90.26076
1	0x42b0bca4	88.36844
2	0xc24cc0d7	-51.18832
3	0x42abe15e	85.94017
4	0x42afa85a	87.82881
5	0x429393f2	73.788956
6	0xc24e89e2	-51.63465
7	0xc255d49b	-53.457623
8	0xc269ffad	-58.499683
9	0x42a2dffc	81.43747
10	0x42a350b9	81.65766
11	0xc24c2aa4	-51.04164
12	0x42ac4cd8	86.150085
13	0xc2519994	-52.39998
14	0xc247ccf8	-49.950165
15	0x429d490e	78.642685
16	0xc26920d5	-58.282063
17	0xc2533553	-52.802074
18	0x42ab828a	85.75496
19	0xc250a21a	-52.158302
20	0x42b2b669	89.35627
21	0xc252dfde	-52.71862
22	0x42a4f121	82.470955
23	0xc25eb366	-55.675194
24	0x42b1f040	88.96924
25	0x42a81602	84.042984
26	0xc26079dd	-56.119007
27	0x42ad5b8d	86.67881
28	0xc24bea1a	-50.978615
29	0xc2619b51	-56.401676
30	0xc25395e0	-52.896362
31	0x42ae83e6	87.257614
