continuous cartpole/rl_model/train_2022-02-16T23:10:08.409859/model/110670_actor.pt (torch, 6999 bytes, 5 tensors)

first_layer.weight f4 [32, 4]
0	0x3e265c38	0.16246116
1	0x40074832	2.1137815
2	0x408fdf50	4.49601
3	0xbf1fb5d9	-0.6238685
4	0x3f472bfb	0.77801484
5	0xbe8f306a	-0.27966624
6	0xc02443d9	-2.566641
7	0xbee15e79	-0.4401739
8	0xc054284d	-3.3149598
9	0xbff76ae3	-1.9329494
10	0x4146f888	12.435677
11	0x3fb5a424	1.4190717
12	0xc07add05	-3.91974
13	0xc08cc247	-4.3987155
14	0x3f51eeb6	0.8200487
15	0x405eb100	3.4795532
16	0x3f34ecb8	0.70673704
17	0xbea73771	-0.32659486
18	0xbf4f82de	-0.8105906
19	0xbee1744c	-0.4403404
20	0x3ec30a5f	0.3809385
21	0x3fd2c6b0	1.6466885
22	0x3d26d7b7	0.040733065
23	0xbfcbed1d	-1.5931736
24	0x3f92b2b7	1.146079
25	0x3fcbc7b1	1.5920316
26	0x4026987a	2.6030564
27	0xbd3550b0	-0.044266403
28	0xbfb6b86a	-1.4275029
29	0xbf13de15	-0.57760745
30	0xc08c78f1	-4.3897634
31	0xbf19c659	-0.6006828
32	0xc03d1a1f	-2.9547193
33	0x403fc1c8	2.9962025
34	0x40ef687b	7.481504
35	0xbfac5176	-1.346236
36	0xbe2d6ab1	-0.16935231
37	0xc03c6ec8	-2.9442616
38	0xc005e6fb	-2.092223
39	0x3f46a433	0.775943
40	0xc09b52c8	-4.853855
41	0x3f200a68	0.6251588
42	0x40d4c82d	6.6494355
43	0xc0404dc1	-3.0047457
44	0xbfdac415	-1.709109
45	0x3f2a51a5	0.6653083
46	0x40b5c452	5.680215
47	0x3f99636f	1.198347
48	0xbfa41bdb	-1.2821001
49	0x3faabb91	1.3338491
50	0x40b97a47	5.7961764
51	0xbfbcbd40	-1.4745255
52	0x409a6bbc	4.825651
53	0x40022cda	2.0339875
54	0xc0b3752a	-5.6080523
55	0x3fbb73ec	1.4644752
56	0xbfe65c2d	-1.799688
57	0x3f5a5d32	0.85298455
58	0x409f7cdd	4.983992
59	0xbfaee7b3	-1.3664459
60	0x402559e3	2.5836112
61	0x4034a47f	2.82254
62	0xc04b7c8d	-3.179477
63	0xc026862f	-2.60194
64	0xbda295f9	-0.07938761
65	0x3ffe40ae	1.9863489
66	0x3ef9a277	0.48756763
67	0xc03d9a97	-2.9625604
68	0x3fbf223a	1.493232
69	0x404edd9b	3.2322757
70	0xbfdea7f1	-1.7395002
71	0x3d58ec3c	0.052959666
72	0x3f37659c	0.7163942
73	0x3fb3a0df	1.4033469
74	0xbf2141f6	-0.62991273
75	0xc01a2794	-2.4086657
76	0xbf09969c	-0.53745437
77	0x3f09ea97	0.5387358
78	0x3f542872	0.82874215
79	0xbe8d2ecf	-0.27574775
80	0x40840607	4.1257358
81	0x3ff51674	1.9147477
82	0x41117f2d	9.093549
83	0x3fdd5e14	1.7294335
84	0xc010a387	-2.259981
85	0x401f8fcd	2.493152
86	0x40b15663	5.5417953
87	0xbf78b423	-0.97149867
88	0xbe5fb1a7	-0.21845113
89	0xbf83fc44	-1.031136
90	0xbc2084b1	-0.009797261
91	0x3f0e6923	0.55629176
92	0x4025c321	2.5900347
93	0x3e8023e3	0.2502738
94	0x3e9aac2b	0.3020948
95	0xbf2ac099	-0.6670013
96	0x40020037	2.031263
97	0xbf251093	-0.64478415
98	0xc1154eeb	-9.331767
99	0xbe511ae4	-0.20420414
100	0x402e09fc	2.7193594
101	0x3fecd920	1.8503761
102	0x4033b8ee	2.8081622
103	0xbfa0aad1	-1.2552129
104	0x402f48a9	2.7388098
105	0xbf99af0c	-1.2006545
106	0xc0225016	-2.536138
107	0x401d705b	2.4599826
108	0xc0907218	-4.5139275
109	0x3e3392f2	0.17536524
110	0x3f813004	1.0092778
111	0x3fb05b8f	1.3777941
112	0x3e46a477	0.19398676
113	0x3ff454a6	1.9088333
114	0xc008a9cd	-2.1353638
115	0xc00ddbe0	-2.216545
116	0xbf9a8be2	-1.2073939
117	0x3f8787fb	1.0588373
118	0x40c8d5d0	6.2761
119	0xbfe7d124	-1.81107
120	0x40d776be	6.733245
121	0x3f9da783	1.2316746
122	0xbf9f7e9b	-1.2460512
123	0x3f80baea	1.0057042
124	0xbe8b31f2	-0.27186543
125	0x3e43acff	0.19108962
126	0xbeb1c080	-0.34717178
127	0xbe8b9527	-0.27262232

first_layer.bias f4 [32]
0	0xbf3779f6	-0.7167047
1	0x3f571646	0.8401836
2	0xc0b2e932	-5.590966
3	0x410e7903	8.904544
4	0xbffa419e	-1.9551275
5	0x3f975380	1.1822357
6	0xbf338677	-0.7012705
7	0x3fcba17f	1.590866
8	0x3f5ad666	0.85483396
9	0x3fec773b	1.8473886
10	0x4021717c	2.5225515
11	0xc0dac1dc	-6.8361645
12	0x3fa644c5	1.2989737
13	0xc0c238b3	-6.0694213
14	0x3fa983b8	1.3243322
15	0x400765da	2.1155915
16	0x40096f1f	2.1474073
17	0x403088d8	2.7583523
18	0x3fc70041	1.5546952
19	0x405482e9	3.3204901
20	0xc08f5c4c	-4.4800167
21	0x3f1a6665	0.6031249
22	0x3f9679ab	1.175588
23	0xc0217275	-2.522611
24	0xc09795b9	-4.7370267
25	0x40150f36	2.3290534
26	0xbfe97079	-1.8237449
27	0x40631e95	3.5487416
28	0x400387ef	2.0551717
29	0x4011e51d	2.279609
30	0xc0e7efc9	-7.2480206
31	0x400a95c0	2.16539

inter_layer.weight f4 [32, 32]
0	0xbfd8fb55	-1.69517
1	0xc08a347b	-4.3189063
2	0xbe7a9dc1	-0.24474241
3	0xc09a04ad	-4.813071
4	0xbe89c9fe	-0.2691192
5	0xc062ad55	-3.5418293
6	0xbe78543e	-0.24250886
7	0x3ff18344	1.8868184
8	0xc0fc5a70	-7.8860397
9	0x3ecbc6ee	0.3980021
10	0x3f6fc41a	0.936586
11	0x3f998715	1.1994349
12	0x3f1783f0	0.59185696
13	0xc12d326f	-10.824813
14	0x3f134ced	0.57539254
15	0xc0134b83	-2.3014839
16	0xc0110682	-2.2660222
17	0xbe892f74	-0.26794016
18	0xbe1f9b66	-0.15586624
19	0xc07b03b7	-3.9221017
20	0xc11b4041	-9.703187
21	0xbf8626c2	-1.0480578
22	0xbed9974c	-0.42498243
23	0x3fced73e	1.6159437
24	0xbfebe3fc	-1.842895
25	0xbfa5b092	-1.294451
26	0xc065bde2	-3.5897145
27	0x3fb00d88	1.375413
28	0x3f4e31b2	0.8054458
29	0x3fe646bc	1.7990336
30	0xc118554a	-9.520823
31	0x3fa681ff	1.3008422
32	0xbf3d9deb	-0.7406909
33	0x3f03d3f5	0.51495296
34	0xc0609d1c	-3.5095892
35	0x3fd82f27	1.688939
36	0xc0e90439	-7.2817655
37	0xc087b8db	-4.2413154
38	0x40937292	4.6077356
39	0x3ee9afd5	0.45641962
40	0x402fdfa0	2.748024
41	0xbeee17ba	-0.46502477
42	0x404f46f0	3.2387047
43	0xc066d0ac	-3.6064863
44	0x3f801199	1.000537
45	0xbe4699b1	-0.19394566
46	0x3f264c30	0.6496
47	0x3ed30172	0.4121204
48	0xbeee7c4c	-0.46579206
49	0x3fd561dd	1.667049
50	0xc04725b9	-3.1116774
51	0x40bb7e76	5.859187
52	0xc023df8c	-2.5605192
53	0x3f177c5d	0.5917414
54	0x406f3e27	3.7381685
55	0xc0773a42	-3.8629308
56	0xbf3b929c	-0.73270583
57	0x3feee24e	1.8662813
58	0xc0491583	-3.141938
59	0x40854c34	4.165552
60	0xc0092f10	-2.1434975
61	0xbe0953ba	-0.13410845
62	0xc1051d2c	-8.319622
63	0xc014ea37	-2.3267953
64	0xbf0e970e	-0.5569924
65	0xc0c0fc96	-6.0308332
66	0xbffff40d	-1.9996353
67	0xbf9eaf6f	-1.2397288
68	0x400e1b3d	2.2204125
69	0xbd7275e6	-0.059194468
70	0xc0954aa6	-4.6653624
71	0x403922d9	2.892752
72	0xc091f67a	-4.5613375
73	0xbea8fee0	-0.33006954
74	0x3ded9023	0.115997575
75	0x3edad600	0.42741394
76	0xc044eb3b	-3.0768573
77	0xc09a911e	-4.8302145
78	0x3f2f7012	0.6853038
79	0xbf9d813f	-1.2305068
80	0xc098fe60	-4.7810516
81	0x401e77ad	2.4760544
82	0xbede5d3c	-0.43430507
83	0x3f51199b	0.81679696
84	0xc0480f16	-3.1259208
85	0xbd860e05	-0.06545643
86	0xc05995d4	-3.3997698
87	0xc08d13aa	-4.4086504
88	0xc0cd02e2	-6.406602
89	0x403920f6	2.8926368
90	0xbfcb8674	-1.5900407
91	0xc04cd44f	-3.2004583
92	0xbec211a3	-0.3790408
93	0xbcf62db4	-0.03005109
94	0xc087a088	-4.238346
95	0x40723cad	3.7849534
96	0xbe9ccd7d	-0.30625525
97	0xc0ad2381	-5.410584
98	0x3fe8ae59	1.8178207
99	0xc083c6cb	-4.1180167
100	0x40107125	2.2569058
101	0xbf6a77c9	-0.9158903
102	0xbf188fc8	-0.5959439
103	0x3eeff3df	0.46865746
104	0xbf9a66d4	-1.2062631
105	0xbf0adce4	-0.542433
106	0x3e186580	0.14882469
107	0xc06024cc	-3.502246
108	0x3f5c6dcf	0.86105055
109	0xc12714ff	-10.442626
110	0x3fac0b83	1.3441013
111	0x3d72b67d	0.059256066
112	0xc03c7129	-2.9444067
113	0xbf85c7c8	-1.0451593
114	0x3ef73939	0.48285845
115	0xbf042b4d	-0.5162857
116	0xc020198e	-2.5015597
117	0x3fc784f9	1.5587455
118	0xc0138732	-2.3051267
119	0xc0151d9c	-2.3299322
120	0xc0f25378	-7.572689
121	0xbf25c1b7	-0.6474871
122	0xbf0fe5b7	-0.5620989
123	0xbdbf387e	-0.09336947
124	0x3f510a37	0.8165621
125	0x3fd5e4ae	1.6710413
126	0xc0461d5a	-3.0955415
127	0xbf4520ff	-0.77003473
128	0xbfafd2b7	-1.373618
129	0xbe9317a4	-0.28728974
130	0x3fe02585	1.751145
131	0x40008d97	2.008642
132	0x3f7713a3	0.9651434
133	0x3fd421d1	1.657282
134	0xbfdce0bf	-1.7256087
135	0x3edaa6ba	0.42705327
136	0xbf66a6ca	-0.9009825
137	0x3f842e5b	1.0326647
138	0xc06a3475	-3.6594517
139	0xbe266f72	-0.1625345
140	0x3fb9dcae	1.4520471
141	0xc05510df	-3.3291547
142	0x408f21aa	4.4728594
143	0x3e2dcecd	0.1697342
144	0xc040e235	-3.0138066
145	0x3f7477db	0.95495385
146	0xbd912e84	-0.0708895
147	0x402d2755	2.7055256
148	0xc098627b	-4.7620215
149	0x403e4e3b	2.9735248
150	0xbff4ac2b	-1.9115041
151	0xbf2638c2	-0.64930356
152	0xc09da110	-4.925911
153	0xbfc12869	-1.5090457
154	0xbf34a7bf	-0.7056846
155	0xbf165179	-0.5871807
156	0xc0010214	-2.0157518
157	0x3f1b1338	0.605762
158	0xbf0046ad	-0.5010784
159	0x409258ef	4.573356
160	0x3f541c67	0.8285584
161	0x3f86a4b8	1.0519018
162	0xc01994a8	-2.3996983
163	0x3fc778e2	1.5583766
164	0xc02b9540	-2.6809845
165	0x3e375604	0.17903906
166	0xc09a542f	-4.8227763
167	0xc01f394b	-2.487872
168	0xbffa2e84	-1.9545445
169	0x3fc09b96	1.5047481
170	0x3f3ae1b1	0.7300063
171	0xbfdf7c85	-1.7459875
172	0x4034f587	2.8274858
173	0xbf7ca620	-0.98690987
174	0xbf2d317d	-0.6765364
175	0x40311131	2.7666743
176	0x3d019e01	0.031644825
177	0x3f9b7cda	1.2147477
178	0xbf4c49fa	-0.7980038
179	0x3f7b49ec	0.9815967
180	0x3e2268fe	0.15860364
181	0xbfeef093	-1.8667167
182	0x4095cca9	4.681233
183	0xc0ceab5b	-6.4584174
184	0x40a8d8ed	5.27648
185	0x4004948d	2.0715668
186	0xbf83af8e	-1.028795
187	0x402b7bcd	2.6794312
188	0xbd609b96	-0.05483588
189	0xbea29672	-0.31755406
190	0xc0db834f	-6.859779
191	0xbffc4450	-1.9708347
192	0x3fe57a57	1.792796
193	0xc0607a16	-3.5074515
194	0x3f2c8d21	0.67402846
195	0x402b47a2	2.6762471
196	0x40830da4	4.095415
197	0x3f1ee40c	0.6206672
198	0x3e43f81f	0.1913762
199	0x40085e82	2.1307683
200	0x3f73bca9	0.9520975
201	0x3f2437bf	0.6414756
202	0x3fc13ead	1.5097252
203	0xbff7b55b	-1.935222
204	0xbfe38486	-1.7774818
205	0xc0b3a092	-5.613351
206	0x4065f768	3.5932255
207	0xbdc23a97	-0.094838314
208	0xc09e9964	-4.9562244
209	0x3ef354e1	0.47525695
210	0x3f5b4481	0.85651404
211	0x3ec271ef	0.3797755
212	0x3e41ce9d	0.18926473
213	0x400c0588	2.1878376
214	0xbfc05c4b	-1.5028166
215	0xbfb2bf93	-1.3964714
216	0xc137c4f0	-11.48558
217	0x3ff5c607	1.9201058
218	0xbf0d7776	-0.5526041
219	0x3fa4a5dd	1.2863117
220	0x3f436592	0.7632686
221	0x3ff9504e	1.9477632
222	0xc0cc501d	-6.3847795
223	0x4020f8ac	2.5151777
224	0xbf047299	-0.5173736
225	0x403a6ced	2.9128983
226	0xbffb513b	-1.9634165
227	0xc08fb6db	-4.491071
228	0xbf520da0	-0.8205204
229	0xbe86e5af	-0.2634711
230	0x3f067cb0	0.5253401
231	0xbff09d32	-1.8797972
232	0x3f6c8040	0.92383194
233	0xc08655dd	-4.1979814
234	0x3f135b7f	0.57561487
235	0x3e7a53ad	0.24445982
236	0x3ef717e0	0.48260403
237	0x40eda5ce	7.42649
238	0xbfc4e053	-1.5380958
239	0x3ebf502c	0.37365854
240	0x3f8b1a3e	1.0867383
241	0xbf238c87	-0.638863
242	0xbcd59b6a	-0.026075084
243	0x3f3c1853	0.73474616
244	0xbfddbae2	-1.7322657
245	0xbeb1d4a5	-0.34732547
246	0xc046b362	-3.1046987
247	0x3f8e2f97	1.1108273
248	0x40ccb9f1	6.397698
249	0xbf2f0e33	-0.6838104
250	0xbfbc4a24	-1.4710126
251	0xc08f5a73	-4.479791
252	0xbe39edc6	-0.1815711
253	0xbf7e7886	-0.99402654
254	0xbf95a763	-1.1691707
255	0xbfa12352	-1.2588904

inter_layer.bias f4 [32]
0	0x3e4a8ce7	0.19780312
1	0x402a8cde	2.6648479
2	0xbe1bb8c4	-0.15207201
3	0x3f99d5c0	1.2018356
4	0x405141f2	3.26965
5	0x40583ab8	3.378584
6	0x40795172	3.895596
7	0xbfdf6df7	-1.7455434
8	0x3b3f9014	0.0029230164
9	0xbe899e49	-0.26878574
10	0x3e6e9076	0.23297295
11	0xbead2772	-0.33819157
12	0xbee9fa1b	-0.45698628
13	0xbddceff9	-0.10787959
14	0xbe8d9a5b	-0.27656826
15	0x3ec49383	0.38393793
16	0xbf79abe9	-0.9752794
17	0xbfc84f17	-1.5649136
18	0x3fa28459	1.2696639
19	0xbf8af8d0	-1.0857182
20	0xbf80fdfd	-1.0077511
21	0x3f7c2b1a	0.9850327
22	0xbeb71b74	-0.35763133
23	0xbec8d285	-0.39223114
24	0x3f924d00	1.1429749
25	0xbe26d8d8	-0.16293657
26	0x3fcfadd7	1.6224927
27	0xbf85f6de	-1.0465963
28	0xbe2113c6	-0.15730199
29	0x3ff92ca9	1.9466754
30	0xbfa2af9f	-1.2709845
31	0x40363a81	2.8473208

final_layer.weight f4 [1, 32]
0	0xc0b82806	-5.7548857
1	0x40fa343a	7.8188753
2	0xc113826a	-9.219339
3	0xc0d6528c	-6.6975765
4	0xc0f87d47	-7.7652926
5	0x4104b4ad	8.29411
6	0xc0b13881	-5.5381474
7	0x4067f363	3.6242301
8	0xc093ee7b	-4.6228614
9	0xc0d6bd41	-6.7106023
10	0x402fea79	2.748686
11	0x4017715a	2.3662934
12	0xc0a10067	-5.031299
13	0xc07b00c0	-3.9219208
14	0x4008f4a8	2.1399326
15	0x412a2d5a	10.636072
16	0x404a6e95	3.1629994
17	0x4053b627	3.3079927
18	0xc1015179	-8.082391
19	0x402479ba	2.5699296
20	0x40cea15f	6.4571986
21	0xc0852a55	-4.1614175
22	0x40b615a4	5.6901417
23	0xc11d86b9	-9.845391
24	0xc0708bb0	-3.7585258
25	0xc03dcac7	-2.9655015
26	0xc09273a3	-4.576616
27	0xc0baef9b	-5.8417487
28	0x403f5f85	2.990205
29	0xc01b9c1d	-2.4314034
30	0x41179970	9.47496
31	0xc09943fb	-4.7895484
