continuous cartpole/rl_model/train_2022-02-16T23:10:08.409859/model/113830_actor.pt (torch, 6999 bytes, 5 tensors)

first_layer.weight f4 [32, 4]
000000 8d 84 e2 be c8 31 fa 3f b0 fb 99 40 fb 0c fb be
       -0.44241753 1.9546442 4.8119736 -0.4903334
000010 83 7f 61 3f e9 49 61 be a7 5b 25 c0 ad c3 f8 be
       0.8808519 -0.2200085 -2.583719 -0.4858679
000020 ba 0f 57 c0 c0 f8 eb bf de 02 4c 41 79 7b b0 3f
       -3.3603349 -1.8435287 12.7507 1.3787681
000030 80 77 c4 bf b6 ab 2c c0 6b 29 e6 bf 94 73 d7 3f
       -1.5348969 -2.6979804 -1.798139 1.6832147
000040 71 52 cc 3d c3 1d b0 be 65 f3 8c 3d 15 01 d3 be
       0.09976662 -0.34397706 0.06882361 -0.41211763
000050 64 e0 52 3e 9e 53 d2 3f 5c c5 86 3e 51 af cb bf
       0.2059341 1.6431768 0.26322448 -1.5912877
000060 c5 a1 36 3e 33 a7 aa 3f a7 c8 7c 40 8a 3c 82 3e
       0.17835148 1.3332275 3.9497468 0.25436813
000070 3d ec bd bf 70 35 11 bf 5b da 8a c0 0f 9e 1e bf
       -1.4837719 -0.56722164 -4.3391547 -0.6195993
000080 18 b8 3c c0 1a 77 43 40 90 f5 f3 40 ce 66 b1 bf
       -2.9487362 3.0541444 7.623726 -1.3859499
000090 19 67 ab 3e cc fd ec bf 9b 51 0e c0 98 87 3f bc
       0.33477095 -1.8514953 -2.2237308 -0.011690043
0000a0 ed 81 95 c0 b3 7d 14 3f 68 b1 cc 40 65 f6 3d c0
       -4.67211 0.580043 6.396656 -2.9681637
0000b0 dc 21 f1 bf 38 42 ef 3e d5 4a bb 40 b5 ad b1 3f
       -1.8838458 0.46730208 5.852885 1.3881136
0000c0 4e 2b 90 bf 26 7d ae 3f 03 3a b1 40 2e c0 c0 bf
       -1.1263216 1.3631942 5.5383315 -1.5058649
0000d0 85 80 9b 40 f5 62 07 40 ff 9b b1 c0 97 70 b2 3f
       4.8594384 2.1154149 -5.5502925 1.394061
0000e0 bd 90 f5 bf 14 9d 5f 3f 65 a7 a3 40 f3 e1 b1 bf
       -1.9184796 0.8734906 5.114184 -1.3897079
0000f0 23 ac 1e 40 b0 70 33 40 6f 6e 52 c0 94 8f 26 c0
       2.4792564 2.803753 -3.2879903 -2.6025133
000100 c1 da ab 3d 70 47 ff 3f 0c 2e ae 3e e0 a1 3d c0
       0.08391333 1.9943676 0.34019506 -2.963005
000110 38 b5 b4 3f a8 5f 51 40 20 9c 08 c0 5b fc da bc
       1.4117804 3.2714634 -2.134529 -0.02673166
000120 12 97 02 3f 9e db af 3f 44 58 a9 be 39 2f 18 c0
       0.51011765 1.3738897 -0.33075154 -2.3778822
000130 d3 e4 ef be 18 88 1e 3f 4b 75 7b 3f b1 d6 ab be
       -0.46854267 0.6192641 0.9822585 -0.33562234
000140 e0 e0 8e 40 94 98 f2 3f 71 2f 0a 41 fb 59 d7 3f
       4.4649506 1.8952813 8.636582 1.6824335
000150 bf 65 13 c0 14 91 20 40 38 52 b3 40 be 53 7f bf
       -2.303085 2.5088549 5.6037865 -0.99737155
000160 5c 50 de 3e fa 3e d9 be 22 c6 74 bf 38 5e 00 be
       0.43420684 -0.4243086 -0.95614827 -0.12535942
000170 df 0c 4b 40 67 d6 57 3e 97 74 95 bf 3e a8 26 bf
       3.1726606 0.21077882 -1.1676205 -0.6510047
000180 b2 06 09 40 d8 e9 23 bf 2f e0 16 c1 0d c6 4d be
       2.1410336 -0.6402869 -9.429732 -0.20095082
000190 b1 d7 20 40 fb 48 e2 3f e7 75 1c 40 29 da 9a bf
       2.5131648 1.7678522 2.4446962 -1.2097827
0001a0 1c d0 1b 40 50 c7 9a bf ef 53 02 c0 63 17 1f 40
       2.434577 -1.2092075 -2.036373 2.4858024
0001b0 5b 2f 6e c0 34 7a d4 3e e0 30 17 be 9a 2c 83 3f
       -3.7216403 0.41499484 -0.14764738 1.0247986
0001c0 57 09 2b 3d 49 14 eb 3f bd a1 fc bf a6 e8 09 c0
       0.041756954 1.8365566 -1.9736859 -2.1548247
0001d0 7b 86 9e bf 5a eb 85 3f d1 76 c5 40 fb 57 e8 bf
       -1.238479 1.0462449 6.170754 -1.815185
0001e0 49 2d d4 40 af 0a 98 3f fa 71 94 bf 81 67 85 3f
       6.630528 1.187826 -1.1597283 1.0422212
0001f0 c8 83 dd be 59 86 5a 3e 19 c4 0b be a3 02 97 be
       -0.43264604 0.21340312 -0.13649024 -0.294942

first_layer.bias f4 [32]
000000 49 18 96 bf 37 24 5e 3f 0a 44 ac c0 3d 68 2d 41
       -1.1726161 0.8677401 -5.3833055 10.837949
000010 68 47 e7 bf b7 a1 9a 3f 8c 13 e4 bf 59 90 d8 3f
       -1.8068666 1.2080601 -1.7818465 1.6919051
000020 47 d0 61 3f 5c 3f 31 40 28 74 1c 40 e6 da e2 c0
       0.8820843 2.7694921 2.4445896 -7.089221
000030 02 6d a2 3f 3b 53 c4 c0 70 99 b1 3f 02 d6 fa 3f
       1.2689517 -6.13516 1.387495 1.959656
000040 b0 5d 08 40 a6 ea 2e 40 de 67 c6 3f 29 94 59 40
       2.1307182 2.7330718 1.5500448 3.399668
000050 75 01 90 c0 fb fd 2e 3f 32 f6 cf 3f f3 b4 0f c0
       -4.500178 0.68356293 1.6247008 -2.2454193
000060 88 13 99 c0 d2 7d 09 40 eb c3 e4 bf 5a 32 76 40
       -4.783634 2.1483045 -1.787229 3.8468232
000070 24 bf 00 40 55 0d 14 40 9f d1 e7 c0 75 71 0e 40
       2.0116663 2.3133137 -7.2443385 2.2256749

inter_layer.weight f4 [32, 32]
000000 c6 3c e4 bf a3 91 8c c0 9e ad 54 be 1c 4d a0 c0
       -1.7831047 -4.392778 -0.20769355 -5.009413
000010 12 86 c0 be 7c a0 63 c0 85 1c d7 be 58 21 ee 3f
       -0.37602288 -3.5566702 -0.42013946 1.8603926
000020 ac 37 fd c0 81 10 67 3f 91 ea 6b 3f 8c fb 9d 3f
       -7.913046 0.9025956 0.92154795 1.2342391
000030 f9 3d 12 3f 7b a2 2d c1 ce c6 12 3f e5 1b 15 c0
       0.5712581 -10.852168 0.573346 -2.3298275
000040 d8 99 12 c0 81 de 92 be 91 d3 30 be 7b de 7b c0
       -2.2906399 -0.28685382 -0.17268206 -3.9354541
000050 5d a5 1a c1 c1 1c 88 bf 0e 97 17 bf c9 c8 be 3f
       -9.665372 -1.0633775 -0.59214866 1.4905025
000060 be 57 f3 bf 07 24 a8 bf 73 66 64 c0 45 ef ad 3f
       -1.9011152 -1.3135995 -3.568753 1.3588644
000070 fe e7 49 3f d0 c1 e5 3f 94 4d 18 c1 b4 55 a7 3f
       0.78869617 1.7949772 -9.51894 1.307303
000080 35 29 27 bf a9 96 16 3f 5e f4 62 c0 0f 43 f1 3f
       -0.6529725 0.5882364 -3.546165 1.884859
000090 03 98 e5 c0 92 42 87 c0 f6 1f 99 40 13 f1 f6 3e
       -7.174806 -4.2268763 4.7851515 0.482308
0000a0 1d 96 31 40 76 46 78 bf 23 38 50 40 8e 02 69 c0
       2.7747872 -0.96982515 3.2534263 -3.640781
0000b0 97 ab 82 3f 50 39 2a be fc bf 26 3f 4f 4e e1 3e
       1.0208615 -0.16623425 0.65136695 0.44005057
0000c0 05 13 e2 be bd bf d7 3f 9c 18 46 c0 e8 e7 bb 40
       -0.44155136 1.6855389 -3.095252 5.872059
0000d0 4c 43 26 c0 a7 57 1b 3f bf e7 79 40 57 37 6f c0
       -2.5978575 0.6068062 3.9047697 -3.7377527
0000e0 14 9b 2c bf b9 49 f1 3f 2d 67 4a c0 3a d1 85 40
       -0.6742413 1.8850623 -3.1625473 4.1817904
0000f0 18 23 08 c0 d1 81 05 be 3d 23 05 c1 f6 5a 15 c0
       -2.127142 -0.13037802 -8.321103 -2.3336768
000100 02 ff 24 bf 3f 52 c3 c0 9c 50 fb bf 45 b6 b7 bf
       -0.6445161 -6.10379 -1.9633975 -1.4352499
000110 79 3f 07 40 0d 4b 96 bd 4c f6 9a c0 d7 7f 37 40
       2.113249 -0.073385336 -4.8425655 2.8671777
000120 07 d0 92 c0 f2 60 33 3e a2 e5 cf 3d a4 39 ec 3e
       -4.587894 0.1751745 0.10151221 0.46137726
000130 e4 33 46 c0 bf 76 9b c0 22 0c 2f 3f be 0a a1 bf
       -3.0969172 -4.8582454 0.6837789 -1.2581403
000140 cb c2 99 c0 8d 4d 1d 40 41 a2 e6 be da df 4d 3f
       -4.8050284 2.4578583 -0.45045665 0.80419695
000150 0d b1 45 c0 2d 74 a4 bd da 39 64 c0 47 13 91 c0
       -3.0889313 -0.08029971 -3.566031 -4.533603
000160 cb e3 ce c0 bd f1 37 40 50 eb c8 bf 13 d7 4d c0
       -6.4653068 2.8741295 -1.5696812 -3.216252
000170 ef 4b ca be aa 56 09 bd 2c 97 87 c0 5c b2 72 40
       -0.39511058 -0.033529915 -4.2372036 3.7921362
000180 9e c5 c9 be 91 80 af c0 9d 6a ed 3f 9b 10 8a c0
       -0.39408582 -5.484444 1.8548161 -4.314527
000190 70 97 09 40 d1 3c 6e bf 79 04 46 bf dd 67 e2 3e
       2.149868 -0.9306155 -0.77350575 0.44219866
0001a0 77 d7 9d bf 70 af 1a bd 14 24 09 3e 80 eb 5d c0
       -1.233138 -0.037764966 0.13392669 -3.4674988
0001b0 d2 31 57 3f 77 85 27 c1 f9 cd ab 3f 6f 09 fe 3c
       0.84060395 -10.470084 1.3422233 0.031010358
0001c0 9c 02 3e c0 db 2f 88 bf 69 aa ee 3e 1d 8c 07 bf
       -2.9689093 -1.0639604 0.46614388 -0.5294817
0001d0 73 ac 1d c0 54 94 c5 3f b1 3a 1e c0 d8 24 1d c0
       -2.4636505 1.5435891 -2.4723322 -2.4553738
0001e0 3b 32 f4 c0 c1 9f 2a bf 68 8f 0a bf d9 fe e0 bd
       -7.6311316 -0.66650015 -0.5412507 -0.10986108
0001f0 7a c6 4c 3f e9 64 d5 3f ca 00 46 c0 cb 74 43 bf
       0.7999035 1.667142 -3.0937982 -0.76350087
000200 c7 83 e6 bf 8a dd 85 be c1 57 d3 3f b9 15 f0 3f
       -1.8008965 -0.26145583 1.6511155 1.8756629
000210 32 30 2f 3f 4e 93 f4 3f 6c a5 07 c0 29 c7 f5 3e
       0.68432915 1.9107454 -2.1194715 0.4800351
000220 2c 03 cf be d7 98 c4 3f c8 38 54 c0 6c cd 89 be
       -0.40432107 1.5359143 -3.3159657 -0.26914537
000230 b6 ab ed 3f 6a 2a 64 c0 77 85 9c 40 cd 5d bb 3e
       1.8568027 -3.5650887 4.891292 0.36595002
000240 42 97 31 c0 0c 8a 94 3f 37 3f 22 3e 87 f6 39 40
       -2.774857 1.1604629 0.15844427 2.9056718
000250 06 55 9a c0 33 66 5f 40 1a ae f0 bf d0 c6 8e bf
       -4.822879 3.4906127 -1.8803132 -1.1154423
000260 35 9b a8 c0 03 f1 a1 bf 4e f7 7c bf 3c 11 dd be
       -5.268946 -1.2651676 -0.98814857 -0.4317721
000270 af ae e6 bf 3f 56 75 3f 34 53 30 bf df 4e 98 40
       -1.8022059 0.95834726 -0.6887696 4.759628
000280 3a 8c 6a 3f 27 08 90 3f 6d ec 1b c0 e7 8a e0 3f
       0.9162022 1.1252488 -2.4363053 1.754239
000290 8e ba 24 c0 be 1d 46 3e 90 a7 94 c0 8d 8f 1d c0
       -2.5738864 0.19347283 -4.6454544 -2.4618866
0002a0 4e c4 f6 bf c6 f0 7f 3f 64 a2 3e 3f 8f e1 e3 bf
       -1.9278657 0.99976766 0.7446654 -1.780321
0002b0 a6 40 36 40 2a 89 75 bf d4 c2 2c bf 7f da 32 40
       2.8476958 -0.9591242 -0.67484784 2.794586
0002c0 ff cc 64 3d c1 d9 9d 3f cc 15 48 bf b3 95 7e 3f
       0.055859562 1.2332078 -0.7815826 0.9944717
0002d0 3c 30 f8 3d b7 05 ed bf 96 22 9b 40 b2 aa ca c0
       0.12118575 -1.8517369 4.847972 -6.333337
0002e0 f9 b8 aa 40 be c7 05 40 d7 51 86 bf 53 83 2c 40
       5.3350797 2.0903163 -1.0493726 2.6955154
0002f0 a2 b1 1d bd 53 b7 a0 be d0 8e db c0 d8 25 fd bf
       -0.038499482 -0.31389865 -6.861183 -1.9777174
000300 b1 8b da 3f c4 e3 64 c0 fb e0 34 3f 64 ff 1e 40
       1.707388 -3.5764017 0.7065579 2.4843378
000310 41 2d 7f 40 b7 00 1c 3f af 13 85 3c dd f9 06 40
       3.987137 0.6093859 0.016244737 2.1090004
000320 cb 80 6d 3f 2e 43 93 3f 79 b8 bf 3f c7 d4 f3 bf
       0.9277465 1.1504877 1.4978172 -1.904931
000330 d9 c6 e5 bf ec 9f b4 c0 2e 07 66 40 ad 70 f4 bd
       -1.7951308 -5.6445217 3.5941882 -0.11935554
000340 d3 45 9f c0 d3 ae eb 3e 30 e6 57 3f b4 ad bd 3e
       -4.9772735 0.46031818 0.84335613 0.37046587
000350 86 a3 63 3e 6c 37 0b 40 59 23 d5 bf f3 7a c2 bf
       0.22230348 2.1752577 -1.6651412 -1.5193771
000360 d4 c0 38 c1 a6 c8 f3 3f b0 fa 08 bf f1 11 a3 3f
       -11.547077 1.9045608 -0.5350752 1.273985
000370 ff 11 40 3f a1 33 f9 3f ad 62 cc c0 90 a4 21 40
       0.7502746 1.9468881 -6.3870454 2.525669
000380 e6 fa bd be da 54 2d 40 a9 8f ed bf b4 29 8f c0
       -0.37105483 2.708304 -1.8559467 -4.4738407
000390 19 8b 28 bf 30 cd 6e be 8c 14 45 3f fd ad 0d c0
       -0.65837246 -0.2332046 0.7698448 -2.2137444
0003a0 80 ad 84 3f 07 b3 8b c0 a5 35 25 3f 5c fa d6 3e
       1.0365448 -4.365604 0.6453498 0.41987884
0003b0 44 da 13 3f ab c3 f0 40 fd f0 b9 bf e3 0c c6 3e
       0.5775492 7.5238853 -1.4526669 0.38681707
0003c0 f7 28 8f 3f 88 bc 22 bf 07 4c b8 bb 72 cb 33 3f
       1.1184376 -0.63568926 -0.0056242975 0.7023231
0003d0 82 c2 b5 bf 2d 65 77 be 26 4d 62 c0 a0 f4 a0 3f
       -1.4199984 -0.24159689 -3.5359588 1.2574654
0003e0 83 14 c9 40 e0 f7 24 bf a2 4c c2 bf a8 6a 95 c0
       6.283754 -0.6444073 -1.5179636 -4.6692696
0003f0 9f 38 31 be 73 1f 6c bf 31 d5 83 bf d6 ad ab bf
       -0.17306755 -0.9223549 -1.0299436 -1.3412426

inter_layer.bias f4 [32]
000000 d0 c5 3a 3e 1a 82 2b 40 6f b8 2a be 2b df 97 3f
       0.18239522 2.6798158 -0.16671918 1.186498
000010 8b 94 5a 40 ca 2f 59 40 5f 9a 78 40 f5 ae f9 bf
       3.4153163 3.3935418 3.884422 -1.9506518
000020 79 18 52 bc ea 5b 91 be 94 10 80 3e 68 0c a4 be
       -0.012823218 -0.28390437 0.25012648 -0.32040715
000030 52 f9 f1 be 07 00 ff bd 03 46 84 be 49 06 cb 3e
       -0.4726053 -0.12451177 -0.25834665 0.39653233
000040 a3 58 b6 bf bf e6 ff bf 35 9c a0 3f da 9d ba bf
       -1.42458 -1.9992293 1.2547671 -1.4579422
000050 3b 33 6b bf 5c 02 78 3f ec 1b b1 be e4 58 d0 be
       -0.91875046 0.968786 -0.34591615 -0.40692818
000060 c1 1f 8b 3f 94 8a 08 bf f7 46 ce 3f a8 dd 95 bf
       1.0869066 -0.53336453 1.6115407 -1.1708269
000070 71 de 0f be 93 15 f8 3f 02 18 a1 bf 55 a2 35 40
       -0.14049698 1.9381584 -1.2585452 2.838033

final_layer.weight f4 [1, 32]
000000 3f c9 b9 c0 06 c4 fb 40 ea 7f 14 c1 9d 24 db c0
       -5.805816 7.8676786 -9.281229 -6.8482194
000010 1d 8a ff c0 78 8a 05 41 9b 12 b2 c0 2c 55 79 40
       -7.9856095 8.346306 -5.564771 3.8958235
000020 e3 d1 95 c0 6b 38 d9 c0 9c 3b 32 40 a8 11 1b 40
       -4.681871 -6.788137 2.7848883 2.4229527
000030 61 1d a3 c0 88 61 84 c0 db f5 0b 40 3a 16 2a 41
       -5.0973363 -4.1369057 2.1868808 10.630426
000040 89 d8 58 40 e8 bb 5d 40 14 b9 02 c1 3e 2c 33 40
       3.3882163 3.464594 -8.170185 2.7995753
000050 e5 3c c7 40 70 c3 88 c0 68 d2 b5 40 59 fc 1e c1
       6.2261834 -4.273857 5.6819344 -9.936608
000060 46 19 6f c0 ab d6 48 c0 34 7d 93 c0 7d 24 c1 c0
       -3.7359176 -3.1381023 -4.6090336 -6.035704
000070 e1 0c 42 40 3c 12 1f c0 e5 84 17 41 53 5c 9b c0
       3.032036 -2.485488 9.469945 -4.85502
