continuous cartpole/rl_model/train_2022-02-16T23:10:08.409859/model/124700_critic.pt (torch, 8580 bytes, 9 tensors)

norm_layer.weight f4 [4]
0	0x3f800000	1.0
1	0x3f800000	1.0
2	0x3f800000	1.0
3	0x3f800000	1.0

norm_layer.bias f4 [4]
0	0x00000000	0.0
1	0x00000000	0.0
2	0x00000000	0.0
3	0x00000000	0.0

norm_layer.running_mean f4 [4]
0	0x00000000	0.0
1	0x00000000	0.0
2	0x00000000	0.0
3	0x00000000	0.0

norm_layer.running_var f4 [4]
0	0x3f800000	1.0
1	0x3f800000	1.0
2	0x3f800000	1.0
3	0x3f800000	1.0

first_layer.weight f4 [32, 5]
0	0x41e049c0	28.03601
1	0x415e9283	13.910769
2	0x423a2f64	46.54628
3	0x41eb93ef	29.447233
4	0x3ed8f260	0.42372417
5	0x4240de5c	48.217148
6	0x410c6157	8.773765
7	0xc17914d9	-15.56759
8	0x40623435	3.5344365
9	0xbe8ba3d8	-0.2727344
10	0xc21417a0	-37.02307
11	0xc19aaeba	-19.335316
12	0xc23dcbee	-47.44915
13	0xc16c1195	-14.7542925
14	0x3e1cbc86	0.15306291
15	0x40c4b403	6.146974
16	0xc214c5d2	-37.193184
17	0xc2882f01	-68.091805
18	0xc13fab22	-11.97928
19	0x3fb401e5	1.4063078
20	0xc1fa7748	-31.308243
21	0xc19c2309	-19.517107
22	0xc2380f18	-46.01474
23	0xc18bf332	-17.493748
24	0x3e1fc795	0.15603478
25	0x4228006c	42.000412
26	0x41a3abd9	20.45891
27	0x41f7654d	30.924463
28	0x3f80ebb3	1.007193
29	0x3f10007a	0.5625073
30	0x42567ce4	53.621964
31	0x41513a42	13.076723
32	0xc2837db7	-65.74554
33	0xc04edba2	-3.2321553
34	0x3dfe6908	0.12422377
35	0xc1f45645	-30.542124
36	0xc19d5b8c	-19.6697
37	0xc2277a3f	-41.86938
38	0xc165e91f	-14.369414
39	0x3d0c875b	0.034308773
40	0x42512387	52.284695
41	0x4133a65c	11.228115
42	0xc263da17	-56.96298
43	0xc0d23ff9	-6.570309
44	0x3e8e982e	0.2785048
45	0xc21850ce	-38.07891
46	0xc19e79a6	-19.809399
47	0xc2510392	-52.253487
48	0xc16ff65f	-14.997649
49	0x3e002f00	0.12517929
50	0xc1d64b14	-26.78666
51	0xc19654bd	-18.791376
52	0xc23432a6	-45.04946
53	0xc14cf1dc	-12.809048
54	0x3e85454c	0.26029432
55	0xc1c0587e	-24.04321
56	0xc14a3633	-12.638232
57	0xc27183b9	-60.378635
58	0xc18489cc	-16.567284
59	0x3eae5aa3	0.34053525
60	0x42441dfe	49.02929
61	0x403ad931	2.9195063
62	0xc18e5337	-17.790632
63	0x40e690b5	7.2051644
64	0xc005e0e5	-2.0918515
65	0x41a76f20	20.92926
66	0x4159e4cf	13.618361
67	0x421bd2a8	38.95572
68	0xbe6d8aa5	-0.2319742
69	0x3e95bb6d	0.29244557
70	0xc222712c	-40.61052
71	0xc1a49ee3	-20.577581
72	0xc22c750f	-43.114315
73	0xc17d4a28	-15.830605
74	0x3d06c6be	0.03290438
75	0xc22628cd	-41.539845
76	0xc195deba	-18.733753
77	0xc22e0244	-43.502213
78	0xc16ce1c8	-14.805122
79	0x3e065800	0.13119507
80	0xc1cc7bf9	-25.560534
81	0xc17023c6	-15.008734
82	0xc21c2e08	-39.044952
83	0xc15a35ff	-13.638183
84	0x3e2c6730	0.16836238
85	0x42531149	52.76688
86	0x41860e00	16.756836
87	0x3f920617	1.1408108
88	0x402b7496	2.6789908
89	0x3e96b62c	0.2943586
90	0x42977379	75.72553
91	0x40b5332a	5.6624956
92	0xc2a54e92	-82.65346
93	0xc0a0dc35	-5.0268807
94	0x3f14ec95	0.58173496
95	0xc21815fd	-38.021473
96	0xc1968e2b	-18.819418
97	0xc252cd85	-52.700703
98	0xc1664f1c	-14.394314
99	0x3dd81522	0.10550906
100	0x41eb7265	29.430857
101	0x4084502a	4.1347857
102	0x3ef2e782	0.4744225
103	0x410ef9f1	8.936021
104	0xbf87ad46	-1.0599754
105	0xc2163688	-37.553253
106	0xc1863026	-16.77351
107	0xc288de48	-68.43414
108	0xc15c97ea	-13.787088
109	0x3dea20f9	0.1143207
110	0x423e7e4a	47.62333
111	0x41ad5dda	21.670826
112	0x41e0281b	28.019583
113	0xbfa766f9	-1.30783
114	0x3f8a1886	1.0788734
115	0xbff5e7d0	-1.9211369
116	0x3f09f94d	0.5389603
117	0x422c4c51	43.074528
118	0x413613a1	11.379792
119	0xbe40c847	-0.188264
120	0x424ec510	51.692444
121	0x41708aa5	15.033849
122	0x41cdec0d	25.74026
123	0xbe133a20	-0.14377642
124	0x3ea3fa57	0.32026932
125	0xc1f2aeed	-30.335413
126	0xc16e29bb	-14.885188
127	0xc2385f16	-46.092857
128	0xc145a03c	-12.35162
129	0x3e0a136c	0.13483971
130	0xc1e7b346	-28.962536
131	0xc168ce44	-14.550358
132	0xc27d0f15	-63.26473
133	0xc148872c	-12.533001
134	0x3ec57971	0.38569215
135	0xc1f95c18	-31.169968
136	0xc0edf4e6	-7.436145
137	0xc20d2bfa	-35.292946
138	0xc18b1c7b	-17.388906
139	0xc0661040	-3.5947418
140	0x40769ca1	3.8533099
141	0xbfac5f2d	-1.3466545
142	0x4258e327	54.22183
143	0x41adc5aa	21.721516
144	0xbe2b695f	-0.16739415
145	0x425cecb0	55.23114
146	0x415ed4c3	13.926944
147	0xc11ded53	-9.8704405
148	0xc0ebbc00	-7.366699
149	0x3f899b58	1.0750532
150	0xc183241d	-16.392633
151	0xc14999db	-12.600062
152	0xc23eb1fc	-47.673813
153	0xc1abb9b9	-21.465685
154	0xbfa8d4fc	-1.3189998
155	0xc2088f7f	-34.140133
156	0xc193f544	-18.494759
157	0xc24bc3e8	-50.941315
158	0xc14f8ef1	-12.972398
159	0x3e085023	0.1331182

first_layer.bias f4 [32]
0	0xc19654fe	-18.7915
1	0xc2071cd7	-33.778164
2	0x427dc40e	63.44146
3	0x424515d6	49.271324
4	0x424fabd6	51.91781
5	0xc157c720	-13.4861145
6	0xc1ca16cc	-25.261131
7	0x425ba229	54.90836
8	0xc1d1a9d7	-26.20793
9	0x426f38ef	59.8056
10	0x427a87a8	62.632477
11	0x425b5516	54.83309
12	0xc1761c94	-15.381977
13	0xc24ef0d0	-51.73517
14	0x425903f1	54.25385
15	0x4266b685	57.67824
16	0x427761ec	61.845627
17	0xc148b04b	-12.54304
18	0xc1d8752c	-27.057213
19	0x426ac770	58.694763
20	0xc2514e27	-52.32632
21	0x425ac811	54.695377
22	0xc1d1fd30	-26.248627
23	0xc22a1236	-42.517784
24	0xc16fa943	-14.978824
25	0x4276be5d	61.6859
26	0x4269dc2c	58.46501
27	0x423c60aa	47.0944
28	0xc2016457	-32.34799
29	0xc2273360	-41.80017
30	0x425634c1	53.551517
31	0x42759bbf	61.402096

inter_layer.weight f4 [32, 32]
0	0xc0b796c6	-5.737155
1	0xc2bbf1f8	-93.972595
2	0x429cbe52	78.37172
3	0x41cf63a0	25.923645
4	0x4251b0d8	52.4227
5	0xc1681eb6	-14.507498
6	0xc2dc624d	-110.19199
7	0x428f9c2d	71.80503
8	0xc29cc481	-78.3838
9	0x42a238c2	81.110855
10	0x427dcb03	63.448254
11	0x424d830e	51.377983
12	0xc20ef1e5	-35.736225
13	0xc3030dbe	-131.05368
14	0x42985189	76.15925
15	0x42a112d9	80.53681
16	0x42701d87	60.028835
17	0xc1f5efc0	-30.742065
18	0xc28ff385	-71.975624
19	0x42937ab2	73.73964
20	0xc2619075	-56.39107
21	0x4280c642	64.38722
22	0xc2048743	-33.13209
23	0xc2dfdd9b	-111.93282
24	0xc2382ec7	-46.04568
25	0x42767b40	61.62036
26	0x427a7a18	62.619232
27	0x41cf1d15	25.8892
28	0xc1e7470b	-28.909689
29	0xc22738b4	-41.805374
30	0x422752f0	41.830994
31	0x4299cce2	76.90016
32	0xc12f5acd	-10.959668
33	0xc2ab5c1a	-85.679886
34	0x42960ac2	75.02101
35	0x41c901d2	25.125889
36	0x42481c1a	50.027443
37	0xc1892fef	-17.148405
38	0xc2cbf5de	-101.98021
39	0x428dcb87	70.897514
40	0xc29436be	-74.10692
41	0x429d8ece	78.778915
42	0x4278b6a6	62.178368
43	0x4240bfbc	48.18724
44	0xc20677ba	-33.61692
45	0xc2db46bb	-109.638145
46	0x4297fff2	75.99989
47	0x429be2be	77.942856
48	0x426b77ed	58.867115
49	0xc20c9dfe	-35.15429
50	0xc28331f5	-65.59757
51	0x4291783e	72.73485
52	0xc26dec74	-59.48091
53	0x42805a69	64.17658
54	0xc20a2ea1	-34.545536
55	0xc2a96a6b	-84.70785
56	0xc2362dc9	-45.544712
57	0x426ff9fe	59.994133
58	0x426d12ae	59.26824
59	0x41c6c086	24.844006
60	0xc1c79228	-24.946365
61	0xc232de78	-44.717255
62	0x421f9791	39.898014
63	0x42942c46	74.08647
64	0x40ee271c	7.442274
65	0x422f78b0	43.86786
66	0xc287361e	-67.6057
67	0xc18f8f2d	-17.94491
68	0xc226054d	-41.505177
69	0x40b1192f	5.534324
70	0x42a53d12	82.61928
71	0xc28e9b40	-71.30322
72	0x4256f728	53.741364
73	0xc28cbda1	-70.37037
74	0xc2568b25	-53.635883
75	0xc21bb938	-38.930878
76	0x41920bba	18.255726
77	0x42bc3f24	94.12332
78	0xc294c8cd	-74.39219
79	0xc28607b9	-67.01508
80	0xc24cefdb	-51.234234
81	0x41d63139	26.774035
82	0x42505cfc	52.090805
83	0xc2847be8	-66.242004
84	0x42041bc3	33.02711
85	0xc26eca86	-59.697777
86	0x4143ed92	12.245501
87	0x4257a611	53.912174
88	0x4205856c	33.380295
89	0xc25ab4a4	-54.676407
90	0xc25655f1	-53.583927
91	0xc1cf335b	-25.900076
92	0x41109b6e	9.037947
93	0x41bd1731	23.636324
94	0xc21caeee	-39.17083
95	0xc28b8ba3	-69.77273
96	0xc0f796a3	-7.7371383
97	0xc2c547d1	-98.64027
98	0x429ac3bc	77.38229
99	0x41c42caf	24.521818
100	0x424e8aa3	51.635387
101	0xc175bf83	-15.359256
102	0xc2d516a8	-106.54425
103	0x428c7b5b	70.24093
104	0xc29b8929	-77.76789
105	0x429e1a59	79.05146
106	0x4275f8cb	61.49296
107	0x424a0e62	50.514046
108	0xc2061e01	-33.5293
109	0xc2f236d2	-121.10707
110	0x4296bb4e	75.36583
111	0x42a011e7	80.034966
112	0x426b816c	58.87639
113	0xc206c139	-33.688694
114	0xc286b530	-67.35388
115	0x429323db	73.57003
116	0xc25e6516	-55.598717
117	0x4281941f	64.7893
118	0xc205c2e4	-33.440323
119	0xc2b8b93a	-92.36177
120	0xc239ce7f	-46.451656
121	0x426e2dd6	59.54476
122	0x42789bf4	62.152298
123	0x41d3a9ec	26.45797
124	0xc1d6aa7d	-26.833246
125	0xc229a935	-42.41524
126	0x422720e0	41.782104
127	0x429615e0	75.042725
128	0xc13e2c60	-11.885834
129	0xc2a75e5a	-83.68428
130	0x4294f9e3	74.48806
131	0x41b978cc	23.183983
132	0x424934e7	50.301662
133	0xc195f0cd	-18.742579
134	0xc2ce385e	-103.11009
135	0x428f6bd6	71.71062
136	0xc291102f	-72.53161
137	0x429e63af	79.194695
138	0x42749858	61.148773
139	0x423e69dd	47.603382
140	0xc1f6e597	-30.862104
141	0xc2cdf2b2	-102.974014
142	0x4297a005	75.81254
143	0x429f1d44	79.55716
144	0x42682438	58.03537
145	0xc2123d99	-36.560154
146	0xc2839aa7	-65.802055
147	0x4291e738	72.9516
148	0xc271de3c	-60.467026
149	0x42839cf5	65.80656
150	0xc206b376	-33.675255
151	0xc2ae72a5	-87.223915
152	0xc23cf6d2	-47.241035
153	0x426de958	59.477875
154	0x426d6d7c	59.35692
155	0x41c5fbce	24.747952
156	0xc1b03941	-22.027956
157	0xc22b815e	-42.876335
158	0x421abd24	38.684708
159	0x428ed9b8	71.42523
160	0xc123c871	-10.236436
161	0xc277c0aa	-61.93815
162	0x428bb749	69.85798
163	0x41a003df	20.00189
164	0x4236eec8	45.733185
165	0xc1946b14	-18.552284
166	0xc2ab33b7	-85.601006
167	0x4289042e	68.50816
168	0xc2844b45	-66.14701
169	0x42947a81	74.239265
170	0x42628b74	56.636185
171	0x423aeac1	46.72925
172	0xc1f6922f	-30.821379
173	0xc2dee58f	-111.44836
174	0x42921628	73.043274
175	0x42905f02	72.18556
176	0x4250fdc4	52.247818
177	0xc2079ca2	-33.90296
178	0xc26b46d7	-58.81918
179	0x428c7b17	70.24041
180	0xc2384782	-46.06983
181	0x428d298f	70.58117
182	0xc1f49a72	-30.575413
183	0xc28647da	-67.140335
184	0xc24ce47f	-51.22314
185	0x425c0aee	55.010674
186	0x42636610	56.84967
187	0x41bae9bd	23.36413
188	0xc1d411f4	-26.508766
189	0xc21031f3	-36.04878
190	0x421f6f67	39.85879
191	0x428a5368	69.1629
192	0x40dcc0c5	6.8985314
193	0x422a7de5	42.622944
194	0xc286b1c4	-67.3472
195	0xc190751c	-18.057182
196	0xc223a0d8	-40.907074
197	0x40b90d05	5.7828393
198	0x42a6b54f	83.35412
199	0xc28dedc6	-70.9644
200	0x4254f979	53.243626
201	0xc28c8f0b	-70.27938
202	0xc2551ab7	-53.27609
203	0xc2248e8c	-41.139206
204	0x4194da93	18.606726
205	0x42b85b9c	92.178925
206	0xc2969ab8	-75.302185
207	0xc2846257	-66.19207
208	0xc24a6243	-50.59596
209	0x41cddbf3	25.732397
210	0x42517531	52.364445
211	0xc283956f	-65.79186
212	0x4203e428	32.97281
213	0xc274b538	-61.17697
214	0x413f3f8a	11.953012
215	0x42585740	54.085205
216	0x42049927	33.149563
217	0xc25a7405	-54.6133
218	0xc2585a49	-54.08817
219	0xc1cdcf69	-25.726274
220	0x410d40bd	8.828305
221	0x41bc9164	23.570992
222	0xc21e4f75	-39.577595
223	0xc2894fa5	-68.655556
224	0x40a43bfa	5.1323214
225	0x42320c59	44.51206
226	0xc283b25d	-65.848366
227	0xc18828d6	-17.01994
228	0xc2257df9	-41.37302
229	0x40a706dd	5.219588
230	0x42974227	75.6292
231	0xc28b303d	-69.594215
232	0x42412be1	48.29285
233	0xc288b8b1	-68.360725
234	0xc2553e3c	-53.310776
235	0xc2214425	-40.316547
236	0x418b8d8b	17.444113
237	0x42b2f000	89.46875
238	0xc2923980	-73.112305
239	0xc280f548	-64.479065
240	0xc2509b20	-52.15149
241	0x41cacf6c	25.35128
242	0x424c180c	51.023483
243	0xc2825adc	-65.17746
244	0x41f1ae18	30.210007
245	0xc2684b25	-58.073383
246	0x4137ee1d	11.495633
247	0x4257d322	53.956184
248	0x4202e63e	32.724846
249	0xc2598beb	-54.38664
250	0xc25f4e3c	-55.8264
251	0xc1e8e95e	-29.113949
252	0x41016ef5	8.089589
253	0x41cb1166	25.383495
254	0xc2299232	-42.39277
255	0xc28ad187	-69.40923

inter_layer.bias f4 [32]
0	0x427e067f	63.506344
1	0x427590c0	61.391357
2	0xc280d595	-64.41715
3	0x4278c063	62.187878
4	0x4269d4dc	58.45787
5	0x4252553c	52.583237
6	0xc27e8e3d	-63.638905
7	0xc27e49de	-63.572136
8	0xc27f5a2f	-63.83807
9	0x426cf314	59.23738
10	0x42632350	56.784485
11	0xc2777f76	-61.874474
12	0x426c6e73	59.10786
13	0xc280a84e	-64.32872
14	0xc2111fe4	-36.281143
15	0x424bd934	50.962112
16	0xc2774b65	-61.823627
17	0xc2770190	-61.751526
18	0x427b2a27	62.791164
19	0xc2819f8d	-64.81162
20	0x427731b9	61.798557
21	0xc2782afb	-62.041973
22	0x427821a9	62.03287
23	0xc2772611	-61.787174
24	0x427cd350	63.20636
25	0x427b5d33	62.841015
26	0xc27afaca	-62.74491
27	0x426801a1	58.00159
28	0xc27cd90b	-63.211956
29	0xc27aea00	-62.728516
30	0xc27c2009	-63.031284
31	0x42734202	60.81446

final_layer.weight f4 [1, 32]
0	0x42ced8fb	103.42379
1	0x42cb1048	101.5318
2	0xc26f0417	-59.753994
3	0x42c632f8	99.09955
4	0x42c9ff8e	100.99913
5	0x42ada441	86.82081
6	0xc2701308	-60.018585
7	0xc275cc01	-61.449223
8	0xc285bf16	-66.873215
9	0x42bd3891	94.61048
10	0x42bd9f39	94.81098
11	0xc26dfe5e	-59.498405
12	0x42c6b420	99.35181
13	0xc27405e8	-61.005768
14	0xc26adea2	-58.717415
15	0x42b7ad6e	91.83873
16	0xc2850fac	-66.53061
17	0xc274da7c	-61.213364
18	0x42c5d63e	98.91844
19	0xc272dd6f	-60.716244
20	0x42cd07a4	102.51492
21	0xc2754426	-61.31655
22	0x42bf566f	95.668816
23	0xc27f06e7	-63.75674
24	0x42cc3fb3	102.12441
25	0x42c26b2e	97.209335
26	0xc280f7f7	-64.48431
27	0x42c7a9ca	99.83162
28	0xc26e1f6c	-59.530685
29	0xc28169cc	-64.706635
30	0xc275de65	-61.467182
31	0x42c8ecc6	100.46245
