continuous cartpole/rl_model/train_2022-02-16T23:10:08.409859/model/130460_actor.pt (torch, 6999 bytes, 5 tensors)

first_layer.weight f4 [32, 4]
0	0xbf3b703c	-0.7321813
1	0x3ff47a17	1.9099759
2	0x407b9fc4	3.9316263
3	0xbf53660f	-0.82577604
4	0x3f5dcefa	0.86643946
5	0xbe413efa	-0.1887168
6	0xc020676c	-2.5063124
7	0xbed527d0	-0.41631937
8	0xc0270bde	-2.6100993
9	0xbff73ace	-1.9314821
10	0x414caa92	12.791643
11	0x3fdb84a5	1.7149855
12	0xc0ea6fe6	-7.3261595
13	0xc094ef24	-4.654192
14	0x409382b7	4.6097064
15	0x40907723	4.514543
16	0xbda5c848	-0.08094841
17	0xbed07fb8	-0.40722442
18	0x3f15b06b	0.5847232
19	0xbec00b8a	-0.37508804
20	0x3edf818b	0.4365352
21	0x3fd4dbfe	1.6629636
22	0x3e29b419	0.16572608
23	0xbfd2be9b	-1.6464418
24	0xbe5ee966	-0.21768722
25	0x3faf7e79	1.3710471
26	0x3ff00966	1.8752868
27	0xbd9fa0c9	-0.07794339
28	0xbfc64abf	-1.5491561
29	0xbf2d205c	-0.676275
30	0xc089842e	-4.297385
31	0xbf1424a8	-0.57868433
32	0xc03be44e	-2.9358096
33	0x4047b736	3.1205573
34	0x40fa0fbf	7.814422
35	0xbfa70e03	-1.3051151
36	0xbf3a8664	-0.72861314
37	0xbfdf45d6	-1.7443187
38	0xc041c867	-3.0278566
39	0x3e8372c4	0.25673497
40	0xc097304a	-4.7246447
41	0x3f1ae2bb	0.60502213
42	0x40cc0f89	6.3768964
43	0xc03c7b7a	-2.9450364
44	0xbfaa5a07	-1.3308724
45	0x3f118526	0.56843793
46	0x40b83a4a	5.7571154
47	0x3fa99545	1.3248678
48	0xbf9b777e	-1.2145841
49	0x3fb62112	1.4228842
50	0x40ae5f2c	5.4491177
51	0xbfc81be4	-1.5633512
52	0x409e2297	4.9417224
53	0x400c5087	2.192415
54	0xc0b04562	-5.5084696
55	0x3fb6e3e0	1.4288292
56	0xbfe11a65	-1.758618
57	0x3f5d9d33	0.8656799
58	0x409fd93e	4.995269
59	0xbfb944e3	-1.4474148
60	0x3fcf813e	1.6211317
61	0x4037008c	2.8594084
62	0xc05e9bab	-3.4782512
63	0xc03dcd98	-2.9656734
64	0x3de85bab	0.11345609
65	0x40003c63	2.0036857
66	0x3ec58697	0.38579246
67	0xc0383307	-2.8781145
68	0x3f21b368	0.6316438
69	0x404c2600	3.1898193
70	0xc0110eb4	-2.2665224
71	0xbe82d8a7	-0.25555918
72	0x3f651998	0.8949218
73	0x3fb5f045	1.421395
74	0xbeea08e3	-0.45709905
75	0xc01aae19	-2.416876
76	0xbdcec1a9	-0.100955315
77	0x3f3461a3	0.7046148
78	0x3f75f075	0.96070033
79	0xbe7c4624	-0.24636132
80	0x4082330c	4.0687313
81	0x3fe2b8dc	1.7712665
82	0x410cf368	8.809425
83	0x3fe91dae	1.8212183
84	0xc00525e0	-2.0804367
85	0x4022d64a	2.5443292
86	0x40adefff	5.4355464
87	0xbf8cdddb	-1.1005205
88	0x3d28b387	0.041186836
89	0xbec53842	-0.38519484
90	0xbf520ae7	-0.82047886
91	0xbe347fc9	-0.17626871
92	0x40273fb8	2.613264
93	0x3e500e68	0.20317996
94	0xbfaeda6e	-1.366041
95	0xbf2b1eb4	-0.66843724
96	0x400480c1	2.0703585
97	0xbf1d357d	-0.6140974
98	0xc115b055	-9.35555
99	0xbe1b5912	-0.15170696
100	0x3fd1015a	1.6328537
101	0x3fcb2620	1.587101
102	0x3ff01b53	1.8758339
103	0xbfbd48cb	-1.478784
104	0x402ad5d9	2.6693022
105	0xbf9da3f8	-1.2315664
106	0xc00458d1	-2.067921
107	0x402106c8	2.516039
108	0xc05f7ea6	-3.492105
109	0xbaa077cb	-0.0012242732
110	0xbed3d47e	-0.41373056
111	0x3f8f988c	1.1218429
112	0x3ee36bb5	0.4441811
113	0x3fed43e7	1.8536347
114	0xc00add1f	-2.1697462
115	0xc00bf54b	-2.1868465
116	0xbf9d8fea	-1.2309544
117	0x3f8113d7	1.008418
118	0x40c051a7	6.0099673
119	0xbff3ac11	-1.9036885
120	0x40d82a70	6.7551804
121	0x3f93df93	1.1552604
122	0xbf9887ab	-1.1916403
123	0x3f826419	1.0186797
124	0xbe93bdec	-0.28855836
125	0x3e57f1b1	0.21088292
126	0xbe43c1b2	-0.19116858
127	0xbeacc067	-0.3374054

first_layer.bias f4 [32]
0	0xbf50e81b	-0.81604165
1	0x3f6fbf6b	0.93651456
2	0xc0b39b88	-5.6127357
3	0x411310ed	9.191632
4	0xc00e8005	-2.2265637
5	0x3f987030	1.1909237
6	0xbff50cb1	-1.9144498
7	0x3fc340a4	1.5254102
8	0x3f6d6e92	0.9274684
9	0x402f0683	2.7347724
10	0x4021151e	2.516914
11	0xc0e2a310	-7.082405
12	0x3fb220ee	1.3916299
13	0xc0c070fd	-6.0137925
14	0x3fac5ffe	1.3466794
15	0x400e45e1	2.223015
16	0x400aa05a	2.166037
17	0x402bfdfd	2.6873772
18	0x3fc6d335	1.5533205
19	0x4061fb25	3.5309536
20	0xc0931ba8	-4.597126
21	0x3f39e785	0.72618896
22	0x3fc753d8	1.5572462
23	0xc028c527	-2.6370332
24	0xc097180a	-4.7216845
25	0x40004caa	2.0046792
26	0xbfef29e2	-1.8684657
27	0x40664bee	3.5983844
28	0x3ffe6864	1.9875607
29	0x400fe561	2.2483752
30	0xc0eabba2	-7.3354044
31	0x400bf0d9	2.1865752

inter_layer.weight f4 [32, 32]
0	0xc0021f07	-2.0331438
1	0xc089e4da	-4.309186
2	0xbe8a48e6	-0.27008742
3	0xc0a33142	-5.099763
4	0x3b977eef	0.004623286
5	0xc05fb65e	-3.4955058
6	0xbef43ff8	-0.47705054
7	0x3ff60b3c	1.9222178
8	0xc0fbc8ec	-7.8682766
9	0x3f6b6bba	0.9196125
10	0x3f79cd0a	0.9757849
11	0x3f96eae7	1.1790437
12	0x3f1ffc0c	0.6249397
13	0xc12deb30	-10.869919
14	0x3f1f96cd	0.6233948
15	0xc010fa8b	-2.265292
16	0xc00e8751	-2.227009
17	0xbe743873	-0.23849659
18	0xbddc7073	-0.107636355
19	0xc0795050	-3.895527
20	0xc11b98ec	-9.724834
21	0xbf826e09	-1.018983
22	0xbf10715e	-0.56422985
23	0x3ff2b86b	1.896253
24	0xbff13bd7	-1.8846387
25	0xbfa0927d	-1.2544705
26	0xc0682498	-3.6272335
27	0x3fcffc00	1.6248779
28	0x3f59f944	0.85145974
29	0x3fec9dcb	1.8485655
30	0xc1189888	-9.537239
31	0x3faca358	1.3487349
32	0xbece42f4	-0.40285456
33	0x3f0129ab	0.50454205
34	0xc05ef6aa	-3.4838052
35	0x3ffcd1a2	1.9751475
36	0xc0f1c880	-7.555725
37	0xc0893876	-4.288142
38	0x409af27d	4.8421006
39	0x3ed749e2	0.42048556
40	0x402eb96e	2.7300677
41	0xbf7ca51c	-0.98689437
42	0x404cbfe9	3.1992133
43	0xc0657b7f	-3.5856626
44	0x3f779afd	0.9672087
45	0xbe187a76	-0.14890465
46	0x3f19f249	0.6013532
47	0x3ec03f58	0.37548327
48	0xbf01548e	-0.50519645
49	0x3fd18fdf	1.6372031
50	0xc04a4246	-3.160295
51	0x40baa0a5	5.83211
52	0xc0227c65	-2.5388424
53	0x3f0ffc53	0.5624439
54	0x40781e92	3.8768659
55	0xc0849832	-4.1435785
56	0xbf30d8e5	-0.69080955
57	0x3fe9b92b	1.8259634
58	0xc046a99b	-3.104102
59	0x407a9c15	3.9157765
60	0xc00c2757	-2.189901
61	0xbe3c50b2	-0.18390158
62	0xc104d894	-8.3028755
63	0xc0180029	-2.3750098
64	0xbf650486	-0.8946003
65	0xc0c0a5ea	-6.020253
66	0xc001a510	-2.0256996
67	0xbfc34555	-1.5255533
68	0x401f9ca4	2.4939356
69	0xbc48e61b	-0.012261893
70	0xc09cc99f	-4.899612
71	0x403b7406	2.9289565
72	0xc09161b9	-4.543179
73	0x3e44bc07	0.19212352
74	0x3e1f772e	0.15572807
75	0x3ecffaec	0.40621126
76	0xc042c48d	-3.0432465
77	0xc09c05d1	-4.87571
78	0x3f3bd8f2	0.7337791
79	0xbf98c855	-1.1936136
80	0xc097b985	-4.7413964
81	0x40206618	2.5062313
82	0xbec55a53	-0.38545474
83	0x3f581499	0.8440643
84	0xc0497782	-3.1479192
85	0xbd134980	-0.035958767
86	0xc0627178	-3.5381756
87	0xc0841853	-4.1279693
88	0xc0ce5cf7	-6.4488482
89	0x403bb970	2.9331932
90	0xbfd065b9	-1.6281043
91	0xc03cd33f	-2.9503934
92	0xbeaa2e70	-0.33238554
93	0x3ca3aa5a	0.01997869
94	0xc0882e1a	-4.2556276
95	0x4075576a	3.8334603
96	0xbf24e8a5	-0.6441749
97	0xc0acd415	-5.400889
98	0x3fe56f8b	1.7924665
99	0xc08cf501	-4.4049077
100	0x4021f53f	2.5305936
101	0xbf5e9453	-0.86945075
102	0xbf54a18b	-0.83058995
103	0x3f01075b	0.5040185
104	0xbf981fb1	-1.1884671
105	0xbcaa9ad7	-0.020825787
106	0x3e40b2fd	0.18818279
107	0xc061730c	-3.522647
108	0x3f64efe2	0.8942853
109	0xc127ce72	-10.487902
110	0x3fb23580	1.3922577
111	0x3dc3b832	0.09556617
112	0xc039f056	-2.905294
113	0xbf820000	-1.015625
114	0x3f07fb24	0.53117585
115	0xbefaa4b6	-0.4895379
116	0xc0217375	-2.522672
117	0x3fcb42c6	1.5879753
118	0xc01c718c	-2.4444304
119	0xc003304e	-2.0498233
120	0xc0f3aca1	-7.614823
121	0xbf1b7d74	-0.607383
122	0xbf198142	-0.59962857
123	0x3e1fcbf3	0.15605144
124	0x3f5cd614	0.8626416
125	0x3fdc40d5	1.7207285
126	0xc0472f85	-3.1122754
127	0xbf38da5c	-0.7220819
128	0xc0034729	-2.0512183
129	0xbe364918	-0.1780132
130	0x3fcb6374	1.5889726
131	0x3fe484e0	1.785305
132	0x3f885aed	1.0652748
133	0x3ffc60bc	1.9717021
134	0xc00b4d89	-2.1766074
135	0x3f0aa8e0	0.5416393
136	0xbeb83e6a	-0.35985118
137	0x3fc6bf6d	1.5527169
138	0xc050c3f0	-3.261959
139	0xbea5f374	-0.32412302
140	0x3ff482ea	1.9102452
141	0xc06542ac	-3.5821943
142	0x409e1ce6	4.9410276
143	0x3edc4e9f	0.43028733
144	0xc02d888a	-2.7114587
145	0x3f9ab26f	1.2085704
146	0x3e649b66	0.22324905
147	0x403c8087	2.9453447
148	0xc09c3607	-4.881595
149	0x4062391a	3.5347352
150	0xbfed2203	-1.8526005
151	0xbf35bd2b	-0.7099177
152	0xc0a812de	-5.252303
153	0xbf9a6757	-1.2062787
154	0xbf85efb9	-1.0463783
155	0xbe2a09a5	-0.16605242
156	0xbfdeadcc	-1.7396789
157	0x3f817eaa	1.011678
158	0xbf34fcca	-0.70698225
159	0x40999f88	4.800724
160	0x3f954aea	1.1663487
161	0x3f8552e0	1.0415916
162	0xc017ef58	-2.3739834
163	0x3fec181c	1.8444858
164	0xc03d1826	-2.954599
165	0x3e07843a	0.13234034
166	0xc092d484	-4.588442
167	0xc021840c	-2.5236845
168	0xbffc7a9c	-1.9724917
169	0x3f7b926b	0.9827029
170	0x3f30c2f9	0.69047505
171	0xbfdcd24c	-1.7251678
172	0x4032d15a	2.7940278
173	0xbf711843	-0.94177645
174	0xbf39900b	-0.7248542
175	0x402eb9d1	2.7300913
176	0xbbfea333	-0.0077709197
177	0x3f97aadd	1.1849018
178	0xbf58bad9	-0.84660107
179	0x3f745ff2	0.954589
180	0x3e38735e	0.18012759
181	0xbff2b2bd	-1.8960797
182	0x409a3d89	4.8200116
183	0xc0d7a6fc	-6.739134
184	0x40aa31e7	5.3185916
185	0x4001ffef	2.031246
186	0xbf7db3a8	-0.9910226
187	0x401b7d41	2.42952
188	0xbdcf5432	-0.10123481
189	0xbebc1e24	-0.36741745
190	0xc0daf806	-6.8427763
191	0xc00137e9	-2.0190375
192	0x3fba7ea5	1.4569899
193	0xc05f8c89	-3.4929526
194	0x3f24fbe0	0.6444683
195	0x40193798	2.3940182
196	0x408bc7d7	4.3681445
197	0x3f2b973c	0.6702764
198	0xbd2789b1	-0.040902797
199	0x400aea73	2.1705596
200	0x3f78df14	0.9721539
201	0x3f956a02	1.1672976
202	0x3fc69fc5	1.5517508
203	0xbffadc2c	-1.9598441
204	0xbfdef171	-1.7417432
205	0xc0b52cfa	-5.6617403
206	0x40693671	3.6439478
207	0xbd61901f	-0.055069085
208	0xc09d3e72	-4.9138727
209	0x3f02259f	0.50838655
210	0x3f687a40	0.9081154
211	0x3ed1f7c8	0.41009355
212	0x3e2786c1	0.16359998
213	0x400e0965	2.2193234
214	0xbfd1986d	-1.6374642
215	0xbf8e930a	-1.1138623
216	0xc1387baf	-11.530196
217	0x3ffb507e	1.9633939
218	0xbf17d9f7	-0.5931696
219	0x3fc51700	1.5397644
220	0x3f50101c	0.8127458
221	0x40000239	2.0001357
222	0xc0ccf7ac	-6.4052334
223	0x40244581	2.5667422
224	0xbd6e3072	-0.05815167
225	0x4039aaa6	2.9010406
226	0xc00b424c	-2.1759214
227	0xc07fdf5a	-3.9980073
228	0xbfb36d49	-1.4017726
229	0x3cf6ae80	0.030112505
230	0x3f667cee	0.9003438
231	0xc00ac53c	-2.1682882
232	0x3fada44f	1.3565768
233	0xc01cad8a	-2.448092
234	0x3f50a69a	0.81504214
235	0x3d9f39f6	0.07774727
236	0x3f5a719e	0.85329616
237	0x40e86901	7.262818
238	0xbf9a17e4	-1.2038541
239	0x3f25a3c9	0.6470304
240	0x3fad4b7e	1.3538663
241	0xbe41e5fa	-0.18935385
242	0x3e616e76	0.22014794
243	0x3f94f264	1.1636472
244	0xbfbd3f0e	-1.4784868
245	0x3da8fc8e	0.08251296
246	0xc04d9849	-3.2124197
247	0x3f5d4c62	0.86444676
248	0x40b13dbb	5.5387855
249	0xbe9b6bd1	-0.30355695
250	0xbfdb7f2e	-1.7148187
251	0xc064b689	-3.573641
252	0x3d9d9de0	0.07696128
253	0xbf269f56	-0.6508688
254	0xbfaed648	-1.3659143
255	0xbf710723	-0.94151515

inter_layer.bias f4 [32]
0	0x3e4a51eb	0.19757812
1	0x402a898d	2.6646454
2	0xbe1b37b9	-0.15157975
3	0x3f99d08b	1.2016767
4	0x405b8a2c	3.4303083
5	0x4058375f	3.3783796
6	0x40798f0a	3.8993554
7	0xbfb0ac1a	-1.3802521
8	0x3b1e4a3f	0.002415314
9	0xbe8995dc	-0.26872146
10	0x3e706f30	0.23479915
11	0xbeabf197	-0.33582756
12	0xbeea2de7	-0.45738146
13	0xbddf92f6	-0.109167024
14	0xbe8c2dae	-0.273786
15	0x3ec35ccf	0.38156745
16	0xbf50595f	-0.8138637
17	0xbfec0f00	-1.8442078
18	0x3fa28bde	1.2698934
19	0xbf0230a0	-0.50855446
20	0xbf68c9e0	-0.90933037
21	0x3f7bec66	0.9840759
22	0xbeb8bd4c	-0.36081922
23	0xbec898ad	-0.39178982
24	0x3f06d3d0	0.5266695
25	0xbf07f668	-0.5311036
26	0x3fd02ceb	1.6263708
27	0xbf95b5c9	-1.1696101
28	0xbe1f8f5f	-0.15582035
29	0x3ff9f6cb	1.952844
30	0xbfa30062	-1.2734492
31	0x40369698	2.8529415

final_layer.weight f4 [1, 32]
0	0xc0b8f1dd	-5.7795243
1	0x40fc3f7c	7.8827496
2	0xc1139549	-9.223947
3	0xc0daa056	-6.8320723
4	0xc1008545	-8.0325365
5	0x41053e5a	8.327723
6	0xc0b14780	-5.539978
7	0x4078fec6	3.8905501
8	0xc0945471	-4.635308
9	0xc0d74536	-6.7271986
10	0x402d8c22	2.711678
11	0x401720d5	2.361379
12	0xc0a21fbe	-5.066375
13	0xc083c0e5	-4.1172967
14	0x40079961	2.1187365
15	0x412abb75	10.670766
16	0x40650bc1	3.5788424
17	0x403fa153	2.9942214
18	0xc1015361	-8.082856
19	0x40484712	3.1293378
20	0x40bc4804	5.883791
21	0xc0867645	-4.201937
22	0x40b758de	5.729598
23	0xc11c957c	-9.786495
24	0xc07de9c7	-3.9673936
25	0xc048affe	-3.1357417
26	0xc0945948	-4.6358986
27	0xc0c3ae53	-6.11503
28	0x403d1e4a	2.9549737
29	0xc022306f	-2.5342062
30	0x4118368c	9.513317
31	0xc09c2444	-4.879427
