continuous cartpole/rl_model/train_2022-02-16T23:10:08.409859/model/13480_critic.pt (torch, 8580 bytes, 9 tensors)

norm_layer.weight f4 [4]
00000000: 0000 803f 0000 803f 0000 803f 0000 803f
1.0 1.0 1.0 1.0

norm_layer.bias f4 [4]
00000000: 0000 0000 0000 0000 0000 0000 0000 0000
0.0 0.0 0.0 0.0

norm_layer.running_mean f4 [4]
00000000: 0000 0000 0000 0000 0000 0000 0000 0000
0.0 0.0 0.0 0.0

norm_layer.running_var f4 [4]
00000000: 0000 803f 0000 803f 0000 803f 0000 803f
1.0 1.0 1.0 1.0

first_layer.weight f4 [32, 5]
00000000: 4461 5740 fd8e 823f c9d7 95c0 0f6a 1d3f
00000010: b629 75b8 8ae8 e63e 9f1d d63e b57d e1c0
00000020: 489a 47bd cd3d 3a3b ceba d53d e1d4 48bf
00000030: 2cc1 09c0 1da3 73bf dc21 da3b bd82 c5bf
00000040: a4c6 3fbf 0853 a040 4f49 c63c 5467 6dbc
00000050: ddd2 0e40 8361 963e 4a0d bd3f fc92 39bf
00000060: 1ab2 1a3c 1d74 15be 8141 8b3f 271b d240
00000070: c887 423f b993 313b 090a 0dc0 017c 0ebf
00000080: e328 a2c0 f5dc d0be 6cfe a93b 64e0 afbf
00000090: dabb cabf 4d39 2dbf f84c 95bf 0bb2 d13b
000000a0: 5abd 413e 2205 44bf 80eb 25c0 0f90 dabe
000000b0: 96f9 aebb 5850 1ec0 6516 c8be 5f43 2f40
000000c0: 264b 7c3d 1f2b b1bb ca80 9cbe eb40 46be
000000d0: 5c98 d640 4e29 9bbd 7e6b 313b 3d84 933f
000000e0: 9e2d c6bc 8d57 e6c0 e73d 89bf ce8f 803c
000000f0: 42c1 cabe a10b 0c3f e637 3940 7b8e 63bf
00000100: 7124 993c 142e 05bf d483 8d3e 1df7 0941
00000110: 2634 123f 416f 43bb 6eb7 f8bf 65ae 10c0
00000120: 046f ff3f 7299 41bf 64ab a9bc 74a3 01bf
00000130: 56f6 09bf 5291 94bf 096b 5e3e f978 6dbb
00000140: 8b56 1140 25da ac3f fe2d f540 f18e 833f
00000150: 9da8 aeba 590d 0540 a035 0740 892d 52bf
00000160: 8c9c ab3f 259a 183a 68d4 ab3f 1b54 93bf
00000170: 3c11 9bc0 3033 93bf 6132 9b3b b990 0dc0
00000180: f82e 08bf bcc2 683f 921b 3d3d 3787 acbb
00000190: 7d99 1b3f e26d 1540 c4ad 5140 d88d cb3f
000001a0: da24 9939 5dcf 4cbf a0bd 81bf fa0e f8c0
000001b0: f018 7ebf 23c4 1f3b e40c 66bf 4bb6 93bf
000001c0: c329 9e40 7b97 39be c1b1 c2b7 8b6f 0cbf
000001d0: ded3 c63c 5712 1d41 1e80 fa3e d760 8bbb
000001e0: c8b9 003f b65a c03f 08ad 7e40 3e9c c83f
000001f0: d3df 23bc facc 413f 08e3 ef3f e7e4 0440
00000200: dfb7 903f 2a6f 693b 110c c73f dc30 9c3f
00000210: ff55 d4bf b3f6 babe fb34 d43c 2e03 78bf
00000220: a60e d93e d54d 2340 73d2 ff3e 8dc9 193a
00000230: 7014 b73f 08a8 463f 6991 8140 eaaa d63e
00000240: 11de bb38 c00e e5bf d2c8 503f 2c66 af40
00000250: 2e8e 333f e7dd 0f39 b413 c7bf 0440 f7bf
00000260: 7df7 b0c0 8d69 d3bf 8583 813c 4202 923c
00000270: deb5 a1be 0a36 d4bf 4d88 4a3e e411 05bc
3.3653116 1.0199887 -4.682591 0.6148996 -5.84514e-05 0.45099288 0.41819474 -7.046595
-0.04873112 0.0028418184 0.10436021 -0.7844983 -2.1524153 -0.95170766 0.0066568684 -1.5430523
-0.74912477 5.0101357 0.024204878 -0.014489967 2.23162 0.2937127 1.476968 -0.72489905
0.009441877 -0.14595075 1.0879365 6.5658145 0.75988436 0.0027096106 -2.2037375 -0.55657965
-5.067491 -0.40793577 0.0051878 -1.3740354 -1.5838578 -0.6766556 -1.1664114 0.006399398
0.18919888 -0.7657033 -2.5924988 -0.42688033 -0.0053398116 -2.4736538 -0.39079586 2.738487
0.061595105 -0.0054067518 -0.30567008 -0.19360702 6.7060986 -0.075762376 0.0027072127 1.1524731
-0.024191674 -7.1981874 -1.0722016 0.015693571 -0.3960057 0.54705244 2.8940368 -0.8888928
0.018694134 -0.52023435 0.2763964 8.62283 0.5711082 -0.0029820951 -1.9430978 -2.2606442
1.9955754 -0.75624764 -0.020711608 -0.50640035 -0.53891504 -1.1606848 0.21720518 -0.0036235435
2.2709072 1.3504072 7.6618643 1.0277997 -0.0013325397 2.0789397 2.112648 -0.8210073
1.3407149 0.0005821309 1.3424196 -1.1510042 -4.845854 -1.1499996 0.0047362302 -2.2119582
-0.5319667 0.9092214 0.04616887 -0.0052651423 0.6078108 2.3348317 3.2762308 1.5902662
0.0002920989 -0.8000391 -1.0135994 -7.751828 -0.992568 0.0024378381 -0.8986342 -1.1540006
4.942598 -0.18124191 -2.3209375e-05 -0.548577 0.024270948 9.8169775 0.4892587 -0.0042534876
0.5028348 1.5027683 3.979311 1.5672681 -0.010002094 0.75703394 1.874116 2.076471
1.1306113 0.0035619237 1.5550557 1.2202411 -1.6588744 -0.36516342 0.02590417 -0.9687985
0.42393988 2.5516255 0.49965248 0.000586652 1.4303112 0.77600145 4.0490003 0.41927272
8.958218e-05 -1.7895126 0.8155643 5.481222 0.70138824 0.00013720208 -1.5552888 -1.9316411
-5.530211 -1.6516587 0.015809784 0.017823342 -0.31584066 -1.6578991 0.19778557 -0.008121941

first_layer.bias f4 [32]
00000000: 48e5 b43f b6a0 e1bf 84fd 6d40 559a db3e
00000010: 7376 1f3f b3cf ef3d 14e8 2ec0 5cb3 b8bc
00000020: d11d 54c0 78c6 4340 62e7 1e40 6b1d 6d40
00000030: df1b 4fc0 1c17 51c0 3ee2 373f 2ca9 0dbf
00000040: 0e49 dc3f 3f1c 3cbe f13e 1cc0 c76d a83f
00000050: 5b10 41bf 66f1 0840 3951 05c0 4e8d 18c0
00000060: 6ec4 62be b8e8 d53f ca37 0a40 9a8c bec0
00000070: 8e2a d2bf ce7c 0140 5a7e 9abf 4922 6c40
1.4132471 -1.762717 3.7185984 0.42891183 0.62290114 0.11709537 -2.732915 -0.022546463
-3.3143198 3.0589886 2.4828725 3.7049205 -3.236076 -3.2670355 0.71829593 -0.5533626
1.7209795 -0.1837015 -2.4413416 1.3158501 -0.7541558 2.1397338 -2.0830824 -2.3836246
-0.22145244 1.6711645 2.159655 -5.9546633 -1.6419237 2.0232425 -1.206981 3.6895926

inter_layer.weight f4 [32, 32]
00000000: cba9 08be 6498 6ac1 4e31 ff3e e6b0 9dbe
00000010: 27db d7bd ca2b a0be edaf ae3e 6845 4abd
00000020: b18e 83bf 8186 053f a44d ae3e 374d 4fbd
00000030: 0da8 74c0 067b 6ac0 a29c e53d 105e ec3e
00000040: ba89 3ebe e8ba 99bf 04d4 d2bf 3e9e e13e
00000050: b9a4 1cc0 ad54 77be 4bb7 0fbf 1e1d a9c1
00000060: 09b5 ebbe 4a95 4fbd f9e6 b43c 160d a1bf
00000070: 6c42 d7bf acb2 d13d 85de e7be 3ca2 473e
00000080: 7ff2 19c0 7fa4 8fc1 f013 193e 713a 943e
00000090: 7e3b ba3e 0b62 e9be 67b0 76bf cc14 c83e
000000a0: 7c7e 8c3e 5ace a1be a6a6 98bd d4ae bdbe
000000b0: 9f2d 09c0 47d1 5ec0 2df6 393e b7ed bebe
000000c0: 06c8 283e 03b7 06c0 60ef 133f d7ea 87be
000000d0: c0d0 5cc0 0127 3ebf c81a 6abe c9ca 92c1
000000e0: 6e1b edbe f0c7 05bf c9d1 f0bd c61c 0fbf
000000f0: d57c 6cbe b811 1bbf e3fe fc3e a474 fbbd
00000100: f2c1 35bf 6869 4440 44fc 8abf 1e06 efbe
00000110: 3a17 cfbe e8a2 37be 4f56 5f3f 3c65 a8be
00000120: f94b d93f b99c 03bf ee98 96be 589a 9dbe
00000130: b4d2 553f d736 2040 aa94 a0be c083 2fbe
00000140: 4082 20bf 0d47 e7be e8e0 0f3f 62f2 09bf
00000150: d9d8 313f 59cc 933e 9dac a53e 24d2 fd3f
00000160: 4e6d 4fbe 786c 96be 6e43 8cbe 98cf 2c3f
00000170: 1cc1 933e 222f 97bf 90b0 72bf b6b6 aebf
00000180: ba19 e7be f9fb a6c1 b1e9 283f e338 b63d
00000190: 253e 9b3e 4b03 823e 59af dbbf 82c4 fb3e
000001a0: c48f a0bf 8b86 1ebe 85aa 04bf 7655 e23e
000001b0: 7d95 073f f76b 56bf 8974 163e c39b 8bbc
000001c0: 2b41 81bf 667a aebf 71a5 86bd aaf4 0f3f
000001d0: 3d52 eebf b0b9 893e bcc8 063f 2430 d7c0
000001e0: 881d 273f a981 5ebf bd6b 9b3d f590 dfbd
000001f0: 9085 c43e 7e79 01bf 11d6 3b3f a124 bbbc
00000200: e476 15be 59c9 75c1 6adf 233f b404 48bd
00000210: 9ce4 4abe b76a 9bbe c8fc 4dbf a1ae 003f
00000220: d475 87bf 9032 27be 418f 77bd 550c 10bc
00000230: 7e06 65c0 1af4 53c0 a646 43bd 5609 273e
00000240: 672f 043d 1373 b9bf 8a55 2d3e 7d89 6c3f
00000250: 9633 debf b439 30bc 7b0b 4cbf 7aa7 75c1
00000260: c6d7 99be f312 90bd 6d73 e23c 15dc 30bf
00000270: 4196 0dbf 84f5 edbd a489 a8bd 864d c83e
00000280: 5148 cbbf 266f d7c0 0e42 c43e 6687 acbe
00000290: 4921 97be 611c d23e 893d b53b 7dc8 4cbe
000002a0: 8160 04bf 9f71 2e3e ee3c 92bd a4aa 713e
000002b0: 1b12 14be 7c0b 2d3f 1b8b 933e b548 86bf
000002c0: 234f 55bf 0075 8cbf 2a62 253f 6306 1a3f
000002d0: 1ef0 ddbf 779e 7e3d a5c7 e5be 48af 2fc0
000002e0: 9672 8f3d 744a afbf 515a 603e f982 f1be
000002f0: 976b a1be 7dde 3b3e d166 963d 87ed 9ebe
00000300: a1e7 36bf 4220 4140 26ed 8ebf ff67 92be
00000310: 5afd 07be 6328 85be 95fb 8e3f d352 abbe
00000320: 51cd cb3f 177e 1bbf 4bb0 ecbd 4575 09c0
00000330: b07d e43f 23de 873f c6c8 c2bf 171d 2d3f
00000340: bd4b 0dbd 8171 c0bf 61ca 433d dbe1 b9be
00000350: 6c74 3a3f 168f a6bf 3cb0 953e c126 4b40
00000360: 35c0 0fbf a5fd a8be 95b4 8dbe cec5 4d3f
00000370: ff5d 403f f62a 4bbf ebcb 96bf 6a01 9abf
00000380: 5a78 9abf 5eeb 2f40 4806 653c 95cb b73e
00000390: 8fe5 72bf 0d90 babe 0de4 28c0 2380 02bf
000003a0: aaa4 13bf c2c7 2a3f 2bc6 b43e af9d 6abf
000003b0: 27b1 cbbd 6021 a73e 9299 f7bd bee2 c23e
000003c0: 477f 5a3f 5dd9 00bf 7a4a d6bf 29f6 083f
000003d0: be93 a6bf 2df7 a53f 152f cb3e 9ee6 8940
000003e0: 090b babf 486d 873f cfd7 a7be 31f0 15bf
000003f0: fd90 1ebf e083 1f3e 01dd 0ec0 9177 d9bc
-0.13346021 -14.662205 0.49842304 -0.30799025 -0.10539847 -0.31283408 0.34118596 -0.049382597
-1.0277921 0.5215836 0.3404361 -0.050610747 -3.822757 -3.6637588 0.11211516 0.46165514
-0.18607226 -1.2010164 -1.6470952 0.44066042 -2.4475539 -0.24153395 -0.5613906 -21.139217
-0.46036556 -0.050679483 0.022082793 -1.2582119 -1.6817145 0.10239157 -0.45286956 0.19495481
-2.4054258 -17.95532 0.14949012 0.28950837 0.36373514 -0.45582613 -0.9636292 0.39078367
0.2744025 -0.31602746 -0.07453661 -0.37047446 -2.1434095 -3.4815233 0.18160315 -0.37290737
0.16482553 -2.1049201 0.5778713 -0.26546356 -3.450241 -0.74278265 -0.22861779 -18.349016
-0.4630999 -0.52258205 -0.11758763 -0.5590328 -0.23094495 -0.6057391 0.49413213 -0.12278107
-0.7099906 3.0689335 -1.0858235 -0.46684355 -0.40447408 -0.17933238 0.8724107 -0.32889736
1.697631 -0.51411015 -0.2941355 -0.30781817 0.8352463 2.5033472 -0.31363422 -0.17140102
-0.62698746 -0.45171395 0.56202555 -0.5388547 0.6947151 0.28866842 0.32358256 1.9829755
-0.2025654 -0.2937963 -0.27395195 0.6750426 0.28858268 -1.1811259 -0.94800663 -1.3649509
-0.45136815 -20.873034 0.65981585 0.08897569 0.3032085 0.25393137 -1.7162887 0.4917336
-1.2543874 -0.15481012 -0.5182269 0.44205827 0.52962476 -0.8375849 0.14692892 -0.017042046
-1.0098013 -1.3631103 -0.06574524 0.562327 -1.8618847 0.2689948 0.52650046 -6.7246265
0.65279436 -0.86916596 0.07588909 -0.1091632 0.3838315 -0.5057601 0.73373514 -0.022844614
-0.14596134 -15.361657 0.6401278 -0.04883261 -0.1981377 -0.30354854 -0.8046384 0.5026646
-1.0582833 -0.16327882 -0.060439352 -0.008792003 -3.5785213 -3.3117738 -0.047674797 0.16312155
0.03227177 -1.4488243 0.16927162 0.9239729 -1.7359493 -0.010755945 -0.7970502 -15.353388
-0.30047435 -0.07034864 0.02764293 -0.6908582 -0.55307394 -0.11619094 -0.08229378 0.39121646
-1.5881444 -6.732318 0.38331646 -0.3369705 -0.29517582 0.41037276 0.005531017 -0.19998355
-0.51709753 0.1703553 -0.07140528 0.2360025 -0.14460032 0.6759565 0.28817067 -1.0490938
-0.8332388 -1.0973206 0.6460291 0.60165995 -1.7338903 0.062162843 -0.4487888 -2.7450733
0.070042774 -1.3694596 0.21909453 -0.47170237 -0.31527397 0.18346591 0.073438294 -0.31040594
-0.7144719 3.0175939 -1.1166122 -0.28594968 -0.1328024 -0.26007375 1.1170527 -0.33461627
1.5922033 -0.6073927 -0.11557063 -2.1477826 1.7850857 1.0614666 -1.5217521 0.6762251
-0.034496058 -1.5034639 0.047800425 -0.36305127 0.72833896 -1.3012416 0.2923602 3.1742404
-0.5615266 -0.33006015 -0.27676836 0.8037995 0.75143427 -0.7936243 -1.1780981 -1.2031682
-1.2067978 2.7487407 0.013978548 0.35897508 -0.9488153 -0.36438027 -2.638919 -0.5097677
-0.5767313 0.66711056 0.3530744 -0.91646856 -0.099458985 0.3264265 -0.12089838 0.38063616
0.8535046 -0.5033167 -1.6741478 0.5350061 -1.3013837 1.2966057 0.39684358 4.3094015
-1.4534618 1.0580225 -0.32781836 -0.5856963 -0.61939985 0.1557765 -2.232239 -0.026546272

inter_layer.bias f4 [32]
00000000: aa23 fc3f a669 2a3f ee07 20c0 7a62 cc3f
00000010: ef58 b43f bd29 8f3f 9a09 24c0 8bae 0fbe
00000020: 8d3b 13c0 a0cf a33f a7e9 c53f 2003 0ec0
00000030: 9069 b83f 4fe2 25c0 8158 d1bf 4873 ad3f
00000040: d538 b8bf 1074 ffbf a928 0940 4a24 03c0
00000050: f159 3040 3ea9 85bf 1e01 9a3f 71a7 eebd
00000060: 38ac 2040 cc0a 0e40 b257 d3bf 024a 823f
00000070: 00da dfbf c241 19c0 41fd eabf 8b70 bc3f
1.9698384 0.66567457 -2.500484 1.5967553 1.408964 1.1184613 -2.563086 -0.14031427
-2.3005097 1.2797737 1.546193 -2.2189407 1.4407215 -2.5919378 -1.6355134 1.3550806
-1.4392344 -1.9957294 2.1431067 -2.04909 2.7554896 -1.0442274 1.2031591 -0.11653031
2.5105114 2.219409 -1.6511137 1.0178835 -1.7488403 -2.3946385 -1.8358537 1.4721845

final_layer.weight f4 [1, 32]
00000000: 1d17 8c40 98ce 5140 7b80 78bf a405 3a40
00000010: a2dd 3440 81af aa3f 75ee c3bf 171d a7bf
00000020: 051d 0cc1 a1c2 fe3f 3217 2b40 5884 a5bf
00000030: c9ae 6240 b552 e2bf bc52 cabf 1413 3b40
00000040: 7baa 05c1 3f37 e6bf f6d6 f33f 4d3b c5bf
00000050: a190 aa40 8dfe e4bf 2f1e 773f 29da bcc0
00000060: 28ba b240 6865 1640 1d36 e7c0 539e 5a40
00000070: 74bf a2bf d440 cdc0 d96f 20c0 24f2 7e40
4.3778214 3.2782345 -0.97071046 2.9065943 2.8260274 1.333481 -1.5307146 -1.3055753
-8.757085 1.9903146 2.6732907 -1.2931013 3.541918 -1.768149 -1.5806499 2.9230394
-8.354121 -1.798561 1.9049976 -1.5408722 5.330155 -1.7890183 0.9653043 -5.901631
5.585224 2.3499393 -7.2253556 3.4159133 -1.2714677 -6.4141636 -2.5068266 3.983529
