continuous cartpole/rl_model/train_2022-02-16T23:10:08.409859/model/143630_actor.pt (torch, 6999 bytes, 5 tensors)

first_layer.weight f4 [32, 4]
000000 a9 83 28 bf b0 12 ed 3f 9b 76 80 40 de 18 74 bf
       -0.658259 1.8521328 4.014478 -0.95350444
000010 5b 52 5a 3f 9e 68 3a be ad bd 20 c0 6f 10 d1 be
       0.85281914 -0.18203971 -2.511577 -0.4083285
000020 f0 48 1e c0 14 a7 e8 bf 96 55 49 41 ce da e6 3f
       -2.4732018 -1.8175988 12.583395 1.8035524
000030 d0 dc 32 c1 cb b6 96 c0 52 a1 d8 40 67 75 c3 40
       -11.178909 -4.7098136 6.7696924 6.1080813
000040 87 19 8b bd 7d 7f d1 be e5 8b 1b 3f b4 b9 c0 be
       -0.06791978 -0.40917578 0.6076034 -0.3764168
000050 25 7b e2 3e 7f 9a d5 3f 7d ad 44 3e 31 73 d0 bf
       0.44234577 1.6687773 0.19206806 -1.6285154
000060 21 3e 1e 3f 4d 61 b1 3f d0 12 0d 40 27 2a 49 be
       0.6181355 1.3857819 2.2042732 -0.19644986
000070 89 47 bf bf 73 6f 2a bf 6a 75 8b c0 a5 31 15 bf
       -1.4943706 -0.6657631 -4.358083 -0.58278877
000080 28 ad 41 c0 21 48 49 40 e0 dc fa 40 c0 ea a5 bf
       -3.0261936 3.1450274 7.8394623 -1.2962265
000090 4c f1 1c bf f0 3d ee bf fd d0 40 c0 e6 4f b3 3e
       -0.6130569 -1.8612652 -3.0127556 0.35021895
0000a0 50 f9 97 c0 ce bb 17 3f 4a 67 cc 40 89 fb 3c c0
       -4.7491837 0.5927094 6.3876085 -2.9528525
0000b0 78 07 ab bf d9 22 13 3f 2f 2c ba 40 92 ba ae 3f
       -1.3361654 0.5747505 5.8178935 1.3650687
0000c0 2c 28 a3 bf 9c d8 b1 3f 31 96 b0 40 c6 da c9 bf
       -1.2746634 1.3894229 5.518334 -1.5769889
0000d0 f1 11 9d 40 57 97 0c 40 8b 67 af c0 2f cc b8 3f
       4.90844 2.196737 -5.4813895 1.4437312
0000e0 1b 92 df bf 3e 93 5d 3f f3 2a a0 40 cf 8b b8 bf
       -1.7466463 0.865528 5.005243 -1.4417666
0000f0 0b 97 bd 3f ae ec 2e 40 ab 53 4f c0 52 01 45 c0
       1.481172 2.7331958 -3.2394817 -3.0782056
000100 c2 80 d5 3d d7 ae 00 40 2c a8 bb 3e b1 e5 37 c0
       0.10424949 2.0106714 0.36651742 -2.8733943
000110 08 9d 20 3f fe 49 48 40 11 7f 0a c0 20 47 a6 be
       0.6273961 3.1295161 -2.1640055 -0.3247614
000120 a6 7a 67 3f 33 ef b7 3f c1 6d dc be 20 a1 18 c0
       0.9042152 1.4369873 -0.43052486 -2.3848343
000130 e5 5b 10 be c4 0f 3a 3f c9 a1 75 3f 15 8b 53 be
       -0.14097555 0.72680306 0.9594999 -0.20658524
000140 6c 0a 83 40 49 1b e4 3f fe 0e 0b 41 80 22 e5 3f
       4.095022 1.7820827 8.69116 1.7901154
000150 e6 25 f8 bf a2 fd 21 40 8b 73 ac 40 c2 05 8a bf
       -1.9386566 2.5311055 5.3891044 -1.0783007
000160 0f 86 85 3d 0b d4 cd be af 7d 6c bf 83 94 5a be
       0.0651971 -0.40200838 -0.9237928 -0.21345715
000170 30 68 3f 40 ba 52 6e 3e d5 55 88 bf 03 69 3d bf
       2.990734 0.23273745 -1.0651194 -0.7398836
000180 7a 63 03 40 94 63 1d bf b7 a4 15 c1 ad 9e 1c be
       2.0529466 -0.6148007 -9.352714 -0.15294905
000190 40 43 d4 3f 0f e3 be 3f 8a 8e fc 3f 15 9d ce bf
       1.6583023 1.4913043 1.9731 -1.6141688
0001a0 96 0b 2e 40 f7 14 98 bf 03 38 07 c0 44 16 22 40
       2.7194571 -1.1881398 -2.1127937 2.532609
0001b0 c8 11 5f c0 cd 7c 3f be 36 a7 2b bf 5e 0d 92 3f
       -3.4854603 -0.18699951 -0.6705202 1.1410329
0001c0 f9 f3 e8 3e 1b ab ee 3f c3 97 09 c0 dd 50 0a c0
       0.45498636 1.8645967 -2.1498878 -2.1611855
0001d0 44 37 9c bf 46 cd 7d 3f 53 e9 c0 40 1c 6f f5 bf
       -1.2204366 0.9914135 6.028482 -1.9174533
0001e0 ec e5 d8 40 9a 16 95 3f 5d c6 99 bf f9 fd 82 3f
       6.7780666 1.1647522 -1.2013661 1.0233756
0001f0 d8 31 8d be 45 cb 5e 3e 72 8a 3b be 67 11 a6 be
       -0.2757709 0.21757229 -0.18314531 -0.32435152

first_layer.bias f4 [32]
000000 3b 2e 5e bf e0 76 70 3f 3e 22 ae c0 19 68 02 41
       -0.8678929 0.9393139 -5.44168 8.150414
000010 69 c9 0e c0 82 9e 97 3f 67 13 f0 bf d0 fd c7 3f
       -2.231043 1.1845248 -1.8755921 1.5624332
000020 ef 13 70 3f 66 28 2b 40 16 f0 1f 40 06 b3 e2 c0
       0.93780416 2.6743407 2.4990287 -7.0843534
000030 64 ba aa 3f e7 d1 c0 c0 a6 0a ac 3f 1f 86 01 40
       1.3338132 -6.025623 1.344075 2.023811
000040 fb 2c 0b 40 23 ce 26 40 e7 82 c6 3f d7 55 62 40
       2.1746204 2.6063316 1.5508698 3.5364892
000050 56 2b 91 c0 a4 78 3d 3f f1 a2 cb 3f 90 94 25 c0
       -4.53654 0.7401221 1.5909101 -2.5871925
000060 74 37 97 c0 e4 c1 f2 3f a0 b4 e8 bf a3 b1 68 40
       -4.725519 1.8965421 -1.8180122 3.635842
000070 08 c2 fd 3f 91 cc 0e 40 d8 3d ea c0 02 1a 0c 40
       1.9824839 2.2312357 -7.3200493 2.1890874

inter_layer.weight f4 [32, 32]
000000 c5 6a fc bf 9f 67 8a c0 30 aa 85 be 59 04 aa c0
       -1.9720083 -4.325149 -0.26106405 -5.3130307
000010 ab fc d6 3b 3f 57 60 c0 7f a3 11 bf 5d 5f f2 3f
       0.006560882 -3.505325 -0.568901 1.8935353
000020 62 1b fc c0 3e 0a 61 3f 53 22 76 3f bd a2 98 3f
       -7.8783426 0.87906253 0.96146125 1.1924664
000030 04 7e 1d 3f a5 9e 2d c1 0e 67 1c 3f 2c 8f 11 c0
       0.6152041 -10.851232 0.6109475 -2.2743635
000040 99 21 0f c0 09 6f 75 be 0d bb f4 bd 58 99 79 c0
       -2.2364256 -0.23968138 -0.119497396 -3.8999844
000050 e2 37 1b c1 1c fe 83 bf a7 06 15 bf 5d fc 05 40
       -9.701143 -1.0311923 -0.58213276 2.093528
000060 37 9d f1 bf 7b ad a1 bf 65 5e 67 c0 ac 27 d1 3f
       -1.8876103 -1.2631067 -3.6151364 1.6340232
000070 ba 78 57 3f 6a 25 eb 3f 8b 62 18 c1 a1 69 ab 3f
       0.8416859 1.8370793 -9.524058 1.339161
000080 dc 84 ed be 74 38 05 3f 58 8c 5f c0 de 0e 0c 40
       -0.46390426 0.52039266 -3.492941 2.1884074
000090 c3 d8 f1 c0 89 e6 88 c0 b9 e2 9d 40 71 fa e5 3e
       -7.55771 -4.2781415 4.933926 0.44917634
0000a0 ec 5e 2f 40 d2 42 72 bf 51 ab 4d 40 8a 58 66 c0
       2.7401686 -0.9463321 3.2135813 -3.599154
0000b0 5b 1b 7a 3f dc aa 2b be fe 23 1d 3f da e1 c4 3e
       0.9769799 -0.16764396 0.61383045 0.3845356
0000c0 f7 d2 fd be 0c b8 d1 3f 37 7e 49 c0 59 c5 ba 40
       -0.49575016 1.6384292 -3.1483285 5.8365903
0000d0 7d fe 23 c0 2d 1f 13 3f 1b 43 79 40 b4 e7 8a c0
       -2.5624077 0.57469445 3.8947208 -4.340784
0000e0 c0 16 30 bf 42 d5 ea 3f 6b 70 47 c0 df 06 7a 40
       -0.68784714 1.8346331 -3.1162364 3.9066694
0000f0 8b 85 0b c0 bf 8b 30 be bc 0e 05 c1 80 62 17 c0
       -2.1800258 -0.17240809 -8.316097 -2.365387
000100 ca 63 55 bf f5 28 c1 c0 15 0f 01 c0 b3 93 de bf
       -0.8335539 -6.0362496 -2.0165455 -1.7388824
000110 31 be 1f 40 5a 5d b5 bc bf b9 9f c0 2a 9d 39 40
       2.4959834 -0.02213924 -4.991424 2.9002175
000120 79 b4 91 c0 f6 28 1b 3e 7d b9 10 3e 03 e0 d6 3e
       -4.5532804 0.15152344 0.14133258 0.41967782
000130 92 63 43 c0 45 6b 9b c0 63 a6 38 3f 96 f1 99 bf
       -3.0529523 -4.8568444 0.72128886 -1.2026851
000140 3f 07 98 c0 f9 51 20 40 45 72 cb be 01 f3 56 3f
       -4.7508845 2.5050032 -0.39735618 0.83964545
000150 03 f5 47 c0 7e 69 45 bd 82 96 63 c0 9f 91 7b c0
       -3.1243293 -0.04819631 -3.5560613 -3.930763
000160 05 75 ce c0 55 2a 3b 40 62 d7 ce bf 85 3e 3c c0
       -6.4517846 2.9244587 -1.615948 -2.941316
000170 4a 35 af be 1e dc 0a 3c ec c3 87 c0 7c b9 74 40
       -0.34220344 0.008475332 -4.2426662 3.823821
000180 c4 46 15 bf e7 56 ad c0 f2 96 e6 3f 41 c8 93 c0
       -0.58311105 -5.416858 1.8014815 -4.618195
000190 1c 16 22 40 cb 1a 61 bf 23 28 6c bf d6 5c f3 3e
       2.5325994 -0.8793151 -0.92248744 0.47531766
0001a0 8c 6a 99 bf a9 53 7b bd 48 fc 31 3e 1d 96 60 c0
       -1.198564 -0.06135908 0.17381394 -3.5091622
0001b0 58 70 62 3f e2 81 27 c1 67 9c b0 3f ee 2f b1 3d
       0.8845267 -10.46921 1.379773 0.0865172
0001c0 f6 8a 3a c0 97 27 82 bf cc f0 04 3f 83 e3 fc be
       -2.9147315 -1.0168332 0.51929927 -0.49392328
0001d0 7f f1 1f c0 15 b2 c9 3f fb 95 1d c0 da 21 ed bf
       -2.4991148 1.5757471 -2.462279 -1.8525956
0001e0 27 c5 f3 c0 ff b5 1d bf 4c 65 16 bf c3 2d 29 3e
       -7.6178164 -0.6160583 -0.58748317 0.16521363
0001f0 26 54 5a 3f f2 c7 da 3f 54 59 46 c0 66 4d 3b bf
       0.8528465 1.7092268 -3.0992022 -0.73164976
000200 97 c1 fe bf 7f b3 46 be 1a 91 cc 3f 8f 37 c9 3f
       -1.9902829 -0.1940441 1.5981781 1.572008
000210 ee 9f 88 3f 58 18 fb 3f dc 2f 11 c0 16 43 03 3f
       1.0673807 1.9616804 -2.268546 0.5127424
000220 19 7c bd be f1 87 c1 3f 2d b2 51 c0 60 f9 9e be
       -0.37008741 1.5119611 -3.2765 -0.31049633
000230 1b 3d f3 3f 15 0c 64 c0 dd b5 9d 40 5d 95 d7 3e
       1.9003023 -3.5632374 4.92845 0.42106143
000240 fb 25 2e c0 ca 84 9a 3f 1b 41 58 3e 31 34 3c 40
       -2.7210681 1.2071774 0.21118586 2.9406855
000250 f9 71 9b c0 b2 6e 61 40 fd 73 ef bf 4d 46 03 bf
       -4.8576627 3.5223813 -1.8707272 -0.51279145
000260 bb 29 a8 c0 32 89 9b bf 9d 5c 84 bf 13 dd 20 be
       -5.255094 -1.2151244 -1.0340763 -0.15709333
000270 f2 f3 df bf c3 ff 7f 3f 67 99 31 bf bd 50 99 40
       -1.7496321 0.99999636 -0.693747 4.7911057
000280 f1 7a 8d 3f 8e 5a 87 3f 13 85 18 c0 c8 b2 03 40
       1.1053144 1.057451 -2.3831222 2.057787
000290 6b 39 3d c0 e6 9e 11 3e 4a e4 8f c0 7d ad 1f c0
       -2.9566295 0.14220771 -4.4966173 -2.494964
0002a0 4e 2f fb bf 03 fa 82 3f 6f 70 34 3f 63 8b de bf
       -1.9623811 1.0232548 0.7048406 -1.7386287
0002b0 43 70 33 40 90 e4 75 bf dc 5d 36 bf 22 4f 2f 40
       2.803727 -0.96051884 -0.7123697 2.739205
0002c0 7f 7a dd 3a eb d2 97 3f b4 af 55 bf b8 80 75 3f
       0.0016897469 1.1861242 -0.83471227 0.95899534
0002d0 c6 45 20 3e 68 21 f1 bf 1f d0 9a 40 9b f6 dd c0
       0.15651616 -1.883832 4.8379054 -6.936353
0002e0 1f 4a aa 40 d7 8e 02 40 14 68 80 bf 04 e8 1a 40
       5.321548 2.0399683 -1.0031762 2.420411
0002f0 04 3b bb bd 08 3c b6 be 21 62 db c0 37 9a 00 c0
       -0.09142116 -0.35592675 -6.8557286 -2.0094125
000300 1b 48 c2 3f 83 92 60 c0 2f 5a 27 3f ed 92 0b 40
       1.5178255 -3.5089424 0.65371984 2.1808426
000310 cc d9 8b 40 23 03 29 3f 29 24 08 be 52 10 09 40
       4.3703365 0.6602041 -0.13295044 2.141621
000320 b4 3c 76 3f 56 32 90 3f 1b c0 c4 3f aa 1c f9 bf
       0.96186376 1.1265361 1.5371126 -1.9461873
000330 98 38 e0 bf da 90 b4 c0 0b 66 68 40 4a c2 83 bd
       -1.7517271 -5.642682 3.6312282 -0.06433542
000340 b4 8d 9d c0 b4 c8 01 3f 36 62 65 3f 56 9b cf 3e
       -4.9235477 0.50696874 0.89602983 0.405482
000350 1e ea 3f 3e 52 3e 0d 40 51 eb d3 bf a6 b0 6a bf
       0.18741652 2.2069287 -1.6556188 -0.91675794
000360 c8 85 38 c1 69 2d fa 3f df af 14 bf db 3b c6 3f
       -11.532661 1.9545108 -0.5808086 1.5487016
000370 0c 80 4d 3f 0e 86 fe 3f e4 8b cc c0 83 a4 23 40
       0.8027351 1.988466 -6.3920765 2.556916
000380 3e d6 b2 bd d8 f7 2f 40 17 9d 05 c0 11 1a 84 c0
       -0.0873227 2.7495022 -2.087713 -4.128182
000390 64 61 aa bf fd 45 12 bd 17 67 7d 3f a0 83 17 c0
       -1.3310971 -0.035711277 0.9898543 -2.3674088
0003a0 0e 0f ac 3f 41 92 46 c0 c7 9a 38 3f 9d 04 4c 3e
       1.3442094 -3.1026766 0.7211117 0.19923635
0003b0 f9 53 4b 3f 3e 0e ed 40 ae d0 a2 bf e9 bb 12 3f
       0.7942501 7.4079885 -1.2719934 0.5731798
0003c0 a9 1b a3 3f fa 70 57 be 99 f7 0a 3e ce 35 8d 3f
       1.2742816 -0.21039191 0.13571014 1.1032045
0003d0 a1 e7 a6 bf fc 8b 8d 3d 6b 86 58 c0 1b b7 19 3f
       -1.3039438 0.069114655 -3.3832042 0.6004502
0003e0 61 68 b1 40 c4 73 bc be d8 a6 d0 bf 0d 20 70 c0
       5.5439916 -0.36807072 -1.6300917 -3.7519562
0003f0 7b 3b 1a 3b 3d 11 39 bf d6 2f a0 bf 46 d4 82 bf
       0.0023533988 -0.7229193 -1.2514598 -1.0221031

inter_layer.bias f4 [32]
000000 85 0d 41 3e 93 1c 2b 40 f8 87 24 be 39 a8 98 3f
       0.18852814 2.673619 -0.16067493 1.1926337
000010 cb f3 5a 40 c4 ca 58 40 2f f8 78 40 f9 00 bd bf
       3.42113 3.3873758 3.890148 -1.4765922
000020 df 5b d8 bb 69 39 8e be 22 90 79 3e c2 66 a7 be
       -0.0066027488 -0.27778175 0.24371389 -0.32695585
000030 54 cd ee be 68 f6 f1 bd 25 a7 87 be 30 15 c8 3e
       -0.46641028 -0.118145764 -0.2649471 0.39078665
000040 fc 4a 6a bf ae a0 e3 bf be 62 a1 3f bc 10 2f bf
       -0.9152067 -1.778341 1.2608259 -0.6838491
000050 c1 6d 6b bf 22 9f 79 3f fd fd b3 be 5a 3f cd be
       -0.91964346 0.9750844 -0.35154715 -0.40087396
000060 f6 87 04 3f 17 3f 0a bf 3a fc ce 3f 70 39 a4 bf
       0.5176996 -0.5400252 1.6170723 -1.2830029
000070 33 69 16 be 11 c2 f8 3f 45 d2 a1 bf 7f ff 35 40
       -0.14688568 1.9434224 -1.2642294 2.8437192

final_layer.weight f4 [1, 32]
000000 53 59 b9 c0 ec 2d fc 40 ea a2 13 c1 07 4e db c0
       -5.792154 7.8806057 -9.227274 -6.853275
000010 dd c2 ff c0 91 53 05 41 67 6e b0 c0 13 e3 72 40
       -7.992537 8.332902 -5.513477 3.7951095
000020 df 88 94 c0 d2 7e d7 c0 d3 9f 2d 40 4c 24 17 40
       -4.641708 -6.734231 2.71288 2.3615904
000030 3f 77 a2 c0 ae 34 85 c0 5d b7 07 40 74 87 2a 41
       -5.0770564 -4.1626806 2.1205666 10.65807
000040 a2 39 62 40 81 77 44 40 7b 90 01 c1 0c 0e 48 40
       3.5347676 3.069794 -8.097774 3.1258574
000050 97 e1 b5 40 6a 47 87 c0 db 10 b7 40 78 b6 1c c1
       5.683788 -4.2274675 5.7208076 -9.794548
000060 ba 9a 80 c0 a9 a4 51 c0 6d fe 93 c0 94 3a c4 c0
       -4.0188875 -3.275675 -4.624808 -6.1321507
000070 82 d3 3c 40 a8 7b 21 c0 55 fe 17 41 68 96 9b c0
       2.9504094 -2.5231724 9.499593 -4.86211
