continuous cartpole/rl_model/train_2022-02-16T23:10:08.409859/model/145420_actor.pt (torch, 6999 bytes, 5 tensors)

first_layer.weight f4 [32, 4]
000000 9f 8c 5a bf 2e bf ec 3f 9d 70 79 40 83 3a 78 bf
       -0.8537082 1.8495843 3.8974984 -0.9696428
000010 3f 94 64 3f 3b 70 39 be 8b 60 20 c0 4c 4a cf be
       0.89288706 -0.18109219 -2.5058925 -0.40486372
000020 89 9d 17 c0 3d c9 e9 bf c5 32 4b 41 54 2e ea 3f
       -2.3689902 -1.8264538 12.699895 1.8295388
000030 5d b0 28 c1 ef 9f b2 c0 c3 73 bc 40 ad 59 d0 40
       -10.543057 -5.582023 5.889131 6.5109468
000040 42 ce ce bd 52 e6 d1 be c2 46 1c 3f d3 07 c2 be
       -0.10097934 -0.40996033 0.6104547 -0.37896594
000050 a4 36 db 3e 3e 87 d5 3f d7 17 6b 3e 32 5c d0 bf
       0.42815125 1.6681898 0.22958313 -1.6278136
000060 da 69 c1 3e 29 ad b1 3f f0 a4 05 40 5e cf 47 be
       0.3777607 1.3880969 2.088192 -0.19512698
000070 8d 13 c3 bf 9e 4e 2b bf ba d6 8b c0 97 45 15 bf
       -1.5240341 -0.66916835 -4.3699617 -0.5830931
000080 c0 75 40 c0 69 87 49 40 43 9a fd 40 07 f8 a4 bf
       -3.007187 3.1488898 7.925081 -1.2888192
000090 3c f2 37 bf c9 5b ee bf 81 59 44 c0 40 e8 b2 3e
       -0.71853995 -1.8621761 -3.067963 0.34942818
0000a0 83 97 97 c0 5c 24 18 3f 10 b8 cb 40 ff 07 3d c0
       -4.737245 0.5943048 6.3662186 -2.953613
0000b0 c0 5e a7 bf 7a 60 13 3f 72 0a bc 40 3f 6d af 3f
       -1.307579 0.57569087 5.876275 1.3705214
0000c0 59 fb a3 bf 98 49 b2 3f 1c a5 af 40 7a 71 ca bf
       -1.281108 1.3928709 5.488905 -1.581588
0000d0 ae 96 9e 40 bb b7 0c 40 ff a9 ae c0 2c 45 b9 3f
       4.9558935 2.198714 -5.4582515 1.4474235
0000e0 90 3a e3 bf 2f 4f 5d 3f d8 ba a0 40 3f b1 b8 bf
       -1.7752247 0.8644895 5.022808 -1.4429091
0000f0 a5 82 ab 3f 6e 84 2f 40 11 f0 57 c0 a8 09 47 c0
       1.3399245 2.7424579 -3.3740275 -3.1099644
000100 64 dc 13 3e 94 ba 00 40 3a 8e bb 3e 21 b0 37 c0
       0.14439541 2.0113878 0.36631948 -2.870125
000110 1e 94 f1 3e e1 66 48 40 a8 2f 12 c0 ef cf af be
       0.47183317 3.1312792 -2.2841587 -0.34338328
000120 f4 b3 67 3f ca da b7 3f bf 12 be be 03 68 18 c0
       0.9050896 1.4363644 -0.37123677 -2.3813484
000130 e9 0e 6a bd e9 65 3a 3f c5 a1 84 3f 21 0f 4a be
       -0.057143126 0.7281175 1.0361868 -0.19732334
000140 d3 bd 83 40 f0 d8 e3 3f 55 4e 0a 41 f2 4d e5 3f
       4.116922 1.7800579 8.644124 1.7914412
000150 ff 4d e7 bf 8e 0f 22 40 6b 44 a9 40 da 60 8b bf
       -1.8070678 2.5321994 5.289602 -1.0888932
000160 c8 32 56 3d 72 21 cf be 06 5e 7e bf 03 a2 5c be
       0.052294523 -0.40455204 -0.9936222 -0.21546178
000170 60 d1 46 40 b8 1a 76 3e e7 24 dc be 62 56 3f bf
       3.1065292 0.2403363 -0.42996904 -0.74741185
000180 d0 48 05 40 b1 0b 1d bf ec cf 15 c1 cb 36 1b be
       2.0825691 -0.61345965 -9.363262 -0.1515762
000190 09 af b0 3f 55 23 bf 3f 97 64 db 3f 87 4b d2 bf
       1.3803416 1.4932657 1.7140073 -1.6429299
0001a0 76 ae 2e 40 65 68 98 bf 0a 65 04 c0 0f 62 22 40
       2.7293983 -1.1906859 -2.068667 2.537235
0001b0 c8 b3 5f c0 b0 2d 5d be c7 63 2d bf 73 64 93 3f
       -3.495348 -0.2159946 -0.67730373 1.151503
0001c0 85 62 e2 3e f8 8b ee 3f 1e 4a 06 c0 96 2e 0a c0
       0.4421579 1.8636465 -2.0982738 -2.1590934
0001d0 8e 0c a4 bf 94 95 7d 3f 2e 52 c0 40 c2 21 f6 bf
       -1.2816331 0.99056363 6.0100317 -1.9229052
0001e0 97 6a d8 40 40 ea 94 3f 52 e9 97 bf a2 f6 82 3f
       6.7630115 1.1633987 -1.1868079 1.0231516
0001f0 29 1a 95 be d0 ad 5d 3e 96 43 1d be ec cb a5 be
       -0.2912152 0.21648335 -0.15357813 -0.32382143

first_layer.bias f4 [32]
000000 dc 23 6e bf ad 35 72 3f 98 1f ad c0 14 83 03 41
       -0.9302347 0.9461315 -5.4101067 8.2195015
000010 83 29 0f c0 96 3e 97 3f 1a b5 ef bf 36 e0 c7 3f
       -2.2369087 1.1815975 -1.8727143 1.5615299
000020 ec 6f 6d 3f 86 b6 2b 40 6d fa 1f 40 30 ac e2 c0
       0.92748904 2.6830153 2.4996598 -7.083519
000030 11 ee a9 3f bd 9f c0 c0 03 71 ab 3f b9 37 fe 3f
       1.3275777 -6.0194993 1.3393863 1.9860755
000040 e1 a2 0b 40 3a ef 24 40 c5 85 c6 3f bc 30 63 40
       2.1818163 2.5771012 1.5509573 3.5498495
000050 8d e0 90 c0 68 5a 4e 3f 72 cd cb 3f 60 71 25 c0
       -4.527411 0.806067 1.5922072 -2.5850449
000060 56 14 97 c0 d4 fd ec 3f 0e c4 e7 bf 1c 43 68 40
       -4.7212324 1.8514962 -1.8106706 3.629096
000070 9c 87 fd 3f dd 1d 0e 40 c3 4a ea c0 e6 f2 0b 40
       1.980701 2.2205727 -7.321626 2.1867003

inter_layer.weight f4 [32, 32]
000000 ca 4c fe bf 0c ad 8a c0 80 96 82 be 01 fe aa c0
       -1.9867184 -4.333624 -0.25505447 -5.3435063
000010 f9 6b 2e 3c a1 6b 60 c0 1e 66 10 bf a0 d7 f0 3f
       0.01064586 -3.5065691 -0.5640582 1.8815804
000020 39 33 fc c0 22 27 5f 3f 43 90 76 3f c2 51 99 3f
       -7.881253 0.87169087 0.96313876 1.1978076
000030 64 18 1e 3f a9 a8 2d c1 d1 0d 1d 3f 91 b4 11 c0
       0.6175597 -10.853677 0.6134921 -2.276646
000040 d4 34 0f c0 78 fe 77 be 9b 0d f8 bd 0a ac 79 c0
       -2.2375994 -0.24218166 -0.1211197 -3.9011254
000050 46 14 1b c1 31 eb 83 bf 69 8f 16 bf 7e 89 06 40
       -9.69245 -1.030615 -0.58812577 2.1021419
000060 c9 a8 f2 bf 54 c1 a1 bf 85 5b 67 c0 14 15 d4 3f
       -1.8957759 -1.2637124 -3.614961 1.6568933
000070 01 df 56 3f 02 64 eb 3f fd 5c 18 c1 4b 16 ab 3f
       0.83934027 1.8389895 -9.522702 1.3366178
000080 4b fb e5 be f9 66 07 3f ce ee 5f c0 d7 02 0e 40
       -0.44918284 0.528915 -3.4989505 2.2189233
000090 c2 fa f1 c0 39 dc 88 c0 08 bb 9d 40 72 18 ec 3e
       -7.56186 -4.2768826 4.929081 0.461124
0000a0 79 8f 2f 40 ee 5f 70 bf 9f 8f 4d 40 62 b0 66 c0
       2.7431319 -0.9389638 3.211891 -3.6045156
0000b0 46 81 79 3f aa 3c 29 be 73 7d 1c 3f 67 10 c6 3e
       0.9746288 -0.16527048 0.6112892 0.3868439
0000c0 9b 3a fd be b6 09 d2 3f f1 63 49 c0 43 ce ba 40
       -0.49458775 1.6409214 -3.146725 5.8376784
0000d0 36 8c 24 c0 b7 f9 12 3f 4a a5 79 40 b9 2d 8b c0
       -2.5710578 0.57412285 3.9007134 -4.3493314
0000e0 45 00 2e bf 3a e9 ea 3f 63 73 47 c0 0f 90 78 40
       -0.6796916 1.8352425 -3.1164176 3.8837926
0000f0 36 5f 0b c0 e6 7d 32 be 4e 14 05 c1 a0 38 17 c0
       -2.1776862 -0.17430839 -8.317457 -2.362831
000100 77 28 59 bf 6d 6e c1 c0 98 ac 00 c0 13 7b e2 bf
       -0.8482737 -6.0447297 -2.0105343 -1.7693809
000110 c2 00 20 40 44 92 bf bc 0e 92 9f c0 7c d9 38 40
       2.5000463 -0.023385175 -4.986579 2.8882742
000120 5b cc 91 c0 a0 9b 13 3e b5 70 12 3e 75 9d d9 3e
       -4.5561957 0.14414835 0.14300807 0.42502943
000130 32 3d 43 c0 56 7e 9b c0 d5 4c 39 3f 53 3d 9a bf
       -3.05061 -4.859172 0.7238286 -1.2049965
000140 b2 10 98 c0 7f 28 20 40 60 47 cc be 43 a8 56 3f
       -4.752038 2.5024717 -0.39898205 0.83850497
000150 40 67 47 c0 8b 0e 43 bd bc f8 63 c0 82 04 7b c0
       -3.1156769 -0.04762129 -3.5620565 -3.9221501
000160 db b7 ce c0 6a 20 3b 40 2e d1 ce bf b8 c7 3a c0
       -6.4599433 2.9238534 -1.6157587 -2.9184399
000170 81 68 b0 be a1 fa 29 3c 82 b8 87 c0 9a 8f 74 40
       -0.3445473 0.010374696 -4.241273 3.8212647
000180 77 0b 19 bf 5d 9c ad c0 42 5c e7 3f ed c1 94 c0
       -0.5978312 -5.4253373 1.807503 -4.6486726
000190 94 58 22 40 49 6c 61 bf 1e eb 6a bf e4 3e ed 3e
       2.5366564 -0.88055855 -0.9176501 0.46337044
0001a0 67 ca 99 bf 39 c1 8c bd 2d b4 33 3e 58 3e 60 c0
       -1.2014893 -0.06872792 0.175492 -3.5038052
0001b0 8a 0a 63 3f e0 8b 27 c1 a9 ef b0 3f 30 77 ac 3d
       0.88687956 -10.471649 1.3823138 0.08421171
0001c0 39 9e 3a c0 3a 79 82 bf 0f 86 04 3f ad 77 fd be
       -2.9159071 -1.0193245 0.5176706 -0.49505368
0001d0 e1 63 1f c0 fb c4 c9 3f 1a f8 1d c0 76 08 ec bf
       -2.4904711 1.5763239 -2.468268 -1.8440082
0001e0 08 08 f4 c0 33 dd 1d bf fc 58 16 bf 9f 98 40 3e
       -7.6259804 -0.6166565 -0.5872953 0.1880822
0001f0 4a ba 59 3f 75 06 db 3f 88 42 46 c0 19 f4 3b bf
       0.8504988 1.7111346 -3.0978107 -0.7341934
000200 1f 52 00 c0 9b 71 4f be 28 57 cd 3f 48 50 c5 3f
       -2.0050123 -0.20258181 1.6042223 1.5415125
000210 b2 26 89 3f e8 ee fa 3f cb e0 10 c0 fd 32 00 3f
       1.0714934 1.9604158 -2.2637203 0.500778
000220 71 fe be be eb 95 c0 3f c3 96 51 c0 a0 39 9c be
       -0.37303498 1.5045751 -3.2748268 -0.30512714
000230 ba 89 f3 3f d3 32 64 c0 11 ca 9d 40 72 64 d6 3e
       1.9026406 -3.565602 4.9309163 0.4187351
000240 97 39 2e c0 74 32 9a 3f b9 91 56 3e 25 21 3c 40
       -2.722265 1.2046647 0.20954026 2.939523
000250 05 2b 9b c0 a5 77 61 40 2b 39 f0 bf bf 14 01 bf
       -4.8490014 3.5229275 -1.8767446 -0.5042228
000260 6d 6c a8 c0 d1 9d 9b bf e3 55 84 bf 01 78 09 be
       -5.2632356 -1.2157537 -1.033871 -0.13424684
000270 58 41 e0 bf ab 3d 80 3f e3 3c 31 bf 8a 3b 99 40
       -1.7519941 1.001882 -0.6923353 4.788518
000280 0c 5d 8f 3f da 71 88 3f 86 e7 18 c0 b3 a6 05 40
       1.1200271 1.0659745 -2.389131 2.0882995
000290 e4 7b 3d c0 c5 e4 12 3e f6 0b 90 c0 df e9 1e c0
       -2.9606867 0.14345081 -4.50146 -2.4830244
0002a0 63 cf fa bf 69 eb 83 3f d0 02 34 3f 77 3a df bf
       -1.9594539 1.0306216 0.7031679 -1.7439717
0002b0 e3 49 33 40 bb 48 75 bf 5f 04 37 bf 93 74 2f 40
       2.8013847 -0.958141 -0.71491045 2.7414901
0002c0 11 01 3b 3b a0 24 98 3f e3 44 55 bf 57 cb 75 3f
       0.0028534571 1.1886177 -0.8330824 0.96013397
0002d0 14 69 17 3e 30 34 f1 bf 81 01 9b 40 94 3c de c0
       0.14786178 -1.8844051 4.8439336 -6.944895
0002e0 fe 8c aa 40 be 98 02 40 44 6e 80 bf 23 71 19 40
       5.329711 2.0405726 -1.003365 2.3975303
0002f0 b1 6d b6 bd aa 34 b7 be 81 6d db c0 65 70 00 c0
       -0.08907641 -0.35782367 -6.857117 -2.00686
000300 51 65 c0 3f 4a 1e 61 c0 75 e5 28 3f 0e 9f 09 40
       1.5030919 -3.5174737 0.65975124 2.150333
000310 f4 fb 8b 40 2d b0 28 3f eb 34 03 be 54 4c 08 40
       4.374506 0.6589382 -0.12813155 2.1296587
000320 4d 7b 75 3f 5f 40 8f 3f fc f5 c4 3f d1 6c f8 bf
       0.9589127 1.119152 1.5387568 -1.9408208
000330 1e ec df bf bd a3 b4 c0 5b 8f 68 40 60 87 88 bd
       -1.7493932 -5.6449876 3.6337497 -0.06666446
000340 4c 97 9d c0 84 23 01 3f f6 f5 64 3f f5 03 cf 3e
       -4.924719 0.5044482 0.89437807 0.40432706
000350 92 cc 48 3e 2e 47 0d 40 8c b0 d4 bf 68 7f 68 bf
       0.19609287 2.2074695 -1.6616378 -0.90819407
000360 1f a7 38 c1 b1 18 fa 3f 49 a2 14 bf d6 28 c9 3f
       -11.540801 1.9538785 -0.5806013 1.5715587
000370 a1 e4 4c 3f b0 c3 fe 3f 45 80 cc c0 3e 7a 23 40
       0.8003636 1.9903469 -6.390658 2.554336
000380 74 b9 96 bd e4 3d 2d 40 f8 1b 04 c0 b6 71 83 c0
       -0.07359591 2.7069025 -2.064207 -4.1076307
000390 47 d3 ae bf 32 66 1e bd ed 42 7c 3f 91 e3 1d c0
       -1.3658227 -0.03867168 0.9853962 -2.4670146
0003a0 71 8b ae 3f 3a b7 5c c0 a6 74 38 3f 58 7d 5a 3e
       1.3636304 -3.4486833 0.7205299 0.21336877
0003b0 02 b9 4e 3f 95 a3 ec 40 60 41 a1 bf bc 06 10 3f
       0.8075105 7.3949685 -1.2598076 0.56260276
0003c0 3b 64 a2 3f 9a a0 53 be 90 65 03 3e 64 d2 8f 3f
       1.2686838 -0.20666733 0.12831712 1.1236081
0003d0 25 ba 9d bf 37 e2 ae 3d 5c ae 59 c0 30 5e 17 3f
       -1.2322432 0.08539241 -3.401267 0.59128094
0003e0 5c 73 ae 40 a9 7f b9 be 66 bb cf bf db 5d 6f c0
       5.451582 -0.3623021 -1.6229064 -3.7401035
0003f0 7b d6 f0 bb be e2 35 bf 68 62 9f bf 5b 37 82 bf
       -0.007349787 -0.71049106 -1.2451906 -1.0173143

inter_layer.bias f4 [32]
000000 bd 18 3e 3e 0d 4c 2b 40 1b 7e 27 be ec 49 98 3f
       0.18564124 2.6765168 -0.16356699 1.1897559
000010 f6 c3 5a 40 45 fa 58 40 50 c8 78 40 ac 20 ba bf
       3.4182105 3.3902752 3.887226 -1.4541221
000020 da 6d 1b bc 2e b4 8f be e6 80 7c 3e c3 ee a5 be
       -0.00948664 -0.28067154 0.24658546 -0.32408723
000030 c4 47 f0 be ac da f7 bd 97 2f 86 be 0c 92 c9 3e
       -0.46929753 -0.12102255 -0.26208183 0.39369237
000040 49 7b 62 bf 25 e2 e2 bf 39 04 a1 3f bd d4 34 bf
       -0.8846937 -1.7725264 1.2579414 -0.7063711
000050 52 5d 6c bf 2d e2 78 3f 55 80 b2 be 52 ba ce be
       -0.92329895 0.97220117 -0.34863535 -0.40376526
000060 5a cb 03 3f e3 fb 0a bf 0d 9d ce 3f f0 6d a9 bf
       0.51482165 -0.542906 1.6141678 -1.3236675
000070 fe 77 13 be 6e 62 f8 3f 51 73 a1 bf 97 cf 35 40
       -0.14401242 1.9405038 -1.2613317 2.8407953

final_layer.weight f4 [1, 32]
000000 da 81 b9 c0 36 19 fc 40 ed a5 13 c1 8e bd db c0
       -5.797101 7.8780775 -9.228009 -6.866889
000010 14 d5 ff c0 24 64 05 41 d3 5b b0 c0 24 bd 73 40
       -7.9947605 8.336948 -5.511209 3.8084192
000020 8d a6 94 c0 51 99 d7 c0 fa b0 2d 40 cf 3f 17 40
       -4.645331 -6.7374654 2.7139268 2.3632696
000030 bd 9f a2 c0 90 f2 85 c0 04 cf 07 40 b6 82 2a 41
       -5.0819993 -4.1858597 2.1220102 10.656912
000040 5e cf 63 40 ac 03 43 40 4a a2 01 c1 64 f2 48 40
       3.5595317 3.047099 -8.102121 3.1397943
000050 1e d6 b4 40 97 90 87 c0 fe 02 b7 40 df b8 1c c1
       5.6511374 -4.2364 5.7191153 -9.795135
000060 fb 6c 81 c0 00 e3 53 c0 17 05 94 c0 e4 d4 c4 c0
       -4.0445533 -3.31073 -4.6256213 -6.1509876
000070 92 c6 3c 40 70 67 21 c0 b7 f3 17 41 b9 84 9b c0
       2.9496198 -2.5219383 9.497001 -4.8599515
