continuous cartpole/rl_model/train_2022-02-16T23:10:08.409859/model/150460_critic.pt (torch, 8580 bytes, 9 tensors)

norm_layer.weight f4 [4]
1.0 1.0 1.0 1.0
00000000: 0000 803f 0000 803f 0000 803f 0000 803f

norm_layer.bias f4 [4]
0.0 0.0 0.0 0.0
00000000: 0000 0000 0000 0000 0000 0000 0000 0000

norm_layer.running_mean f4 [4]
0.0 0.0 0.0 0.0
00000000: 0000 0000 0000 0000 0000 0000 0000 0000

norm_layer.running_var f4 [4]
1.0 1.0 1.0 1.0
00000000: 0000 803f 0000 803f 0000 803f 0000 803f

first_layer.weight f4 [32, 5]
20.6043 21.492441 79.26652 52.303474 0.52510554 58.307686 9.476249 -16.618298
4.199498 -0.06582754 -47.7055 -20.908403 -46.98838 -15.2054405 0.13469161 -2.9764812
-39.182293 -64.5355 -11.564381 1.0824305 -41.989857 -21.090172 -45.55608 -17.945646
0.13767578 58.624203 22.677885 50.7348 1.2179097 0.73695683 66.264435 14.44904
-74.6523 -3.1092505 0.07337742 -41.22475 -21.2429 -41.40919 -14.820584 0.015949931
64.63849 10.256159 -68.593475 -4.999384 0.4019481 -48.76138 -21.382572 -51.792713
-15.448841 0.106805794 -37.467808 -20.364473 -44.589508 -13.260318 0.24191573 -34.72401
-14.21019 -59.919052 -17.01905 0.32215863 58.90692 3.807766 -32.50107 6.9402723
-1.4278673 30.45104 15.133004 46.506615 1.4574894 0.1609797 -51.292995 -22.150635
-42.653793 -16.282328 0.0145449005 -52.222614 -20.306917 -43.04132 -15.256326 0.1128295
-36.242027 -16.5814 -38.584904 -14.089501 0.1499799 54.396194 15.3131695 10.332325
11.4434805 0.33977073 78.396324 5.172085 -92.8883 -4.495253 0.22160494 -48.70373
-20.392574 -52.240303 -14.845502 0.08714828 41.6283 5.077995 -2.883466 9.060615
-0.5211811 -48.23513 -18.346651 -67.97135 -14.238456 0.09595512 56.01161 22.635979
61.20707 -0.5543558 0.6686096 8.761264 2.1118984 42.61266 11.830782 -0.16989881
66.0435 17.234434 43.162766 -0.39039993 0.13980035 -41.017567 -16.457155 -45.63304
-12.802975 0.1164672 -39.644627 -16.122162 -62.80092 -12.984328 0.3673254 -43.54377
-8.939567 -27.562458 -17.525543 -3.5106337 14.532706 0.22589995 53.76612 22.17363
-0.14905688 48.83285 21.995531 21.982298 13.35305 1.1920092 -28.58495 -14.088122
-40.039894 -21.633526 -1.0768362 -44.822525 -20.067814 -50.48085 -13.423546 0.11475032
00000000: 9bd5 a441 85f0 ab41 7588 9e42 c236 5142
00000010: 516d 063f 123b 6942 b79e 1741 46f2 84c1
00000020: 4a62 8640 97d0 86bd 6fd2 3ec2 6944 a7c1
00000030: 1af4 3bc2 7c49 73c1 99ec 093e ab7e 3ec0
00000040: abba 1cc2 2d12 81c2 b407 39c1 158d 8a3f
00000050: 9df5 27c2 acb8 a8c1 6d39 36c2 af90 8fc1
00000060: e1fa 0c3e 2f7f 6a42 4f6c b541 6ff0 4a42
00000070: 77e4 9b3f 34a9 3c3f 6487 8442 452f 6741
00000080: fa4d 95c2 f6fd 46c0 e746 963d 25e6 24c2
00000090: 76f1 a9c1 03a3 25c2 1d21 6dc1 6ea9 823c
000000a0: e846 8142 3a19 2441 dc2f 89c2 f4fa 9fc0
000000b0: 24cc cd3e a70b 43c2 820f abc1 bd2b 4fc2
000000c0: 742e 77c1 ffbc da3d 09df 15c2 71ea a2c1
000000d0: a85b 32c2 432a 54c1 c2b8 773e 63e5 0ac2
000000e0: f05c 63c1 1cad 6fc2 0427 88c1 faf1 a43e
000000f0: b0a0 6b42 70b2 7340 1801 02c2 b616 de40
00000100: 5bc4 b6bf bb9b f341 c920 7241 c606 3a42
00000110: 038f ba3f ddd7 243e 072c 4dc2 8034 b1c1
00000120: 7c9d 2ac2 3542 82c1 bc4d 6e3c f5e3 50c2
00000130: 9174 a2c1 502a 2cc2 e919 74c1 2713 e73d
00000140: d6f7 10c2 b5a6 84c1 f156 1ac2 996e 61c1
00000150: 5594 193e b495 5942 be02 7541 3451 2541
00000160: 7f18 3741 6ef6 ad3e ebca 9c42 b881 a540
00000170: cfc6 b9c2 1dd9 8fc0 68ec 623e 9fd0 42c2
00000180: fe23 a3c1 12f6 50c2 2d87 6dc1 cc7a b23d
00000190: 6183 2642 ef7e a240 b58a 38c0 47f8 1041
000001a0: 206c 05bf c6f0 40c2 f1c5 92c1 55f1 87c2
000001b0: b7d0 63c1 1e84 c43d e30b 6042 7c16 b541
000001c0: 0ad4 7442 43ea 0dbf 002a 2b3f 232e 0c41
000001d0: 5829 0740 5d73 2a42 e24a 3d41 f4f9 2dbe
000001e0: 4616 8442 1fe0 8941 aca6 2c42 80e2 c7be
000001f0: d327 0f3e fd11 24c2 41a8 83c1 3c88 36c2
00000200: fcd8 4cc1 5b86 ee3d 1994 1ec2 30fa 80c1
00000210: 2434 7bc2 cfbf 4fc1 1312 bc3e d22c 2ec2
00000220: 7708 0fc1 ea7f dcc1 5034 8cc1 39ae 60c0
00000230: f785 6841 5152 673e 8210 5742 9863 b141
00000240: 5ea2 18be d754 4342 d9f6 af41 bfdb af41
00000250: 18a6 5541 c293 983f faad e4c1 f368 61c1
00000260: da28 20c2 7611 adc1 c5d5 89bf 444a 33c2
00000270: e28a a0c1 64ec 49c2 d8c6 56c1 3702 eb3d

first_layer.bias f4 [32]
-16.63606 -32.431187 61.02352 48.86576 49.501007 -5.7177014 -22.61258 52.49074
-22.208084 57.38751 60.215103 52.415985 -12.160391 -51.061646 51.8359 55.260063
59.42838 -12.2419405 -27.296965 56.27689 -47.42478 52.27794 -22.018002 -40.098694
-7.557709 59.268703 56.047306 45.084267 -29.929985 -39.535503 51.673344 58.98422
00000000: a716 85c1 89b9 01c2 1618 7442 8a76 4342
00000010: 0801 4642 69f7 b6c0 90e6 b4c1 85f6 5142
00000020: 28aa b1c1 cf8c 6542 44dc 7042 f8a9 5142
00000030: f690 42c1 203f 4cc2 f657 4f42 4e0a 5d42
00000040: a9b6 6d42 fdde 43c1 2f60 dac1 891b 6142
00000050: fab2 3dc2 9c1c 5142 de24 b0c1 1065 20c2
00000060: c1d8 f1c0 2713 6d42 7130 6042 4a56 3442
00000070: 9c70 efc1 5b24 1ec2 81b1 4e42 d7ef 6b42

inter_layer.weight f4 [32, 32]
-9.534386 -93.87036 77.412254 26.07504 51.822334 -19.217081 -114.70295 70.85495
-78.75707 80.2318 62.447807 50.633957 -36.595795 -124.01427 75.48926 79.7724
58.909035 -31.930374 -77.73063 72.83573 -53.79647 63.525517 -34.783043 -110.740845
-53.16534 60.464497 61.85972 25.928219 -28.561478 -41.146763 41.589344 75.830414
-14.757067 -85.57768 74.06161 25.277292 49.42711 -21.85763 -106.4911 69.94749
-74.480194 77.89992 61.177948 47.44328 -34.47649 -102.60175 75.32999 77.178474
57.747383 -36.343258 -71.35382 71.83101 -56.886326 63.316185 -36.19652 -83.51597
-52.66439 58.838337 58.507935 24.88302 -24.598192 -44.05869 39.656387 73.01677
11.23985 43.77452 -66.6477 -18.09675 -40.906387 10.243084 87.12934 -70.354744
54.114532 -69.49275 -52.637054 -38.188038 19.118204 87.08899 -73.72375 -66.252144
-50.11595 27.963137 57.843742 -65.33932 30.432262 -58.8389 13.896392 52.724556
40.50029 -53.522064 -52.82488 -25.93943 8.689266 22.976234 -38.929882 -68.70475
-11.534561 -98.5381 76.422935 24.673237 51.0351 -20.06866 -111.05509 69.29096
-78.141174 78.17251 60.49258 49.770138 -34.388905 -114.07073 74.69593 79.27062
57.75669 -34.877655 -73.10893 72.666214 -53.00417 63.92661 -35.09132 -91.16991
-53.571323 58.389015 61.39203 26.497007 -26.485104 -41.756695 41.54049 73.97306
-15.683135 -83.58208 73.52867 23.335392 49.701344 -23.451805 -107.62097 70.76061
-72.90488 78.31572 60.14837 46.859447 -31.724224 -95.937645 75.14264 78.79279
56.91564 -37.74912 -71.55849 72.047775 -57.87245 64.94264 -35.326244 -86.032036
-54.36072 58.32209 58.59663 24.786978 -21.679815 -42.217773 38.44309 70.35554
-14.033927 -61.84405 68.898994 20.153381 45.13328 -23.26155 -90.11167 67.558556
-66.51913 73.36067 55.63621 45.985565 -31.683565 -104.4125 72.37368 71.42156
51.128464 -35.09204 -64.572464 69.33695 -43.475372 69.71878 -32.226154 -65.94876
-58.34294 53.855274 56.089664 23.40323 -26.160835 -35.3903 39.617336 68.09356
10.696065 42.529602 -66.38913 -18.209 -40.30826 10.491548 87.86419 -70.01591
53.61678 -69.40176 -52.277233 -40.396343 19.469202 85.14457 -74.63373 -65.42787
-49.47767 26.921497 58.117374 -64.888725 30.377985 -60.318073 13.603886 52.897556
40.269554 -53.458954 -53.329082 -25.765621 8.479596 22.910908 -39.336624 -67.58755
8.92973 44.418625 -64.88805 -17.17278 -40.77407 9.928346 80.13931 -68.645645
48.665947 -67.48294 -52.311787 -39.573578 18.306568 82.43424 -72.4437 -63.71334
-51.033066 26.540333 56.776306 -64.27359 27.614336 -57.214363 13.14646 52.768433
39.8448 -53.232143 -55.06722 -29.153261 7.7408752 24.723385 -42.15175 -68.341064
00000000: d88c 18c1 a0bd bbc2 13d3 9a42 af99 d041
00000010: 124a 4f42 95bc 99c1 e967 e5c2 bcb5 8d42
00000020: 9f83 9dc2 ae76 a042 8eca 7942 2c89 4a42
00000030: 1862 12c2 4e07 f8c2 80fa 9642 788b 9f42
00000040: daa2 6b42 6871 ffc1 1576 9bc2 e5ab 9142
00000050: 962f 57c2 211a 7e42 d621 0bc2 507b ddc2
00000060: 4fa9 54c2 a5db 7142 5a70 7742 fe6c cf41
00000070: e87d e4c1 4996 24c2 7d5b 2642 2ca9 9742
00000080: f21c 6cc1 c627 abc2 8b1f 9442 e537 ca41
00000090: 5cb5 4542 6ddc aec1 71fb d4c2 1de5 8b42
000000a0: dcf5 94c2 c2cc 9b42 38b6 7442 ebc5 3d42
000000b0: ede7 09c2 1934 cdc2 f4a8 9642 615b 9a42
000000c0: 52fd 6642 7f5f 11c2 28b5 8ec2 7aa9 8f42
000000d0: 998b 63c2 c643 7d42 3dc9 10c2 2d08 a7c2
000000e0: 56a8 52c2 755a 6b42 2008 6a42 6d10 c741
000000f0: 19c9 c4c1 193c 30c2 24a0 1e42 9608 9242
00000100: 6dd6 3341 1c19 2f42 9f4b 85c2 25c6 90c1
00000110: 24a0 23c2 ace3 2341 3942 ae42 a1b5 8cc2
00000120: 4875 5842 4afc 8ac2 588c 52c2 8dc0 18c2
00000130: 15f2 9841 902d ae42 8f72 93c2 1981 84c2
00000140: bc76 48c2 81b4 df41 fe5f 6742 bbad 82c2
00000150: 4675 f341 095b 6bc2 9f57 5e41 f2e5 5242
00000160: 4c00 2242 9816 56c2 ad4c 53c2 f483 cfc1
00000170: 3c07 0b41 54cf b741 33b8 1bc2 d568 89c2
00000180: 908d 38c1 8213 c5c2 8bd8 9842 ca62 c541
00000190: f123 4c42 9e8c a0c1 351c dec2 f994 8a42
000001a0: 4848 9cc2 5358 9c42 67f8 7142 9f14 4742
000001b0: 3d8e 09c2 3724 e4c2 5164 9542 8f8a 9e42
000001c0: da06 6742 b882 0bc2 c637 92c2 1a55 9142
000001d0: 4504 54c2 d9b4 7f42 835d 0cc2 fe56 b6c2
000001e0: 0949 56c2 5a8e 6942 7091 7542 dff9 d341
000001f0: 7ee1 d3c1 db06 27c2 7629 2642 35f2 9342
00000200: 1fee 7ac1 062a a7c2 ae0e 9342 e2ae ba41
00000210: 2dce 4642 4c9d bbc1 f03d d7c2 6f85 8d42
00000220: 4ccf 91c2 a6a1 9c42 ee97 7042 1370 3b42
00000230: 36cb fdc1 13e0 bfc2 0849 9642 e995 9d42
00000240: 9ea9 6342 19ff 16c2 f21d 8fc2 7618 9042
00000250: 647d 67c2 a2e2 8142 134e 0dc2 6710 acc2
00000260: 6171 59c2 d249 6942 f362 6a42 bb4b c641
00000270: 4370 adc1 00df 28c2 b9c5 1942 09b6 8c42
00000280: f78a 60c1 4f60 77c2 49cc 8942 203a a141
00000290: 7b88 3442 a817 bac1 2d39 b4c2 fb1d 8742
000002a0: cb09 85c2 aab8 9242 7b8b 5e42 38f1 3742
000002b0: f177 fdc1 33d3 d0c2 53bf 9042 d7d7 8e42
000002c0: 8c83 4c42 405e 0cc2 1a25 81c2 85ac 8a42
000002d0: c8e6 2dc2 0470 8b42 95e7 00c2 c4e5 83c2
000002e0: 2c5f 69c2 cd6b 5742 d15b 6042 d139 bb41
000002f0: 6449 d1c1 ab8f 0dc2 2778 1e42 e72f 8842
00000300: 1523 2b41 501e 2a42 3cc7 84c2 08ac 91c1
00000310: a93b 21c2 61dd 2741 77ba af42 2508 8cc2
00000320: 9577 5642 b3cd 8ac2 e31b 51c2 db95 21c2
00000330: edc0 9b41 054a aa42 7844 95c2 12db 82c2
00000340: 22e9 45c2 3a5f d741 3178 6842 07c7 81c2
00000350: 1d06 f341 b545 71c2 84a9 5941 1997 5342
00000360: 0614 2142 f8d5 55c2 fb50 55c2 fe1f cec1
00000370: 6dac 0741 8a49 b741 b458 1dc2 d32c 87c2
00000380: 2de0 0e41 acac 3142 aec6 81c2 da61 89c1
00000390: a618 23c2 81da 1e41 5447 a042 924a 89c2
000003a0: eea9 4242 44f7 86c2 453f 51c2 584b 1ec2
000003b0: da73 9241 55de a442 2de3 90c2 76da 7ec2
000003c0: dc21 4cc2 9a52 d441 f01a 6342 148c 80c2
000003d0: 29ea dc41 82db 64c2 e657 5241 e012 5342
000003e0: 1361 1f42 b7ed 54c2 d544 5cc2 e139 e9c1
000003f0: 40b5 f740 7ec9 c541 649b 28c2 a0ae 88c2

inter_layer.bias f4 [32]
61.08542 58.970474 -61.996616 59.76702 56.036995 50.162727 -61.2193 -61.15247
-61.41749 56.816658 54.363747 -59.45496 56.687035 -61.907974 -33.861782 48.541496
-59.40368 -59.331944 60.370304 -62.389236 59.377666 -59.622383 59.612118 -59.367336
60.785477 60.420208 -60.325077 55.580753 -60.792454 -60.308674 -60.61169 58.393616
00000000: 7857 7442 c4e1 6b42 89fc 77c2 6e11 6f42
00000010: e225 6042 a2a6 4842 90e0 74c2 219c 74c2
00000020: 82ab 75c2 4244 6342 7a74 5942 e1d1 6dc2
00000030: 86bf 6242 c4a1 77c2 7772 07c2 7e2a 4242
00000040: 5e9d 6dc2 e953 6dc2 317b 7142 948e 79c2
00000050: bb82 6d42 527d 6ec2 cf72 6e42 2778 6dc2
00000060: 5424 7342 4bae 7142 e14c 71c2 b152 5e42
00000070: 792b 73c2 153c 71c2 5f72 72c2 1093 6942

final_layer.weight f4 [1, 32]
102.73926 100.82775 -59.08756 98.412674 100.30297 86.110794 -59.354515 -60.78283
-66.21452 93.9135 94.10279 -58.842445 98.660225 -60.340397 -58.071045 91.1418
-65.87071 -60.545254 98.21367 -60.046024 101.81993 -60.651073 94.98454 -63.10512
101.43608 96.51844 -63.827938 99.12436 -58.871197 -64.04495 -60.798515 99.76679
00000000: 807a cd42 cfa7 c942 a959 6cc2 4ad3 c442
00000010: 1f9b c842 ba38 ac42 066b 6dc2 9e21 73c2
00000020: d66d 84c2 b6d3 bb42 a134 bc42 aa5e 6bc2
00000030: 0952 c542 915c 71c2 c048 68c2 9a48 b642
00000040: cebd 83c2 572e 72c2 666d c442 212f 70c2
00000050: cea3 cb42 b39a 72c2 16f8 bd42 a56b 7cc2
00000060: 46df ca42 7109 c142 cf4f 7fc2 ac3f c642
00000070: 1b7c 6bc2 0417 80c2 ae31 73c2 9988 c742
