continuous cartpole/rl_model/train_2022-02-16T23:10:08.409859/model/151500_critic.pt (torch, 8580 bytes, 9 tensors)

norm_layer.weight f4 [4]
0	0x3f800000	1.0
1	0x3f800000	1.0
2	0x3f800000	1.0
3	0x3f800000	1.0

norm_layer.bias f4 [4]
0	0x00000000	0.0
1	0x00000000	0.0
2	0x00000000	0.0
3	0x00000000	0.0

norm_layer.running_mean f4 [4]
0	0x00000000	0.0
1	0x00000000	0.0
2	0x00000000	0.0
3	0x00000000	0.0

norm_layer.running_var f4 [4]
0	0x3f800000	1.0
1	0x3f800000	1.0
2	0x3f800000	1.0
3	0x3f800000	1.0

first_layer.weight f4 [32, 5]
0	0x41a6db6b	20.857138
1	0x41a726ee	20.894009
2	0x4296c793	75.38979
3	0x425183ec	52.37883
4	0x3efd898b	0.49519
5	0x426550e2	57.328987
6	0x4111ab57	9.104331
7	0xc171bd93	-15.108783
8	0x40945aa2	4.6360636
9	0xbde89eaf	-0.113583915
10	0xc23c4267	-47.064846
11	0xc1a9eb3d	-21.239862
12	0xc2420468	-48.504303
13	0xc172fc0d	-15.186536
14	0x3e04444f	0.12916683
15	0xbfa5382d	-1.2907768
16	0xc216921d	-37.64269
17	0xc287248b	-67.57137
18	0xc15a0310	-13.625748
19	0x3f54418a	0.82912505
20	0xc225658a	-41.34916
21	0xc1ab5fad	-21.421717
22	0xc23c4a06	-47.07229
23	0xc18f69f5	-17.926737
24	0x3e0752be	0.13215157
25	0x4271175b	60.272808
26	0x41b8e16d	23.110071
27	0x424ae361	50.72205
28	0x3f7e3317	0.99296707
29	0x3f303a08	0.6883855
30	0x428460ee	66.189316
31	0x4165dd52	14.366533
32	0xc292e38c	-73.44443
33	0xc036433a	-2.8478532
34	0x3dc87617	0.09788149
35	0xc222531d	-40.581165
36	0xc1ac961c	-21.573296
37	0xc22bb552	-42.92707
38	0xc16cd8fe	-14.802977
39	0x3c891cea	0.01673742
40	0x4281df44	64.936066
41	0x411179f9	9.0922785
42	0xc28b5f42	-69.68605
43	0xc0766352	-3.849812
44	0x3ec51d6b	0.38499007
45	0xc2407a3b	-48.119366
46	0xc1adbcab	-21.717123
47	0xc2553d1f	-53.30969
48	0xc176d531	-15.427049
49	0x3db96da3	0.09054115
50	0xc2134ef0	-36.827087
51	0xc1a5915c	-20.695976
52	0xc2386c19	-46.105564
53	0xc153dce1	-13.2414255
54	0x3e7210e7	0.2363926
55	0xc2085512	-34.083076
56	0xc168abdb	-14.541957
57	0xc275bdc7	-61.43533
58	0xc1880015	-17.00004
59	0x3ea2067f	0.3164558
60	0x4266c378	57.690887
61	0x406c5611	3.692753
62	0xc1f9362d	-31.151453
63	0x40e7d69c	7.2449474
64	0xbf9d0643	-1.2267536
65	0x41eef28b	29.86843
66	0x4174bc95	15.296041
67	0x423f1f06	47.780296
68	0x3fc99128	1.5747423
69	0x3e2cdc68	0.16880953
70	0xc24a98f4	-50.64937
71	0xc1b3dbce	-22.482327
72	0xc230afc8	-44.17166
73	0xc1821bb1	-16.263521
74	0x3c2da645	0.010598724
75	0xc24e53e7	-51.581936
76	0xc1a51b7d	-20.638422
77	0xc2323a9f	-44.557247
78	0xc173cc7f	-15.237426
79	0x3ddbc5b9	0.10731072
80	0xc20e67c2	-35.601326
81	0xc1874d96	-16.912884
82	0xc220676e	-40.101006
83	0xc1612136	-14.070608
84	0x3e13ec31	0.14445569
85	0x425c07d4	55.007645
86	0x416109d5	14.0649
87	0x40d54e2f	6.665794
88	0x413d7e38	11.843315
89	0x3eb7cfc6	0.35900706
90	0x4299eb31	76.95936
91	0x40a5a7bb	5.176725
92	0xc2bb93c3	-93.7886
93	0xc08d82c8	-4.4222145
94	0x3e0d627a	0.13807097
95	0xc2403e26	-48.06069
96	0xc1a5d6b6	-20.72984
97	0xc257080e	-53.757866
98	0xc16d236f	-14.821151
99	0x3d7a73f5	0.06114574
100	0x4223b2b8	40.92453
101	0x40974635	4.72732
102	0xbff3d039	-1.904792
103	0x411760e6	9.461157
104	0xbf143178	-0.57887983
105	0xc23e5f6b	-47.59318
106	0xc19572ae	-18.680996
107	0xc28af99e	-69.48753
108	0xc1637847	-14.216865
109	0x3da4a937	0.08040088
110	0x42667997	57.61874
111	0x41b6fe5c	22.874199
112	0x426f3d4b	59.809856
113	0xbf3f9fbd	-0.74853116
114	0x3f21060e	0.62899864
115	0x4103b854	8.232502
116	0x400679c5	2.1011822
117	0x422f57ee	43.83587
118	0x413ec4d1	11.923051
119	0xbea53d02	-0.32273108
120	0x42854950	66.64319
121	0x418c7bde	17.560482
122	0x423001f6	44.001915
123	0xbf06e869	-0.5269838
124	0x3d887153	0.0666224
125	0xc22181f6	-40.376915
126	0xc1864f23	-16.788641
127	0xc23c98a7	-47.149075
128	0xc14c8bae	-12.7841015
129	0x3de336b0	0.11094415
130	0xc21c0411	-39.00397
131	0xc183a115	-16.453653
132	0xc280a245	-64.31693
133	0xc14f7274	-12.965443
134	0x3eb93dd4	0.36179984
135	0xc22b8903	-42.8838
136	0xc1149f99	-9.288964
137	0xc1ed669b	-29.6751
138	0xc18bffaa	-17.499836
139	0xc05c36aa	-3.4408364
140	0x41618a47	14.096259
141	0x3e4cdf6b	0.20007102
142	0x425b87bf	54.882565
143	0x41b2389d	22.277643
144	0xbe9fcb8b	-0.31209978
145	0x42465d6a	49.591225
146	0x41a7f5fe	20.995113
147	0x418ef132	17.867771
148	0x41553009	13.324227
149	0x3f9b43f0	1.2130108
150	0xc1df9db1	-27.951998
151	0xc166b862	-14.420015
152	0xc2286906	-42.102562
153	0xc1acfd6b	-21.62374
154	0xbf8f8464	-1.1212277
155	0xc230b8c5	-44.18044
156	0xc1a3384f	-20.402494
157	0xc24ffde6	-51.997948
158	0xc1566d0a	-13.401621
159	0x3dc8de67	0.09808045

first_layer.bias f4 [32]
0	0xc17c5669	-15.771096
1	0xc2056e93	-33.357983
2	0x4277d8e8	61.961823
3	0x424c1453	51.019848
4	0x4249c1fa	50.43943
5	0xc0a93865	-5.288134
6	0xc1c032c1	-24.024782
7	0x4255b968	53.43106
8	0xc1bd7fc0	-23.687378
9	0x42694f26	58.327293
10	0x42749d26	61.153465
11	0x42556b03	53.354504
12	0xc1662455	-14.38387
13	0xc24e4fe9	-51.578037
14	0x42531af6	52.77633
15	0x4260cb21	56.198368
16	0x4271778f	60.366756
17	0xc1331122	-11.191683
18	0xc1e7c33f	-28.970335
19	0x4264dee5	57.21767
20	0xc2406817	-48.10165
21	0x4254dedc	53.217636
22	0xc1a43763	-20.527044
23	0xc222cbfd	-40.699207
24	0xc0f5f30e	-7.68592
25	0x4270d40a	60.20707
26	0x4263f150	56.985657
27	0x423a3e08	46.560577
28	0xc1f3a75d	-30.45672
29	0xc219d5b5	-38.4587
30	0x42543e2b	53.06071
31	0x426fb24b	59.924114

inter_layer.weight f4 [32, 32]
0	0xc1133b07	-9.201911
1	0xc2bcc6ee	-94.388535
2	0x429d05d6	78.5114
3	0x41d81366	27.009472
4	0x42537e2b	52.87321
5	0xc19c3971	-19.528048
6	0xc2e6d712	-115.42006
7	0x42900a4e	72.02013
8	0xc29f0123	-79.50222
9	0x42a2b8c2	81.360855
10	0x427e1fa9	63.53092
11	0x424e1e06	51.52932
12	0xc212a049	-36.65653
13	0xc2fb0a4d	-125.52012
14	0x4299474d	76.63926
15	0x42a1be78	80.87201
16	0x426fb2cb	59.924603
17	0xc1fde93e	-31.738888
18	0xc2a2d7ff	-81.42187
19	0x4293ef11	73.96693
20	0xc2575e2a	-53.841957
21	0x42814d3f	64.65087
22	0xc20a0ed2	-34.514473
23	0xc2ddb675	-110.85636
24	0xc257d6d4	-53.959793
25	0x42761c4d	61.527637
26	0x427b5f08	62.842804
27	0x41d256bb	26.292349
28	0xc1e4e539	-28.611925
29	0xc223c3ef	-40.94134
30	0x42297b06	42.37014
31	0x4299f178	76.97162
32	0xc166ca43	-14.42438
33	0xc2abf97f	-85.9873
34	0x42965256	75.16081
35	0x41d1b22c	26.211998
36	0x4249e993	50.4781
37	0xc1b15834	-22.168068
38	0xc2d66a78	-107.20795
39	0x428e39aa	71.112625
40	0xc2967305	-75.22465
41	0x429e0ed9	79.029
42	0x42790b60	62.26111
43	0x42415ae1	48.33875
44	0xc20a6a97	-34.60409
45	0xc2d02c6d	-104.08677
46	0x4298f5c1	76.47999
47	0x429c8e6a	78.27815
48	0x426b0d4d	58.76299
49	0xc2109a8c	-36.150925
50	0xc29616c4	-75.044464
51	0x4291eca7	72.96221
52	0xc2643335	-57.050007
53	0x4280e213	64.44155
54	0xc20fb5a5	-35.927387
55	0xc2a7653c	-83.69772
56	0xc255d5ab	-53.45866
57	0x426f9b2a	59.901527
58	0x426df6e7	59.491116
59	0x41c9759c	25.182426
60	0xc1c5fa64	-24.747261
61	0xc22f6945	-43.852802
62	0x42219a05	40.40041
63	0x429450e7	74.15801
64	0x412e8301	10.906983
65	0x4230c366	44.19082
66	0xc2877e86	-67.747116
67	0xc19840f6	-19.03172
68	0xc227d497	-41.957607
69	0x4128da13	10.553241
70	0x42afb126	87.84599
71	0xc28f0a41	-71.52003
72	0x425b6ebc	54.85814
73	0xc28d3e7b	-70.62203
74	0xc256e1ad	-53.720387
75	0xc21c55b8	-39.08371
76	0x419a4cb4	19.287453
77	0x42b120cb	88.56405
78	0xc295bf74	-74.87393
79	0xc286b438	-67.35199
80	0xc24c86e6	-51.131737
81	0x41de2a64	27.770699
82	0x42762335	61.53438
83	0xc284f0fe	-66.47069
84	0x41f531c9	30.64931
85	0xc26fdb34	-59.964066
86	0x415a0926	13.6272335
87	0x4253d4d2	52.957832
88	0x42252d83	41.294445
89	0xc25a577d	-54.585438
90	0xc2573bad	-53.808277
91	0xc1d18af7	-26.192854
92	0x410e1b76	8.881704
93	0x41b627db	22.76946
94	0xc21e9961	-39.649784
95	0xc28bb13c	-69.84616
96	0xc1333a41	-11.201722
97	0xc2c5e771	-98.952034
98	0x429b0b5c	77.52219
99	0x41ccdd57	25.608076
100	0x42505832	52.08613
101	0xc1a307a8	-20.378738
102	0xc2df8b1f	-111.77172
103	0x428ce986	70.4561
104	0xc29dc526	-78.885056
105	0x429e9a6c	79.301605
106	0x42764d9d	61.575794
107	0x424aa9ad	50.6657
108	0xc20a3b6d	-34.558033
109	0xc2e71758	-115.54559
110	0x4297b11f	75.84594
111	0x42a0bd9d	80.37034
112	0x426b16de	58.77233
113	0xc20abd57	-34.684902
114	0xc2999918	-76.79901
115	0x42939847	73.79742
116	0xc254dc99	-53.215427
117	0x42821a7f	65.05175
118	0xc20b4979	-34.82175
119	0xc2b6c55b	-91.38546
120	0xc259762e	-54.36541
121	0x426dcf12	59.452217
122	0x4279804d	62.375294
123	0x41d600df	26.750425
124	0xc1d56b9f	-26.67755
125	0xc226339c	-41.5504
126	0x42290a8b	42.260296
127	0x42963a89	75.11433
128	0xc1759b38	-15.350395
129	0xc2a7fa06	-83.98833
130	0x4295417b	74.62789
131	0x41c2293b	24.270132
132	0x424b0266	50.752342
133	0xc1be18cd	-23.76211
134	0xc2d8acec	-108.33774
135	0x428fd9fc	71.92575
136	0xc2934c55	-73.649086
137	0x429ee3bd	79.4448
138	0x4274ed1c	61.231552
139	0x423f0515	47.754963
140	0xc1fef472	-31.869358
141	0xc2c2d6c3	-97.41946
142	0x429895d5	76.29264
143	0x429fc8f4	79.89249
144	0x4267b99e	57.931267
145	0xc2163a01	-37.556644
146	0xc2967f76	-75.24895
147	0x42925ba3	73.17898
148	0xc2683a30	-58.056824
149	0x42842282	66.0674
150	0xc20c3a4e	-35.05694
151	0xc2ac73b5	-86.22599
152	0xc25c9ea8	-55.154938
153	0x426d8a88	59.385284
154	0x426e51bf	59.57983
155	0x41c88e6b	25.06954
156	0xc1aec5a9	-21.846514
157	0xc2280c0e	-42.011772
158	0x421cb734	39.17891
159	0x428efe5b	71.49679
160	0xc15b37a2	-13.701082
161	0xc2790a8a	-62.260292
162	0x428bff1d	69.99827
163	0x41a8b4c0	21.088257
164	0x4238bcca	46.184364
165	0xc1bc92bc	-23.571648
166	0xc2b5a817	-90.8283
167	0x4289728c	68.723724
168	0xc28686ac	-67.26303
169	0x4294fac9	74.489815
170	0x4262e0be	56.719475
171	0x423b864b	46.881145
172	0xc1fed27b	-31.852774
173	0xc2d3c65a	-105.887405
174	0x42930c27	73.523735
175	0x42910aeb	72.521324
176	0x42509395	52.144123
177	0xc20b98db	-34.899273
178	0xc2888677	-68.26263
179	0x428cefb8	70.4682
180	0xc22ebf1c	-43.68663
181	0x428daff1	70.843636
182	0xc1ffa764	-31.956734
183	0xc2845421	-66.164314
184	0xc26c8c55	-59.137043
185	0x425bac90	54.918518
186	0x42644ab3	57.07295
187	0x41bd40d5	23.656656
188	0xc1d2d389	-26.353289
189	0xc20cbc64	-35.183975
190	0x42215941	40.337162
191	0x428a7840	69.23486
192	0x4125cfa9	10.363198
193	0x422bc898	42.945892
194	0xc286fa22	-67.48854
195	0xc19926d8	-19.143967
196	0xc225701b	-41.359478
197	0x412cd3c6	10.8017025
198	0x42b12963	88.58083
199	0xc28e5cc5	-71.18119
200	0x42597108	54.360382
201	0xc28d0fe3	-70.53103
202	0xc2557138	-53.360565
203	0xc2252b06	-41.292015
204	0x419d1b8c	19.63845
205	0x42ad3d40	86.61963
206	0xc297915d	-75.78391
207	0xc2850e31	-66.52772
208	0xc249f94b	-50.49345
209	0x41d5d51d	26.72906
210	0x42773b67	61.80801
211	0xc2840a49	-66.02009
212	0x41f4c29f	30.59503
213	0xc275c5e1	-61.44324
214	0x41555b0a	13.334726
215	0x425485f8	53.13083
216	0x4224413d	41.06371
217	0xc25a16dd	-54.522327
218	0xc2593ffb	-54.31248
219	0xc1d02701	-26.019045
220	0x410ac0a6	8.672033
221	0x41b5a211	22.704134
222	0xc22039e2	-40.056526
223	0xc2897539	-68.72895
224	0x41098cc3	8.596866
225	0x423356f2	44.834908
226	0xc283f993	-65.98745
227	0xc190dca4	-18.107735
228	0xc2274d15	-41.825275
229	0x4123d0de	10.238493
230	0x42a1b640	80.85596
231	0xc28b9f30	-69.81091
232	0x4245a35f	49.409542
233	0xc2893973	-68.612206
234	0xc2559499	-53.395115
235	0xc221e080	-40.46924
236	0x4193ce7a	18.475819
237	0x42a7d18f	83.909294
238	0xc293300e	-73.59386
239	0xc281a06c	-64.813324
240	0xc2503201	-52.048832
241	0x41d2c87d	26.347895
242	0x4271de19	60.466892
243	0xc282cf53	-65.40493
244	0x41dea6ab	27.83138
245	0xc2695bad	-58.339527
246	0x414e096b	12.877299
247	0x425401bc	53.001694
248	0x42228e47	40.638943
249	0xc2592e9d	-54.29552
250	0xc26033d2	-56.050606
251	0xc1eb40e2	-29.406681
252	0x40fddee8	7.93346
253	0x41c42207	24.516615
254	0xc22b7c92	-42.87165
255	0xc28af705	-69.48246

inter_layer.bias f4 [32]
0	0x427819dd	62.025257
1	0x426fa34a	59.909462
2	0xc27bbdde	-62.935417
3	0x4272d28b	60.70561
4	0x4263e743	56.97584
5	0x424c67c7	51.101345
6	0xc278a1e4	-62.158096
7	0xc2785d6e	-62.09124
8	0xc2796cc5	-62.35622
9	0x426706c9	57.756626
10	0x425d36ee	55.303642
11	0xc2719336	-60.39376
12	0x42668105	57.625996
13	0xc27b6313	-62.846752
14	0xc20b33cf	-34.800594
15	0x4245eba1	49.480106
16	0xc2715ea1	-60.34241
17	0xc2711538	-60.27072
18	0x42753d64	61.30995
19	0xc27d4fe4	-63.32802
20	0x42714565	60.31777
21	0xc2723ea1	-60.56116
22	0x4272340f	60.55084
23	0xc271396d	-60.30608
24	0x4276e6ac	61.725266
25	0x4275714c	61.36064
26	0xc2750e27	-61.26382
27	0x426213ce	56.51934
28	0xc276ecce	-61.731255
29	0xc274fd5b	-61.247417
30	0xc27633ae	-61.55047
31	0x426d54a8	59.332672

final_layer.weight f4 [1, 32]
0	0x42d0014a	104.00252
1	0x42cc2d37	102.08831
2	0xc2713821	-60.304813
3	0x42c7581a	99.67207
4	0x42cb20fd	101.56443
5	0x42aebac3	87.36477
6	0xc27249b1	-60.571964
7	0xc277f169	-61.985752
8	0xc286dc3b	-67.43014
9	0x42be5bf5	95.1796
10	0x42beba98	95.36444
11	0xc2703a04	-60.056656
12	0x42c7d8a6	99.92314
13	0xc2763be7	-61.5585
14	0xc26d4916	-59.321373
15	0x42b8cfb9	92.40571
16	0xc2862be4	-67.085724
17	0xc2770de8	-61.76358
18	0x42c6f3b9	99.47602
19	0xc2750e37	-61.26388
20	0x42ce2b1d	103.084206
21	0xc27776df	-61.866085
22	0x42c07fdc	96.249725
23	0xc2809ebd	-64.310036
24	0x42cd6565	102.69804
25	0x42c391b3	97.78457
26	0xc2821567	-65.0418
27	0x42c8c4e6	100.38457
28	0xc2705945	-60.087177
29	0xc282859a	-65.26094
30	0xc27811ca	-62.017372
31	0x42ca102c	101.031586
