continuous cartpole/rl_model/train_2022-02-16T23:10:08.409859/model/152570_actor.pt (torch, 6999 bytes, 5 tensors)

first_layer.weight f4 [32, 4]
000000 bb 65 9d be 1b 4d f9 3f c0 0f 8b 40 df 59 8e bf
       -0.30741677 1.9476656 4.3456726 -1.1121176
000010 bc 28 63 3f 63 da 35 be 02 00 24 c0 49 cb c9 be
       0.8873403 -0.17759089 -2.5625005 -0.39412907
000020 28 67 24 c0 39 c0 0f c0 a7 22 43 41 93 4f 12 40
       -2.5687962 -2.2461073 12.19596 2.2861068
000030 ca 17 64 c1 f6 af 83 c0 90 4e 53 41 75 07 8f 40
       -14.255808 -4.1152296 13.20668 4.4696603
000040 51 45 76 bd 48 ba d8 be c8 0d 19 3f 9c 7b c1 be
       -0.0601247 -0.4232962 0.59786654 -0.3778962
000050 05 cb 04 3f bd 2c d5 3f 61 dc 53 3c bd ac d0 bf
       0.51872283 1.6654278 0.01293096 -1.6302716
000060 26 9e 24 3f 9e 14 b6 3f ff f4 0a 40 13 7e 5f be
       0.64303815 1.4225042 2.1712034 -0.21825437
000070 08 1f d0 bf c4 0b 32 bf b3 4f 89 c0 f9 89 10 bf
       -1.625947 -0.695492 -4.290979 -0.5646053
000080 a4 7d 1e c0 40 7e 4b 40 9f f8 e8 40 dc ce a7 bf
       -2.4764185 3.1795807 7.2803493 -1.3110003
000090 20 ad 2c bf ea 48 f5 bf 77 de 54 c0 d7 c0 e5 3e
       -0.6745167 -1.9162877 -3.3260782 0.44873688
0000a0 45 b0 96 c0 47 0e 1a 3f 9e 40 ce 40 aa 70 3d c0
       -4.7090173 0.60178035 6.445388 -2.9600015
0000b0 42 5b 82 bf d3 93 23 3e cf 0a b3 40 1c 04 e5 3f
       -1.01841 0.15974359 5.5950694 1.7891879
0000c0 78 98 87 bf 34 bf b3 3f 6d e5 b0 40 13 9f ce bf
       -1.0593405 1.4042726 5.528006 -1.6142296
0000d0 d4 b4 a0 40 7a 57 0e 40 60 89 b3 c0 78 da b7 3f
       5.0220737 2.2240891 -5.6105194 1.4363546
0000e0 13 6c ef bf 0e d6 60 3f 1e f9 a0 40 81 a6 b9 bf
       -1.8704857 0.8782662 5.03041 -1.4503938
0000f0 6f 24 ba 3f be 9c 32 40 ab 8b 2d c0 cd 0e 4c c0
       1.4542369 2.7908168 -2.7116497 -3.1884034
000100 d2 46 c2 3d 65 4e 01 40 f5 87 c0 3e 72 51 37 c0
       0.09486164 2.0204098 0.37603727 -2.864346
000110 fd d1 ce 3e ad b2 47 40 b8 37 d7 bf 7e 37 bb be
       0.40394583 3.1202805 -1.6813879 -0.36565775
000120 56 d7 83 3f 71 f7 b6 3f 08 7b 3c bf 09 03 18 c0
       1.030009 1.4294263 -0.7362523 -2.3751853
000130 8c 4b 60 3c 69 3b 3d 3f ab bf 24 3f d0 40 3b be
       0.013689887 0.7391878 0.6435496 -0.18286443
000140 54 dc 71 40 e2 18 02 40 a1 ab 0f 41 cb 54 c4 3f
       3.7790728 2.0327687 8.979402 1.5338377
000150 ab 1f f8 bf 82 cd 21 40 89 fb a9 40 f5 87 8f bf
       -1.9384664 2.5281682 5.311955 -1.1213366
000160 cb f0 26 be 76 f6 d2 be a2 54 0b bf c6 8b 5b be
       -0.16302793 -0.4120366 -0.54426014 -0.21440038
000170 c9 50 95 40 95 ca 7e 3e af 97 1c bf 39 01 30 bf
       4.6661115 0.24881966 -0.6116895 -0.68751866
000180 b6 57 04 40 17 58 0c bf 75 42 15 c1 d7 57 53 be
       2.0678535 -0.54821914 -9.328725 -0.20638977
000190 33 7b 7b 3f 2a 19 ba 3f b8 b9 3e 40 97 a9 d2 bf
       0.9823486 1.453893 2.9800854 -1.6458005
0001a0 9f e6 1e 40 f3 21 55 bf 5c 1f 07 c0 c6 1a 0d 40
       2.482826 -0.8325493 -2.111289 2.2047591
0001b0 6e 85 89 c0 d3 13 d9 bd 53 68 9d 3e 59 02 86 3f
       -4.297538 -0.10599484 0.30743656 1.0469466
0001c0 c3 ed 07 3f 35 8d ec 3f 3e 45 1a c0 76 50 09 c0
       0.5309717 1.8480593 -2.4104762 -2.145536
0001d0 1f a3 a1 bf cf f2 7a 3f c9 67 c3 40 90 32 f7 bf
       -1.2627906 0.98026747 6.106419 -1.9312305
0001e0 93 62 d8 40 6d 4d 93 3f bd e0 9d bf 77 ae 83 3f
       6.762033 1.1508003 -1.233421 1.0287617
0001f0 84 a8 7a be 7c 8a 5c 3e db 1b 9d be 7e 2e a8 be
       -0.24478346 0.21537203 -0.30685315 -0.3284797

first_layer.bias f4 [32]
000000 a2 70 d8 be 6a 4f 70 3f 32 ce b1 c0 73 31 db 40
       -0.42273432 0.93871176 -5.5564203 6.8497863
000010 ed 0b 0e c0 38 e3 98 3f 36 1b e9 bf 1f e4 c1 3f
       -2.219478 1.1944342 -1.8211429 1.5147742
000020 33 32 8e 3f 85 4a 29 40 22 31 22 40 c1 79 df c0
       1.110907 2.6451733 2.5342488 -6.9836125
000030 6e 4d bc 3f d9 55 c0 c0 ef fb a1 3f 1a af 11 40
       1.471113 -6.0104795 1.2655009 2.2763124
000040 9d 36 0a 40 8d 46 2e 40 75 27 c8 3f 2c 4f 61 40
       2.1595833 2.723056 1.5637041 3.5204573
000050 d0 37 9a c0 74 4f 41 3f 0a 0a c1 3f cc 9c 1f c0
       -4.819313 0.7551186 1.5081189 -2.4939451
000060 8f 86 97 c0 05 8a 02 40 c4 6e 06 c0 5f cc 5d 40
       -4.7351756 2.039674 -2.1005106 3.4655988
000070 2b fa fe 3f ca b4 0f 40 17 9a ea c0 7c ac 0b 40
       1.9920095 2.2454095 -7.33131 2.1824026

inter_layer.weight f4 [32, 32]
000000 5b e4 e9 bf 08 e1 88 c0 a8 e3 02 3e b0 45 a1 c0
       -1.8272814 -4.2774696 0.12782156 -5.039757
000010 fa 11 14 bc 35 06 60 c0 36 a3 11 bf a3 3a f8 3f
       -0.009037489 -3.5003788 -0.56889665 1.9392895
000020 61 91 fc c0 c9 22 88 3f 8c 1e 71 3f e8 08 c6 3f
       -7.8927464 1.0635616 0.94187236 1.5471468
000030 2e 51 19 3f 66 27 2d c1 17 ce 16 3f b0 bd 10 c0
       0.59889495 -10.822119 0.5890822 -2.2615776
000040 2c cd 0e c0 92 cb 69 be af cc e2 bd 7e 87 79 c0
       -2.2312727 -0.22831562 -0.110741965 -3.8988948
000050 16 ae 19 c1 22 93 85 bf 79 be 0f bf 01 85 0b 40
       -9.605001 -1.0435526 -0.56150013 2.179993
000060 2b 75 e8 bf b6 08 a2 bf ca 50 56 c0 ac fd cf 3f
       -1.8160757 -1.2658908 -3.348681 1.624929
000070 a7 c0 5a 3f 4d 67 e8 3f 43 3d 18 c1 da 0e ac 3f
       0.85450214 1.8156525 -9.514956 1.3442032
000080 aa e7 1b bf a4 0d f2 3e bf 94 5c c0 73 9e 17 40
       -0.60900366 0.47276032 -3.4465787 2.369046
000090 84 86 f1 c0 2a 10 89 c0 53 dc 9d 40 1f 8e ce 3e
       -7.5476704 -4.283223 4.933145 0.40342805
0000a0 43 45 30 40 d7 c4 86 bf 46 e8 4e 40 61 6e 65 c0
       2.7542274 -1.0528821 3.2329268 -3.584862
0000b0 5c 38 7e 3f 9a 87 4d be 8d ad 22 3f 5f 36 be 3e
       0.9930475 -0.20071259 0.6354607 0.37150857
0000c0 bb 48 00 bf a5 3d d0 3f 97 12 4a c0 6a bc ba 40
       -0.5011098 1.6268812 -3.1573846 5.8355
0000d0 42 16 22 c0 29 37 16 3f e8 4f 78 40 21 bc 8d c0
       -2.5326085 0.5867792 3.879877 -4.429215
0000e0 d9 a1 40 bf 9f 29 eb 3f bf 70 33 c0 03 a9 7e 40
       -0.7524696 1.8372077 -2.8037565 3.9790657
0000f0 8c 5b 0c c0 7e d3 1a be a0 35 05 c1 c7 b6 17 c0
       -2.1930876 -0.1511974 -8.325592 -2.3705308
000100 83 58 30 bf b9 a2 bf c0 93 56 d0 bf 49 97 bb bf
       -0.6888506 -5.9886136 -1.627642 -1.4655544
000110 e1 bf 1e 40 60 3b 8d bc fb ba 9f c0 3c 8a 3c 40
       2.4804614 -0.017240226 -4.991575 2.9459372
000120 bb 2a 92 c0 c2 0c ac 3e ce 41 f9 3d ff 3f 46 3f
       -4.567716 0.33603483 0.121707544 0.774414
000130 5e 6f 44 c0 ae 7c 9a c0 d3 0a 33 3f 4c 4f 98 bf
       -3.0692973 -4.8277197 0.6993839 -1.18992
000140 c4 dc 97 c0 d8 0b 21 40 03 fb c6 be 8e 37 57 3f
       -4.745699 2.516348 -0.38863382 0.84069145
000150 d1 cd 41 c0 e0 24 78 bd 68 44 62 c0 d5 08 76 c0
       -3.028187 -0.06058204 -3.5354252 -3.844289
000160 f3 29 cc c0 50 fc 3a 40 41 ba ac bf 1d d4 3c c0
       -6.3801208 2.92165 -1.349434 -2.9504464
000170 b1 a8 a8 be 00 b5 54 bc 1d 78 87 c0 18 0c 75 40
       -0.329412 -0.012982607 -4.2334123 3.8288631
000180 d2 77 e0 be 83 d0 ab c0 65 2f 0c 40 af 0a 8b c0
       -0.43841416 -5.369203 2.1903927 -4.345054
000190 f9 16 21 40 8a d8 5f bf 71 29 6c bf f1 63 05 3f
       2.5170271 -0.8743979 -0.92250735 0.52105623
0001a0 94 3e 9b bf 23 50 fc 3d 4c e9 1d 3e 34 e2 49 c0
       -1.2128472 0.12319972 0.15421027 -3.1544313
0001b0 2d 42 5e 3f a5 0a 27 c1 fd cf ad 3f 25 5c cb 3d
       0.86819726 -10.440099 1.3579098 0.099296845
0001c0 83 36 3a c0 bd b3 80 bf 42 2c 07 3f 0f 55 fc be
       -2.9095771 -1.0054852 0.5280191 -0.49283645
0001d0 cd ca 19 c0 cd 1c c8 3f 53 43 1c c0 0a 11 e2 bf
       -2.403003 1.5633789 -2.4416091 -1.766145
0001e0 76 7a f1 c0 e6 6d 1e bf 4a 5a a4 be 68 e5 1f 3e
       -7.546199 -0.6188644 -0.32100135 0.15614855
0001f0 4f 9b 5d 3f 2a 09 d8 3f cf c4 45 c0 08 02 3a bf
       0.8656511 1.6877797 -3.0901372 -0.7265935
000200 33 40 ec bf 68 2a 16 be 96 5d fe 3f bc 38 ec 3f
       -1.8457092 -0.14664614 1.987231 1.8454814
000210 00 a6 86 3f 35 b4 fb 3f ff 30 11 c0 f5 ed 0e 3f
       1.0519409 1.966437 -2.2686155 0.55831844
000220 ee df c4 be f5 20 d9 3f 7f f5 52 c0 d0 be 35 3d
       -0.38452095 1.6963183 -3.296234 0.044371426
000230 f8 20 f1 3f 4a 2d 62 c0 91 00 9d 40 50 0d de 3e
       1.8838186 -3.5340142 4.906319 0.43369532
000240 2c d4 2d c0 c8 f3 9b 3f ea 0d 61 3e 5c 43 3c 40
       -2.716075 1.2183771 0.21977964 2.9416113
000250 68 5d 98 c0 20 a1 60 40 b7 d5 ec bf 63 56 da be
       -4.761402 3.5098343 -1.850272 -0.42644033
000260 ad dd a5 c0 dd e9 9b bf ea 77 44 bf b6 4a 2a be
       -5.18331 -1.2180744 -0.76745474 -0.16630062
000270 a4 55 de bf d2 78 7a 3f 0d 39 2f bf c8 78 99 40
       -1.7369885 0.9784061 -0.6844643 4.795994
000280 19 eb 75 3f 70 44 81 3f da 69 31 c0 d6 6a e4 3f
       0.96061856 1.009901 -2.7720857 1.7845104
000290 86 3a 3c c0 60 99 0c 3e eb e2 8f c0 f9 9a 22 c0
       -2.941072 0.13730383 -4.49645 -2.5407088
0002a0 f5 5a f9 bf af b6 56 3f 9c 76 39 3f bf f9 05 c0
       -1.9480883 0.83872503 0.7244661 -2.0933683
0002b0 1b 7c 34 40 c7 56 7d bf 69 c2 30 bf 11 7e 2e 40
       2.8200748 -0.98960537 -0.69046646 2.7264445
0002c0 e1 f8 5f bb 6e 5f 96 3f 03 ea 57 bf 9d 3a 75 3f
       -0.0034175443 1.1747873 -0.8434145 0.9579256
0002d0 39 51 77 3d 57 8b ef bf 46 27 9a 40 21 bb e0 c0
       0.060380194 -1.8714398 4.817294 -7.022843
0002e0 38 ff a7 40 a2 bc 02 40 69 85 a2 bf d9 7c 1b 40
       5.2499046 2.0427632 -1.2696964 2.429495
0002f0 f7 6d d5 bd 60 40 ab be b1 ad db c0 24 ed 00 c0
       -0.10421365 -0.33447552 -6.8649526 -2.014474
000300 a1 c8 d4 3f 4a 8a 5d c0 2d 7a 85 3f e6 11 1d 40
       1.6623727 -3.4615655 1.042791 2.4542174
000310 72 5a 8b 40 24 3a 2a 3f 6d 4e 08 be ed fa 0b 40
       4.3547907 0.66494966 -0.13311167 2.1871903
000320 04 88 72 3f ea cb a7 3f dd 37 c2 3f 09 b0 cb bf
       0.94738793 1.3109105 1.5173298 -1.5913097
000330 2e 56 e2 bf ff a0 b3 c0 35 fd 66 40 b9 e6 53 bd
       -1.768255 -5.613403 3.6092045 -0.051733706
000340 69 64 9d c0 6d a5 04 3f 98 91 67 3f 5d 11 d0 3e
       -4.918507 0.5181492 0.90456533 0.40638247
000350 a5 44 91 3e 1c 70 0c 40 35 4d d1 bf 11 97 54 bf
       0.28372684 2.1943426 -1.6351687 -0.8304301
000360 94 5f 37 c1 ad cb f9 3f a9 da a0 be aa 0d c5 3f
       -11.4608345 1.9515282 -0.31416824 1.5394795
000370 2a bb 50 3f 63 c1 fb 3f d9 3e cc c0 86 f4 23 40
       0.8153559 1.9668392 -6.382672 2.5617995
000380 86 16 bf bd 99 ad 40 40 52 63 14 c0 13 ce 89 c0
       -0.09330468 3.0105956 -2.318562 -4.3064055
000390 fe 90 cf bf 4e 15 98 3d 77 b5 7c 3f a6 78 08 c0
       -1.6216123 0.074259385 0.98714393 -2.1323638
0003a0 7c a8 ad 3f dd 90 35 c0 b9 db 37 3f 8c ba 57 bc
       1.3567042 -2.8369668 0.71819645 -0.013167035
0003b0 ef 0e 51 3f 38 16 ee 40 a9 c0 a2 bf e4 35 33 3f
       0.8166341 7.4402122 -1.2715045 0.70004106
0003c0 e7 e1 af 3f af 71 17 bd 7b 02 7d 3e d5 ff a1 3f
       1.3740815 -0.03697365 0.24707977 1.2656199
0003d0 a5 e0 bd bf 63 65 cd 3d 0f ab 4b c0 1c 7b 05 3f
       -1.4834181 0.100291036 -3.1823156 0.52140975
0003e0 14 cd b1 40 b9 80 8a be 27 dd d9 bf 89 f6 57 c0
       5.556284 -0.27051333 -1.7020615 -3.3744223
0003f0 b8 fa 07 3e a6 65 32 bf 96 aa aa bf a8 e0 5c bf
       0.13279235 -0.69686353 -1.3333309 -0.862803

inter_layer.bias f4 [32]
000000 f5 ae 45 3e a1 fc 2a 40 5c f0 1f be 59 3c 99 3f
       0.19305022 2.6716692 -0.15619034 1.1971542
000010 f9 3b 5b 40 ed 7f 58 40 1e 40 79 40 94 c8 a2 bf
       3.4255354 3.382808 3.8945384 -1.2717462
000020 cb 1b 07 bb f5 ea 8b be b9 9c 74 3e b8 78 a8 be
       -0.002061593 -0.27327695 0.2388791 -0.329046
000030 f6 7b ec be 37 8a e8 bd 85 5f 88 be 2d d7 c5 3e
       -0.46188325 -0.113544874 -0.26635376 0.3864073
000040 b2 d6 34 bf 43 af d1 bf 20 f6 a1 3f 76 d1 24 bf
       -0.706401 -1.6381611 1.2653236 -0.6438211
000050 66 b9 83 bf 6e ca 7a 3f 1b b1 f7 be 0f f3 ca be
       -1.0290954 0.97965133 -0.48377308 -0.39638564
000060 a3 b5 05 3f 2e 12 09 bf 59 55 cf 3f c1 e2 8f bf
       0.5223028 -0.53543365 1.6197921 -1.1241075
000070 1f 7f 17 be 60 39 f9 3f 78 61 a2 bf 34 1c 36 40
       -0.14794587 1.9470634 -1.2685995 2.8454714

final_layer.weight f4 [1, 32]
000000 15 cc b8 c0 02 c8 fd 40 a0 71 13 c1 56 a7 d9 c0
       -5.7749124 7.930665 -9.2152405 -6.8016768
000010 4e 60 fe c0 d8 e9 04 41 00 40 b0 c0 ff 61 76 40
       -7.949256 8.307091 -5.5078125 3.8497312
000020 4a 21 94 c0 f1 d9 d6 c0 fc 6f 2d 40 1c 23 17 40
       -4.6290636 -6.714104 2.70996 2.361518
000030 87 ef a1 c0 4b 92 82 c0 a1 d8 07 40 d7 a8 2a 41
       -5.060489 -4.080358 2.122597 10.666221
000040 f8 6e 62 40 cc 81 37 40 31 e0 00 c1 73 c2 3e 40
       3.538023 2.8672972 -8.054734 2.9806182
000050 23 2c b0 40 b2 63 86 c0 24 b2 b6 40 64 b5 1c c1
       5.505388 -4.19967 5.7092457 -9.794285
000060 28 7c 7e c0 c8 d8 4c c0 44 9c 93 c0 57 6a c6 c0
       -3.976328 -3.2007313 -4.6128254 -6.200481
000070 34 0a 3d 40 72 29 22 c0 13 35 18 41 58 ad 9b c0
       2.9537477 -2.5337796 9.512958 -4.86491
