continuous cartpole/rl_model/train_2022-02-16T23:10:08.409859/model/161280_critic.pt (torch, 8580 bytes, 9 tensors)

norm_layer.weight f4 [4]
000000 00 00 80 3f 00 00 80 3f 00 00 80 3f 00 00 80 3f
       1.0 1.0 1.0 1.0

norm_layer.bias f4 [4]
000000 00 00 00 00 00 00 00 00 00 00 00 00 00 00 00 00
       0.0 0.0 0.0 0.0

norm_layer.running_mean f4 [4]
000000 00 00 00 00 00 00 00 00 00 00 00 00 00 00 00 00
       0.0 0.0 0.0 0.0

norm_layer.running_var f4 [4]
000000 00 00 80 3f 00 00 80 3f 00 00 80 3f 00 00 80 3f
       1.0 1.0 1.0 1.0

first_layer.weight f4 [32, 5]
000000 eb a0 95 41 1b 9e 85 41 47 05 b3 42 b4 83 66 42
       18.703573 16.7022 89.51031 57.628616
000010 01 49 28 3f e8 9e 3a 42 ef e8 1a 41 e1 89 8d 3e
       0.65736395 46.65518 9.681869 0.27644256
000020 86 9b ce 40 bc db 11 be 8a 7c 10 c2 ae 62 b1 c1
       6.456485 -0.14243978 -36.12162 -22.173183
000030 b1 60 80 c2 8c 02 8b c1 7e a4 1c 3e 27 f3 1a 41
       -64.18885 -17.376244 0.15297124 9.684363
000040 04 59 19 c2 05 37 a6 c2 f5 10 91 c1 44 42 0f 3f
       -38.33693 -83.10746 -18.13328 0.5596049
000050 6f 39 f3 c1 74 d7 b2 c1 48 0b 7b c2 fb ef a0 c1
       -30.403044 -22.355202 -62.761017 -20.117178
000060 cf b3 1f 3e e2 45 90 42 30 47 ba 41 8a 17 61 42
       0.15595935 72.13649 23.28476 56.272987
000070 8a f8 ed 3f 9c b3 0d 3f 04 c4 86 42 4c 5b 65 41
       1.8591473 0.5535219 67.38284 14.334789
000080 3d 68 8d c2 81 d7 d5 bf 7a 74 1e 3e dd 17 ed c1
       -70.70359 -1.6706392 0.1547412 -29.636652
000090 f7 10 b4 c1 88 73 6a c2 b2 ec 87 c1 2a d6 fc 3c
       -22.508284 -58.612823 -16.990574 0.03086384
0000a0 06 04 81 42 60 3f 1e 41 32 f3 8c c2 e9 3c 48 c0
       64.50786 9.890472 -70.47499 -3.1287177
0000b0 58 68 16 3e bb b4 14 c2 20 34 b5 c1 f6 fc 89 c2
       0.14688241 -37.176495 -22.650452 -68.994064
0000c0 98 ee 8c c1 df 57 e6 3d 28 0f cf c1 ed 08 ad c1
       -17.6165 0.11247229 -25.8824 -21.629358
0000d0 05 2b 77 c2 7a e9 76 c1 c7 38 85 3e b3 17 b9 c1
       -61.79201 -15.432001 0.2601988 -23.136572
0000e0 f8 9b 77 c1 2c 3f 9a c2 ce 85 99 c1 fd 01 ae 3e
       -15.475578 -77.12338 -19.190334 0.33985892
0000f0 d4 0d 5e 42 71 a0 8b 40 87 72 c8 c1 bc d6 e8 40
       55.513504 4.363335 -25.055922 7.2762127
000100 60 68 5b bf e3 8c a5 41 83 27 87 41 15 c3 76 42
       -0.8570614 20.693792 16.894293 61.69051
000110 b0 c8 3b 40 1d aa 33 3e 45 d2 1e c2 6d 56 bb c1
       2.934124 0.17545362 -39.70534 -23.4172
000120 58 6d 6f c2 ed 9b 93 c1 e6 e6 ca 3c 57 8e 22 c2
       -59.85678 -18.451136 0.024768304 -40.639004
000130 d8 92 ac c1 58 f7 70 c2 e5 6a 8b c1 77 42 06 3e
       -21.571701 -60.241547 -17.427195 0.13111292
000140 9e 3f c5 c1 33 c5 8e c1 b2 26 5f c2 b9 16 82 c1
       -24.656063 -17.846289 -55.78779 -16.261095
000150 bc 4b 2c 3e b0 d7 52 42 65 e8 2e 41 38 f7 9d 41
       0.16825765 52.710632 10.931737 19.745712
000160 7f 19 83 41 79 f4 07 3f bc e8 92 42 b7 f3 e7 40
       16.38745 0.5310741 73.45456 7.2485003
000170 47 0c bd c2 4a 63 a5 c0 fa 8b 35 3e 47 77 14 c2
       -94.52398 -5.1683702 0.17729178 -37.11648
000180 65 54 ad c1 38 e3 8a c2 57 0f 88 c1 0f d1 8c 3d
       -21.666208 -69.44379 -17.00749 0.06875812
000190 d3 4d 1e 42 51 57 ae 40 b3 ef 47 40 56 f1 10 41
       39.576 5.4481587 3.124005 9.05892
0001a0 3d 9d 38 bf 48 98 12 c2 1c ec 9c c1 46 59 aa c2
       -0.72114927 -36.648712 -19.615288 -85.17436
0001b0 cb 3f 83 c1 1b 3b cb 3d 9d 2d 80 42 44 cf bc 41
       -16.406149 0.09923383 64.08909 23.601204
0001c0 09 41 8a 42 90 d6 90 bf 3a 71 21 3f d2 a6 c5 bf
       69.12702 -1.1315479 0.63063395 -1.5441535
0001d0 17 cf 1d 40 f8 39 69 42 37 9e 5d 41 e3 62 0e bf
       2.4657648 58.30661 13.851127 -0.5561964
0001e0 79 89 96 42 63 04 8f 41 3b 07 47 42 67 34 97 3e
       75.2685 17.877142 49.75706 0.29532167
0001f0 b5 1a 85 3d da 74 eb c1 c5 c6 8d c1 ca 57 7b c2
       0.064992346 -29.432056 -17.722055 -62.83573
000200 63 98 6f c1 f1 fb 09 3e 65 79 e0 c1 b3 18 8b c1
       -14.974704 0.13475014 -28.059275 -17.38706
000210 fb 01 a0 c2 15 7f 72 c1 5a 6e c5 3e 6c 74 00 c2
       -80.00387 -15.156026 0.38560754 -32.113693
000220 d9 26 24 c1 3a a0 32 c2 ed 45 9d c1 be 01 43 c0
       -10.259484 -44.65647 -19.659143 -3.0469813
000230 da 0d 8a 40 72 5d 0b 3f b7 ad 8a 42 ce b4 c1 41
       4.314191 0.5443946 69.33929 24.213284
000240 94 86 13 bf ff 54 43 42 c3 1c 80 41 fa 84 f2 41
       -0.57627225 48.833004 16.014044 30.31493
000250 86 af 92 41 2e b7 bc 3f 5b 7c 89 c1 3c b3 76 c1
       18.335705 1.4743402 -17.18572 -15.418758
000260 5e 74 64 c2 fd 2d be c1 6e d3 34 bf f4 f2 04 c2
       -57.11364 -23.772455 -0.70635116 -33.23726
000270 9c ad aa c1 6b 5d 87 c2 72 7b 79 c1 e8 45 fd 3d
       -21.33477 -67.68246 -15.592638 0.12366849

first_layer.bias f4 [32]
000000 b3 d7 8f c1 55 0b 32 c2 00 e3 92 42 5c 3b 7c 42
       -17.980322 -44.511066 73.44336 63.05797
000010 59 b3 77 42 ee d1 ac c0 eb 37 d7 c1 77 d4 81 42
       61.925144 -5.400626 -26.902304 64.91497
000020 66 c6 cd c1 9f 9e 8b 42 f8 45 91 42 01 ae 81 42
       -25.721874 69.80981 72.63666 64.83985
000030 b2 4c 91 c1 08 53 68 c2 ff 84 80 42 ae 5c 87 42
       -18.162449 -58.081085 64.25976 67.681015
000040 8f b3 8f 42 6d a7 59 c1 99 95 fc c1 16 67 89 42
       71.8507 -13.603375 -31.573046 68.70134
000050 8e 4c 41 c2 64 67 81 42 75 f5 a3 c1 eb 6b 4c c2
       -48.32476 64.701935 -20.494852 -51.10539
000060 8e 40 00 c1 f7 61 8f 42 31 f0 88 42 8a 0c 68 42
       -8.01576 71.69134 68.469124 58.012245
000070 a0 69 23 c2 c8 65 21 c2 dc 18 81 42 5c d0 8e 42
       -40.85315 -40.349396 64.54855 71.40695

inter_layer.weight f4 [32, 32]
000000 90 b7 28 c1 d2 65 d1 c2 c2 ac b5 42 f6 31 1b 42
       -10.544815 -104.69887 90.83742 38.79879
000010 70 0c 82 42 ba e3 b5 c1 a8 8d eb c2 0f 5c a9 42
       65.02429 -22.736195 -117.77667 84.6798
000020 57 ee a4 c2 c8 c2 bb 42 8c 62 97 42 8e 85 7b 42
       -82.46551 93.88043 75.692474 62.880424
000030 ed 91 13 c2 16 f5 09 c3 65 7a b2 42 69 62 ba 42
       -36.892506 -137.95737 89.23905 93.19221
000040 c4 b5 8f 42 d3 d5 01 c2 67 d4 b0 c2 42 15 ad 42
       71.85501 -32.458813 -88.41485 86.54152
000050 c1 7f 4b c2 05 8a 9a 42 b0 19 14 c2 3a 37 ee c2
       -50.87476 77.26957 -37.025085 -119.107864
000060 e3 7b 6f c2 eb 6e 93 42 c4 0e 95 42 99 90 f6 41
       -59.870983 73.71664 74.52884 30.820604
000070 b4 a2 0e c2 af 9b 26 c2 cf f1 4b 42 c1 0a b3 42
       -35.65889 -41.652035 50.98614 89.521
000080 ce 46 7c c1 87 61 c0 c2 51 f9 ae 42 8f 01 18 42
       -15.767286 -96.19048 87.486946 38.001522
000090 31 84 7a 42 9a 02 cb c1 04 21 db c2 65 8b a7 42
       62.629093 -25.37627 -109.56448 83.772255
0000a0 38 60 9c c2 f6 18 b7 42 2b d8 94 42 8d c2 6e 42
       -78.18793 91.54875 74.4222 59.68999
0000b0 96 65 0b c2 30 0c e9 c2 ef 28 b2 42 6f 32 b5 42
       -34.849205 -116.5238 89.07995 90.5985
0000c0 b3 62 8d 42 5c 7b 13 c2 36 13 a4 c2 db 12 ab 42
       70.69277 -36.87047 -82.03752 85.53683
0000d0 0e 51 58 c2 e6 1e 9a 42 8c c0 19 c2 d7 8d b7 c2
       -54.079155 77.06035 -38.438034 -91.77703
0000e0 c5 7a 6d c2 a6 2e 90 42 d7 5a 8e 42 89 ab ed 41
       -59.369892 72.09111 71.17742 29.708757
0000f0 fc 30 fd c1 0b 41 32 c2 03 10 44 42 3e 6a ad 42
       -31.648918 -44.56352 49.015636 86.707504
000100 54 fe 43 41 59 a8 50 42 60 27 a0 c2 0b 98 f6 c1
       12.249592 52.164402 -80.076904 -30.82424
000110 10 73 58 c2 b2 30 5c 41 fd 67 b4 42 54 5d a8 c2
       -54.112366 13.7618885 90.2031 -84.18228
000120 bc 46 67 42 7e 4a a6 c2 2c c4 83 c2 18 c1 49 c2
       57.819077 -83.14549 -65.88315 -50.43857
000130 82 a7 9f 41 b9 ed c9 42 d1 f3 ae c2 0b 5a 9f c2
       19.95679 100.9643 -87.476204 -79.675865
000140 0d 43 7c c2 30 eb e3 41 f4 0f 89 42 d5 18 9e c2
       -63.06548 28.489838 68.53116 -79.0485
000150 08 3b df 41 79 2c 91 c2 3c 17 81 41 7e c7 6d 42
       27.903824 -72.58686 16.136345 59.444817
000160 29 d4 3c 42 43 8e 85 c2 87 ff 82 c2 93 04 f3 c1
       47.207188 -66.777855 -65.49908 -30.377234
000170 cc fd 67 41 0d d6 bb 41 f5 8c 40 c2 70 cc a4 c2
       14.499462 23.479517 -48.137653 -82.39929
000180 be b5 48 c1 8a d1 d9 c2 67 b2 b3 42 f6 96 15 42
       -12.544371 -108.909256 89.84844 37.397423
000190 98 79 80 42 47 b1 bc c1 54 41 e4 c2 4b 3b a6 42
       64.23749 -23.586561 -114.127594 83.11581
0001a0 d3 b1 a3 c2 9c a4 b7 42 96 79 93 42 87 11 78 42
       -81.84731 91.8215 73.73747 62.017117
0001b0 16 62 0b c2 58 f3 ff c2 53 e4 b0 42 b6 61 b9 42
       -34.845787 -127.97528 88.445946 92.69084
0001c0 8b 67 8d 42 c3 9d 0d c2 21 95 a7 c2 89 be ac 42
       70.70223 -35.404064 -83.79127 86.37214
0001d0 5f 2e 49 c2 65 57 9b 42 cc 53 15 c2 87 a6 c6 c2
       -50.295284 77.67069 -37.331833 -99.32525
0001e0 40 1b 71 c2 82 48 8f 42 7d 1f 94 42 dc a5 f9 41
       -60.27661 71.64162 74.0615 31.205986
0001f0 50 fb 05 c2 d3 0a 29 c2 57 67 4b 42 ec 53 af 42
       -33.495422 -42.26057 50.850918 87.66391
000200 d4 8b 85 c1 fb 49 bc c2 77 e8 ad 42 82 3c 10 42
       -16.693275 -94.14449 86.95403 36.05909
000210 0d 9d 7b 42 23 c3 d7 c1 79 63 dd c2 b9 2b a9 42
       62.90337 -26.970282 -110.69428 84.585396
000220 7b 39 99 c2 dd ed b7 42 33 c9 92 42 c9 6c 6c 42
       -76.61227 91.96458 73.39297 59.106236
000230 f3 79 00 c2 40 b6 db c2 07 c9 b1 42 fb 6c b8 42
       -32.11909 -109.85596 88.89263 92.21285
000240 18 b9 8b 42 ce 1a 19 c2 e7 7b a4 c2 db 81 ab 42
       69.86151 -38.276176 -82.242 85.753624
000250 07 5a 5c c2 59 5f 9d 42 33 45 16 c2 ca 83 bc c2
       -55.087917 78.686226 -37.567577 -94.2574
000260 c5 43 74 c2 38 26 8f 42 43 88 8e 42 5b b8 ec 41
       -61.06618 71.574646 71.266136 29.590017
000270 36 af e5 c1 cc e3 2a c2 1e 2b 3f 42 b5 17 a8 42
       -28.710552 -42.722458 47.792107 84.0463
000280 9b ae 70 c1 17 24 8f c2 a3 a6 a4 42 2a 84 03 42
       -15.042628 -71.57049 82.32546 32.879066
000290 7c 58 69 42 6b 38 d6 c1 46 5b ba c2 41 c4 a2 42
       58.33641 -26.777548 -93.17827 81.38331
0002a0 6d 70 8c c2 72 05 ae 42 8d c2 89 42 25 ef 68 42
       -70.21958 87.010635 68.87998 58.23354
0002b0 ea d8 01 c2 49 90 ec c2 4d 3f ac 42 71 af a9 42
       -32.46183 -118.28181 86.123634 84.84266
0002c0 92 26 80 42 23 77 0e c2 47 7f 96 c2 3a 16 a6 42
       64.07533 -35.616344 -75.24859 83.04341
0002d0 61 c3 24 c2 51 ed a6 42 34 db 09 c2 53 08 93 c2
       -41.1908 83.46351 -34.464066 -73.51626
0002e0 b4 18 82 c2 c3 37 86 42 fb 85 89 42 11 d2 de 41
       -65.04825 67.10891 68.76168 27.852571
0002f0 82 15 03 c2 5e 91 0f c2 e3 48 43 42 09 92 a3 42
       -32.771004 -35.89196 48.82118 81.785225
000300 f5 4a 3b 41 7f ad 4b 42 fa a2 9f c2 d7 7d f7 c1
       11.7058 50.91943 -79.81831 -30.936445
000310 85 0e 56 c2 59 2a 60 41 38 e0 b5 42 d0 af a7 c2
       -53.51418 14.010339 90.93793 -83.84338
000320 07 49 65 42 dc 1b a6 c2 e8 0b 83 c2 5c 96 52 c2
       57.321316 -83.05441 -65.523254 -52.646835
000330 58 76 a2 41 2b 0a c6 42 b9 c5 b0 c2 00 b4 9d c2
       20.307785 99.01986 -88.38618 -78.85156
000340 6d b5 79 c2 eb 95 db 41 08 9c 89 42 18 32 9d c2
       -62.427174 27.448202 68.80475 -78.59784
000350 df cb de 41 9e 21 94 c2 3a 80 7d 41 9e 78 6e 42
       27.849546 -74.06566 15.843805 59.61779
000360 e1 e7 3b 42 e4 6d 85 c2 8e 01 84 c2 95 a0 f1 c1
       46.976444 -66.71463 -66.00304 -30.20341
000370 ee a2 64 41 40 50 bb 41 70 2d 42 c2 66 90 a2 c2
       14.289778 23.414185 -48.544373 -81.28203
000380 ea 07 1f 41 ab 3b 53 42 54 a2 9c c2 2a 33 ef c1
       9.939432 52.80827 -78.31705 -29.899982
000390 38 eb 57 c2 2c 27 57 41 0e 6d a6 42 1d f2 a4 c2
       -53.979706 13.447063 83.213 -82.47288
0003a0 52 7b 51 42 48 45 a2 c2 79 1d 83 c2 8c 4b 4f c2
       52.37043 -81.135315 -65.55756 -51.823776
0003b0 3c 29 99 41 5d 9e c0 42 4d 64 ac c2 16 46 9a c2
       19.145134 96.3093 -86.1959 -77.13689
0003c0 e6 ed 7f c2 47 89 d8 41 98 ec 86 42 08 f7 9b c2
       -63.982323 27.06703 67.4621 -77.98248
0003d0 00 b0 c8 41 50 ec 8d c2 6d 2e 76 41 45 f4 6d 42
       25.085938 -70.96155 15.386334 59.488544
0003e0 d1 34 3a 42 a7 f9 84 c2 56 7b 87 c2 6a 5d 06 c2
       46.55158 -66.4876 -67.74089 -33.591225
0003f0 7c d1 58 41 2e d0 c9 41 fc 6f 4d c2 19 12 a4 c2
       13.551144 25.22665 -51.35936 -82.03535

inter_layer.bias f4 [32]
000000 c1 ff 92 42 3c c5 8e 42 5e d2 94 c2 76 5c 90 42
       73.49952 71.38522 -74.41087 72.18059
000010 f6 e6 88 42 67 4c 7a 42 97 44 93 c2 35 22 93 c2
       68.451096 62.57461 -73.633965 -73.56681
000020 b9 a9 93 c2 f3 76 8a 42 4b 8f 85 42 a9 bd 8f c2
       -73.83149 69.23232 66.77987 -71.87043
000030 f7 33 8a 42 db a4 94 c2 52 1c 39 c2 c9 d1 73 42
       69.101494 -74.32198 -46.277657 60.95487
000040 c3 a2 8f c2 9c 7e 8f c2 e9 91 91 42 49 9b 95 c2
       -71.817894 -71.747284 72.78498 -74.80329
000050 fd 95 8f 42 41 13 90 c2 97 0d 90 42 67 90 8f c2
       71.792946 -72.037605 72.02654 -71.782036
000060 51 66 92 42 c7 ab 91 42 72 7a 91 c2 e1 fc 87 42
       73.19984 72.8355 -72.73915 67.993904
000070 22 6a 92 c2 08 72 91 c2 58 0d 92 c2 e3 9d 8d 42
       -73.20729 -72.72272 -73.02606 70.80837

final_layer.weight f4 [1, 32]
000000 64 6c e9 42 70 af e5 42 d5 b0 91 c2 b9 c7 e0 42
       116.7117 114.84265 -72.845375 112.39008
000010 ef a5 e4 42 09 35 c8 42 d2 37 92 c2 5a f2 94 c2
       114.32409 100.103584 -73.109024 -74.47334
000020 9a e9 9f c2 66 d3 d7 42 bf 36 d8 42 1f 2a 91 c2
       -79.95625 107.91289 108.106926 -72.58227
000030 5f 62 e1 42 17 33 94 c2 87 f9 8f c2 be 65 d2 42
       112.69213 -74.099785 -71.98736 105.198715
000040 d6 37 9f c2 de 9d 94 c2 c7 69 e0 42 84 9e 93 c2
       -79.609055 -74.308334 112.2066 -73.8096
000050 25 96 e7 42 36 cf 94 c2 cf f2 d9 42 8e 95 99 c2
       115.79325 -74.40471 108.974236 -76.7921
000060 d9 ce e6 42 8b 01 dd 42 2d 1e 9b c2 fe 4a e2 42
       115.404 110.50301 -77.55894 113.14647
000070 1e 3d 91 c2 7a 93 9b c2 de 22 95 c2 a2 9a e3 42
       -72.61937 -77.78804 -74.5681 113.80202
