continuous cartpole/rl_model/train_2022-02-16T23:10:08.409859/model/162130_actor.pt (torch, 6999 bytes, 5 tensors)

first_layer.weight f4 [32, 4]
0	0xbf2355b6	-0.6380266
1	0x3ff23dae	1.8925073
2	0x4095cee3	4.6815047
3	0xbf8815a1	-1.0631601
4	0x3f5cf1cf	0.8630647
5	0xbe423929	-0.18967117
6	0xc024ab33	-2.5729492
7	0xbec3823c	-0.38185298
8	0xc020fe57	-2.5155237
9	0xbffc96f8	-1.9733572
10	0x41486641	12.524964
11	0x4001fa84	2.0309153
12	0xc16fe4c4	-14.993351
13	0xc02d7915	-2.7105153
14	0x4159592d	13.584271
15	0x408a72ca	4.3265123
16	0xbcc17a8c	-0.023618005
17	0xbecc529d	-0.3990678
18	0x3f1efef5	0.62107784
19	0xbecbc35b	-0.39797482
20	0x3f144461	0.5791684
21	0x3fd5392c	1.6658072
22	0x3d9dcd97	0.07705229
23	0xbfcfebc9	-1.6243831
24	0x3f53fb87	0.82805675
25	0x3fb35757	1.4011029
26	0x3fde99a6	1.739064
27	0xbe1f4fb1	-0.15557744
28	0xbfc71957	-1.5554608
29	0xbf2adeaf	-0.6674604
30	0xc08a2fcd	-4.318335
31	0xbf162e96	-0.58664834
32	0xc038f23b	-2.8897846
33	0x404b4432	3.1760373
34	0x40f87c86	7.7652006
35	0xbf9feb71	-1.2493726
36	0xbf37a83a	-0.7174107
37	0xbfdb6f96	-1.7143428
38	0xc04ca234	-3.1974
39	0x3ecc40bc	0.39893138
40	0xc096f66f	-4.717582
41	0x3f173232	0.59060967
42	0x40cbdf55	6.371012
43	0xc03d5690	-2.9584084
44	0xbf831db2	-1.0243437
45	0x3e957511	0.29190877
46	0x40ba2856	5.817424
47	0x3fd54e5c	1.6664538
48	0xbf8d321b	-1.1030916
49	0x3fb1245b	1.383922
50	0x40af862b	5.485128
51	0xbfcdebb7	-1.608756
52	0x409fb208	4.9904823
53	0x400d62ea	2.2091622
54	0xc0b27c40	-5.577667
55	0x3fb9defe	1.4521177
56	0xc000fd68	-2.0154667
57	0x3f64420a	0.8916327
58	0x40a724b5	5.223231
59	0xbfb9d2a5	-1.4517409
60	0x3f99e5cf	1.2023257
61	0x403037e1	2.7534106
62	0xc03635b5	-2.847028
63	0xc04c5519	-3.192694
64	0x3d86579a	0.065596774
65	0x40015cb2	2.0212827
66	0x3eb46e69	0.35240486
67	0xc0375dad	-2.8650925
68	0x3eb97404	0.36221325
69	0x4046b3f6	3.104734
70	0xbfe87c00	-1.8162842
71	0xbebd9351	-0.37026456
72	0x3f8ea6ab	1.1144613
73	0x3fb74744	1.4318624
74	0xbf2744c9	-0.6533933
75	0xc017717a	-2.366301
76	0x3c77fa21	0.015135319
77	0x3f3b3576	0.7312845
78	0x3f380eb8	0.7189746
79	0xbe2bb047	-0.16766463
80	0x406eeb84	3.7331247
81	0x40000111	2.000065
82	0x410daebc	8.85516
83	0x3fc6f409	1.5543224
84	0xc00e6ec0	-2.2255096
85	0x4020a2ca	2.5099359
86	0x40b314d4	5.5962925
87	0xbf927514	-1.144198
88	0xbe6e6c08	-0.23283398
89	0xbee468a8	-0.44611096
90	0xbf24c613	-0.6436474
91	0xbe4ba73e	-0.19888017
92	0x4045e452	3.0920606
93	0x3c26953f	0.010167419
94	0xbf970261	-1.1797601
95	0xbefc6ac7	-0.49300215
96	0x40018659	2.023825
97	0xbf11f5f6	-0.5701593
98	0xc11597d5	-9.349568
99	0xbe408dfe	-0.18804166
100	0x3f503182	0.8132554
101	0x3fb6f953	1.4294838
102	0x40276911	2.6157877
103	0xbfd4a3ad	-1.661245
104	0x4021b785	2.5268261
105	0xbf1ad9c1	-0.60488516
106	0xc00db501	-2.2141726
107	0x3ffba2f2	1.9659102
108	0xc07ec1d3	-3.98058
109	0x3db7fc37	0.08983653
110	0xbec14d38	-0.37754226
111	0x3f3e1b86	0.7426075
112	0x3f1d173f	0.61363596
113	0x3fec863a	1.8478463
114	0xc0161623	-2.345101
115	0xc008c481	-2.1369936
116	0xbfa0a708	-1.2550974
117	0x3f79e0e4	0.9760878
118	0x40c36bf6	6.106929
119	0xbff746e2	-1.9318507
120	0x40da0feb	6.814443
121	0x3f973971	1.1814405
122	0xbf9a53d7	-1.2056836
123	0x3f80bdab	1.0057882
124	0xbe3938ef	-0.18088125
125	0x3e5cfb0c	0.21580142
126	0xbe85e145	-0.2614843
127	0xbea5bdb3	-0.32371292

first_layer.bias f4 [32]
0	0xbf395182	-0.72389996
1	0x3f6d3f7d	0.92675
2	0xc0b528ff	-5.6612544
3	0x40d271f3	6.57641
4	0xc00d3e4c	-2.2069273
5	0x3f9b667e	1.2140653
6	0xbffb3e2e	-1.9628351
7	0x3fc7b705	1.5602728
8	0x3f656304	0.8960421
9	0x402e61db	2.7247226
10	0x4021d456	2.528585
11	0xc0e1ed21	-7.0601964
12	0x3fb7af24	1.4350324
13	0xc0c11b39	-6.034573
14	0x3f96d6e4	1.178433
15	0x4009a15d	2.1504738
16	0x40096d29	2.1472876
17	0x402a34fd	2.6594841
18	0x3fcba2de	1.5909078
19	0x40610580	3.5159607
20	0xc099662e	-4.793723
21	0x3f07bb4a	0.53020155
22	0x3fc0e72b	1.5070547
23	0xc02884db	-2.6331089
24	0xc098301f	-4.755874
25	0x3ff8aaad	1.9427086
26	0xc003ef6e	-2.0614886
27	0x406f9b03	3.7438362
28	0x40013c49	2.0193045
29	0x400fd5d2	2.2474256
30	0xc0e9c909	-7.3057904
31	0x400d714a	2.2100396

inter_layer.weight f4 [32, 32]
0	0xbfee78f8	-1.8630667
1	0xc088cd6f	-4.2750773
2	0xbdd1b414	-0.10239425
3	0xc0ad7a55	-5.421183
4	0xbc9d3fe8	-0.019195512
5	0xc0602d74	-3.5027742
6	0xbf18e2ec	-0.59721255
7	0x3ff6ad28	1.9271593
8	0xc0fc8f22	-7.8924723
9	0x3f824912	1.0178549
10	0x3f6f242e	0.9341458
11	0x3fc23cc4	1.5174794
12	0x3f189fd7	0.59618896
13	0xc12d809f	-10.843902
14	0x3f1598bf	0.584362
15	0xc010d850	-2.2632027
16	0xc00ef59d	-2.233741
17	0xbe68b605	-0.22725685
18	0xbde77edc	-0.113034934
19	0xc078dbfe	-3.8884273
20	0xc11996d5	-9.599324
21	0xbf850c84	-1.0394444
22	0xbf0be55c	-0.5464685
23	0x3fd11278	1.6333761
24	0xbfebb6a4	-1.8415112
25	0xbfa220ec	-1.2666297
26	0xc066f534	-3.608716
27	0x3fc02a26	1.5012863
28	0x3f5a4dc7	0.8527493
29	0x3fe7bff5	1.8105456
30	0xc118635e	-9.52426
31	0x3fad0731	1.351782
32	0xbf12bb21	-0.57316786
33	0x3ef0cd4e	0.47031635
34	0xc04da942	-3.2134557
35	0x40301f30	2.7519035
36	0xc0f132fe	-7.5374746
37	0xc088fcde	-4.2808676
38	0x409ec38f	4.961372
39	0x3ed4c830	0.4155898
40	0x403041e0	2.7540207
41	0xbf80e397	-1.0069455
42	0x404f6729	3.2406714
43	0xc0635b04	-3.5524302
44	0x3f7eeb81	0.995781
45	0xbe372b6b	-0.17887656
46	0x3f23e55b	0.64021844
47	0x3ebf09f2	0.37312275
48	0xbeff4f16	-0.49865025
49	0x3fd01b0d	1.6258255
50	0xc049ec6a	-3.1550546
51	0x40ba6746	5.8251066
52	0xc022726e	-2.5382342
53	0x3f152d34	0.582721
54	0x407759db	3.8648593
55	0xc0787de6	-3.8826842
56	0xbf3a2275	-0.7270883
57	0x3feb4296	1.8379695
58	0xc022a584	-2.5413523
59	0x40834b95	4.1029763
60	0xc00c3ecf	-2.1913335
61	0xbe158f76	-0.14605507
62	0xc1050fa5	-8.316319
63	0xc018327d	-2.3780816
64	0xbf398568	-0.72469187
65	0xc0bf8f50	-5.986244
66	0xbfedce16	-1.8578517
67	0xbfec6a79	-1.8469993
68	0x401e1a88	2.4703693
69	0xbca1070e	-0.019656684
70	0xc0a0a239	-5.0198026
71	0x403bc1ef	2.9337118
72	0xc09228c7	-4.5674777
73	0x3e94a3cc	0.29031217
74	0x3de95b3f	0.11394357
75	0x3f3ea90b	0.7447669
76	0xc0449b42	-3.0719762
77	0xc09b2f2c	-4.8495083
78	0x3f31d3b9	0.6946369
79	0xbf988395	-1.1915156
80	0xc097f123	-4.7481856
81	0x40211c46	2.5173507
82	0xbec82b23	-0.3909541
83	0x3f59e44f	0.85113996
84	0xc041716c	-3.0225477
85	0xbd6783ae	-0.056522064
86	0xc0614e78	-3.5204144
87	0xc08c8240	-4.3908997
88	0xc0ccfa5c	-6.4055614
89	0x403aeea5	2.9208157
90	0xbfce0475	-1.609511
91	0xc044bf07	-3.0741594
92	0xbea99226	-0.33119315
93	0xbc947ad1	-0.01812497
94	0xc087c4db	-4.24278
95	0x40758777	3.836393
96	0xbef2d275	-0.4742619
97	0xc0abbd27	-5.36684
98	0x3ffae7e0	1.9602013
99	0xc0974228	-4.7268257
100	0x40207115	2.506902
101	0xbf607592	-0.876794
102	0xbf736af5	-0.9508508
103	0x3f024755	0.50890094
104	0xbf9b36f5	-1.2126147
105	0x3d9ece2a	0.077541664
106	0x3e15fb5f	0.14646672
107	0xc04bc8d6	-3.184133
108	0x3f5d8fcc	0.8654754
109	0xc12763eb	-10.461894
110	0x3fad3576	1.353194
111	0x3dc812bc	0.09769198
112	0xc03a5f3d	-2.912063
113	0xbf809118	-1.0044279
114	0x3f069512	0.52571213
115	0xbef6f75e	-0.482356
116	0xc0196eb7	-2.3973825
117	0x3fc8a2fe	1.5674741
118	0xc01b4c70	-2.4265404
119	0xc014033a	-2.312697
120	0xc0f24b48	-7.5716896
121	0xbf1e9f69	-0.6196199
122	0xbf14c14e	-0.5810746
123	0x3d0536cb	0.032522958
124	0x3f5d27a5	0.8638862
125	0x3fd7614f	1.6826571
126	0xc04660d4	-3.09966
127	0xbf38109b	-0.7190034
128	0xbff0d92d	-1.8816277
129	0xbe13d5d0	-0.14437032
130	0x3fe0ea34	1.7571473
131	0x3fbb6b76	1.464217
132	0x3f855d76	1.0419147
133	0x3ffb61e8	1.9639254
134	0xc0130269	-2.297022
135	0x3f0bc677	0.5459971
136	0xbec4cfca	-0.3843978
137	0x3fd3440b	1.650514
138	0xc05375d1	-3.304066
139	0x3c7341ff	0.014847278
140	0x3ff0c411	1.8809835
141	0xc06390c4	-3.5557108
142	0x409cd897	4.901439
143	0x3edd2921	0.4319544
144	0xc02dfee9	-2.7186835
145	0x3f9c1242	1.2193072
146	0x3e5e9028	0.21734679
147	0x403cec66	2.9519286
148	0xc0982e57	-4.7556567
149	0x4060e17b	3.5137622
150	0xbfeaed8f	-1.8353747
151	0xbf7922fd	-0.9731901
152	0xc0a6ad69	-5.208668
153	0xbf9c06b8	-1.218955
154	0xbf8382cf	-1.0274295
155	0xbe948701	-0.2900925
156	0xbfde94bc	-1.738914
157	0x3f79216d	0.9731663
158	0xbf319c14	-0.6937878
159	0x4099b697	4.803539
160	0x3f7f1837	0.99646324
161	0x3f80f4b2	1.0074675
162	0xc022af47	-2.541948
163	0x400a9fd9	2.1660063
164	0xc03b9498	-2.9309444
165	0x3e0f1204	0.13971716
166	0xc08efbcf	-4.4682384
167	0xc021d2f0	-2.5284996
168	0xbff9623b	-1.9483103
169	0x3f6267a1	0.88439375
170	0x3f3b72f4	0.7322228
171	0xc004134b	-2.0636775
172	0x4034a7d1	2.8227427
173	0xbf77bb21	-0.9676991
174	0xbf2f8b57	-0.6857199
175	0x402e9909	2.7280905
176	0xba78b533	-0.000948745
177	0x3f963cd0	1.1737309
178	0xbf575215	-0.8410962
179	0x3f728c71	0.94745547
180	0x3d605449	0.05476788
181	0xbff01107	-1.8755196
182	0x4099ad6b	4.802419
183	0xc0cf3df4	-6.4763126
184	0x40a8cfb8	5.2753563
185	0x4002ca48	2.0435963
186	0xbf813b94	-1.0096307
187	0x402366fd	2.553161
188	0xbdd1cd79	-0.10244269
189	0xbea89ed8	-0.32933688
190	0xc0db60be	-6.8555593
191	0xc00168dc	-2.022025
192	0x3fd02eb3	1.6264251
193	0xc05d6567	-3.459314
194	0x3f50107c	0.81275153
195	0x4004ab6d	2.072963
196	0x408b07bc	4.344694
197	0x3f29930e	0.6624001
198	0xbe256cad	-0.16154738
199	0x400b3052	2.1748242
200	0x3f728e86	0.94748724
201	0x3fa1efc5	1.2651297
202	0x3fc1341b	1.5094026
203	0xbfcf769b	-1.620807
204	0xbfe2b412	-1.7711203
205	0xc0b45286	-5.6350737
206	0x4066adce	3.6043582
207	0xbd5b2199	-0.053498838
208	0xc09d79de	-4.9211264
209	0x3f04df79	0.5190349
210	0x3f66f045	0.9021037
211	0x3ed55a13	0.41670284
212	0x3e9438d5	0.2894961
213	0x400cb015	2.1982472
214	0xbfcf6505	-1.6202704
215	0xbfb0470b	-1.377168
216	0xc137c723	-11.486117
217	0x3ff9ae0a	1.9506238
218	0xbf12f800	-0.5740967
219	0x3fb536b9	1.4157325
220	0x3f503d48	0.8134351
221	0x3ffb14da	1.9615738
222	0xc0cc8a99	-6.3919187
223	0x40246dc2	2.569199
224	0xbda5778d	-0.08079443
225	0x4038c433	2.886975
226	0xc00fc4e0	-2.2463913
227	0xc089b2ec	-4.303091
228	0xbfb7bf22	-1.4355204
229	0x3d686e51	0.05674583
230	0x3f8216cd	1.0163208
231	0xc015bb25	-2.3395474
232	0x3faebb09	1.3650829
233	0xc07e415f	-3.97274
234	0x3f325827	0.6966576
235	0x3d9a188c	0.07524213
236	0x3f502785	0.813103
237	0x40f1d5c0	7.5573425
238	0xbfa36a1a	-1.2766755
239	0x3f2ccba2	0.6749822
240	0x3fad0425	1.351689
241	0xbd688388	-0.056766063
242	0x3e653916	0.22385058
243	0x3f9b50b2	1.2134001
244	0xbfa3e8ed	-1.2805458
245	0x3ddc5348	0.10758072
246	0xc05d572c	-3.4584455
247	0x3f891e0d	1.0712296
248	0x40b1b03a	5.552762
249	0xbe9018d3	-0.2814394
250	0xbfd3445f	-1.650524
251	0xc06699ed	-3.603145
252	0x3dd6d990	0.104907155
253	0xbf3465bd	-0.7046774
254	0xbf9b301b	-1.2124056
255	0xbf6cb516	-0.92463815

inter_layer.bias f4 [32]
0	0x3e51fd66	0.2050682
1	0x402a38da	2.65972
2	0xbe13a9e0	-0.14420271
3	0x3f9ac70a	1.2091992
4	0x405bfde9	3.4373724
5	0x4057bbbe	3.3708339
6	0x407a020b	3.9063747
7	0xbfb30811	-1.3986837
8	0x3c238078	0.00997936
9	0xbe85c3d1	-0.2612596
10	0x3e5e7459	0.2172407
11	0xbeaeb1c4	-0.3412
12	0xbee652b3	-0.4498497
13	0xbdcfbf88	-0.101439536
14	0xbe8e9a78	-0.27852225
15	0x3ebfbedf	0.3745031
16	0xbf5d866f	-0.86533254
17	0xbfc9d077	-1.5766743
18	0x3fa3804d	1.2773529
19	0xbf25ac95	-0.64716464
20	0xbf8e4b49	-1.1116725
21	0x3f7de064	0.9917052
22	0xbefdae05	-0.4954683
23	0xbec4cec7	-0.3843901
24	0x3f08cd24	0.5343802
25	0xbf1377ee	-0.57604873
26	0x3fd2084c	1.6408782
27	0xbf9cf4a1	-1.2262155
28	0xbe23e61f	-0.16005753
29	0x3ffabadc	1.9588275
30	0xbfa3e7b4	-1.2805085
31	0x40370260	2.85952

final_layer.weight f4 [1, 32]
0	0xc0b8ab31	-5.7708974
1	0x40fcc85e	7.899459
2	0xc113ef6d	-9.245954
3	0xc0d9ec33	-6.810083
4	0xc0ff8d1f	-7.9859767
5	0x4104be9d	8.296536
6	0xc0afa9b9	-5.489468
7	0x407586b9	3.8363478
8	0xc094311d	-4.6309953
9	0xc0d7249f	-6.7232203
10	0x402d66ab	2.7093914
11	0x4017a4b1	2.369427
12	0xc0a20bd8	-5.063946
13	0xc081fd2a	-4.062154
14	0x40080ae1	2.125664
15	0x412a91a8	10.660561
16	0x4062e59d	3.5452645
17	0x4032c7ec	2.7934523
18	0xc1011c02	-8.069338
19	0x403f266a	2.9867196
20	0x40b3ab95	5.614695
21	0xc0865ec4	-4.199068
22	0x40b68bc4	5.704561
23	0xc11d24eb	-9.821513
24	0xc07b6721	-3.9281695
25	0xc0559352	-3.3371167
26	0xc093354a	-4.600255
27	0xc0c6241f	-6.1919093
28	0x403d58f6	2.9585547
29	0xc0218fad	-2.5243943
30	0x41181232	9.504442
31	0xc09b1838	-4.8467064
