continuous cartpole/rl_model/train_2022-02-16T23:10:08.409859/model/166890_critic.pt (torch, 8580 bytes, 9 tensors)

norm_layer.weight f4 [4]
0	0x3f800000	1.0
1	0x3f800000	1.0
2	0x3f800000	1.0
3	0x3f800000	1.0

norm_layer.bias f4 [4]
0	0x00000000	0.0
1	0x00000000	0.0
2	0x00000000	0.0
3	0x00000000	0.0

norm_layer.running_mean f4 [4]
0	0x00000000	0.0
1	0x00000000	0.0
2	0x00000000	0.0
3	0x00000000	0.0

norm_layer.running_var f4 [4]
0	0x3f800000	1.0
1	0x3f800000	1.0
2	0x3f800000	1.0
3	0x3f800000	1.0

first_layer.weight f4 [32, 5]
0	0x41abfcf1	21.498507
1	0x41797087	15.5899725
2	0x42b92fd6	92.59343
3	0x4266e4eb	57.723553
4	0x3f36bfc0	0.7138634
5	0x4248aa9c	50.16661
6	0x41250a65	10.315038
7	0xc091ec23	-4.5600753
8	0x40bd1330	5.908592
9	0xbe0f4473	-0.13990955
10	0xc21e8744	-39.632095
11	0xc1b672f7	-22.806135
12	0xc26d6add	-59.35436
13	0xc186a083	-16.828375
14	0x3e1a0d52	0.15044144
15	0x413aa202	11.664553
16	0xc228e5c6	-42.22439
17	0xc2ab9dfc	-85.80856
18	0xc1675e62	-14.460543
19	0x3f0b5cca	0.5443846
20	0xc207a647	-33.91238
21	0xc1b7e786	-22.988049
22	0xc267b468	-57.926178
23	0xc19c8e12	-19.56937
24	0x3e1d1d44	0.15343195
25	0x429de032	78.93788
26	0x41bdcd0d	23.725122
27	0x42453195	49.29842
28	0x3fb52f48	1.4155054
29	0x3f7580dc	0.9589975
30	0x42939be5	73.80448
31	0x41702cd4	15.010944
32	0xc29b31e2	-77.59743
33	0xc015b9cc	-2.3394651
34	0x3e0f34e6	0.13985023
35	0xc20495e0	-33.146362
36	0xc1b92123	-23.14118
37	0xc2571c6e	-53.777763
38	0xc1838ad6	-16.442791
39	0x3ce8238f	0.028337268
40	0x428dd0dc	70.90793
41	0x412931a0	10.5746155
42	0xc29ab801	-77.35938
43	0xc0732901	-3.7993777
44	0x3e1c8808	0.15286267
45	0xc222bf61	-40.686893
46	0xc1ba445d	-23.28338
47	0xc28051ed	-64.16001
48	0xc1888c8b	-17.068624
49	0x3de12a73	0.10994425
50	0xc1eb2340	-29.392212
51	0xc1b2192a	-22.262287
52	0xc263d39c	-56.95665
53	0xc16e268f	-14.884414
54	0x3e83ecf0	0.25766706
55	0xc1d52af6	-26.645977
56	0xc180de44	-16.108528
57	0xc2909461	-72.2898
58	0xc19523e6	-18.642529
59	0x3eacb6f5	0.33733335
60	0x42772f31	61.796085
61	0x407342b4	3.8009462
62	0xc2005955	-32.08724
63	0x40fb42c6	7.851901
64	0xbf273b0c	-0.65324473
65	0x4193e084	18.484627
66	0x4183972a	16.44881
67	0x4271a434	60.410355
68	0x40573abc	3.3629599
69	0x3e1df1da	0.1542429
70	0xc22cdccb	-43.21562
71	0xc1c0668a	-24.050068
72	0xc25c1612	-55.021553
73	0xc18f39f0	-17.90329
74	0x3cb63758	0.022243187
75	0xc2309937	-44.149624
76	0xc1b1a320	-22.20465
77	0xc25d9fc9	-55.40604
78	0xc18708e1	-16.879335
79	0x3e03ab5b	0.12858336
80	0xc1e15314	-28.165565
81	0xc193d567	-18.4792
82	0xc24bcf8f	-50.952694
83	0xc17b69b2	-15.7133045
84	0x3e29b5ae	0.16573212
85	0x425db24e	55.424126
86	0x411e203d	9.882871
87	0x41b6e9c8	22.864151
88	0x4183a041	16.453249
89	0x3f162f5c	0.58666015
90	0x429f7899	79.73554
91	0x40ff9d95	7.987986
92	0xc2cac889	-101.39167
93	0xc0bc53c3	-5.885225
94	0x3e3f8599	0.18703307
95	0xc22281b4	-40.626663
96	0xc1b26496	-22.299114
97	0xc2813835	-64.60978
98	0xc183ad6e	-16.459682
99	0x3d87a370	0.0662297
100	0x4227ff05	41.999043
101	0x40b1cb88	5.556095
102	0xc05253d9	-3.2863677
103	0x410f2965	8.947606
104	0xbef0be2c	-0.4702009
105	0xc220a28b	-40.158733
106	0xc1a1fc45	-20.248178
107	0xc2a0ae76	-80.340744
108	0xc17dbc06	-15.858404
109	0x3dc60e95	0.0967075
110	0x428d7cf1	70.744026
111	0x41c161e2	24.172794
112	0x427a5d4e	62.591118
113	0xbfdc66fe	-1.7218931
114	0x3f8daf08	1.106904
115	0x3ffbbf4d	1.9667755
116	0x40465201	3.0987551
117	0x4255e1ca	53.470497
118	0x4154db01	13.303468
119	0xbf0dbc90	-0.5536585
120	0x42a31a4a	81.551346
121	0x41945710	18.542511
122	0x422b9d99	42.903904
123	0xbeb6d0a0	-0.35706043
124	0x3c713864	0.014722917
125	0xc203c444	-32.941666
126	0xc192d6e0	-18.35492
127	0xc26800bf	-58.00073
128	0xc166d597	-14.427146
129	0x3e076402	0.13221744
130	0xc1fc8dc5	-31.569223
131	0xc19028f6	-18.02
132	0xc29656ec	-75.16977
133	0xc169bc16	-14.608419
134	0x3ec422f3	0.38307914
135	0xc20e47cb	-35.57011
136	0xc12e90ca	-10.910349
137	0xc21e242e	-39.53533
138	0xc198d75d	-19.105158
139	0xc0391ab0	-2.8922539
140	0x40fa54af	7.8228374
141	0x3f96acf1	1.1771528
142	0x42810369	64.50666
143	0x41bd531d	23.665583
144	0xbf12dfcf	-0.57372755
145	0x424e6ce5	51.606342
146	0x416eb953	14.920245
147	0x420595eb	33.396404
148	0x41936204	18.42286
149	0x3fc3e944	1.5305562
150	0xc1a51cbd	-20.639032
151	0xc1808e67	-16.069532
152	0xc24ff989	-51.993687
153	0xc1b9bf7c	-23.218498
154	0xbf0d4b98	-0.5519347
155	0xc212fd8f	-36.747616
156	0xc1afbdd0	-21.967682
157	0xc27b64c2	-62.848396
158	0xc170b88f	-15.045058
159	0x3df817c2	0.121139064

first_layer.bias f4 [32]
0	0xc18ef7be	-17.870968
1	0xc2330941	-44.759037
2	0x4293628b	73.69247
3	0x4282a691	65.325325
4	0x4278b25d	62.174183
5	0xc0890fd6	-4.283183
6	0xc1cd60c6	-25.672253
7	0x42825423	65.16433
8	0xc1c4cabe	-24.598995
9	0x428c1e27	70.05889
10	0x4291c592	72.88588
11	0x42822dac	65.0892
12	0xc18b6eb1	-17.429049
13	0xc26b5856	-58.836266
14	0x42810497	64.508965
15	0x4287dc34	67.930084
16	0x42903348	72.10016
17	0xc1581541	-13.505189
18	0xc1f3f754	-30.495766
19	0x4289e6b6	68.95061
20	0xc23c72be	-47.112053
21	0x4281e711	64.9513
22	0xc19a1a52	-19.262852
23	0xc24d6986	-51.35305
24	0xc0d913ea	-6.783681
25	0x428fe1ab	71.94076
26	0x42896faf	68.71813
27	0x4269753f	58.3645
28	0xc22468b6	-41.102257
29	0xc220f869	-40.242588
30	0x4281ce5e	64.90306
31	0x428f4ff7	71.65618

inter_layer.weight f4 [32, 32]
0	0xc12a7db5	-10.65569
1	0xc2d32758	-105.57684
2	0x42b58d8e	90.776474
3	0x422181e7	40.376858
4	0x4281b73a	64.857864
5	0xc1b95e02	-23.170902
6	0xc2f3e794	-121.9523
7	0x42a8f610	84.48059
8	0xc2ae28d9	-87.07978
9	0x42bb741a	93.72676
10	0x42976fef	75.71862
11	0x427a9208	62.64261
12	0xc21f0016	-39.750084
13	0xc30b9685	-139.58797
14	0x42b22285	89.06742
15	0x42ba4807	93.14068
16	0x428f915c	71.783905
17	0xc2023921	-32.55579
18	0xc2bb7b5b	-93.74093
19	0x42aca7d9	86.32783
20	0xc2483e48	-50.06082
21	0x4299ca90	76.89563
22	0xc2156551	-37.34894
23	0xc2edbc5b	-118.86788
24	0xc27202ba	-60.502663
25	0x429330ab	73.595055
26	0x4294d8e8	74.423645
27	0x41f559ff	30.668943
28	0xc20cb090	-35.172424
29	0xc226e63d	-41.724842
30	0x424ae7c6	50.72634
31	0x42b2cb02	89.3965
32	0xc17e0cf0	-15.878159
33	0xc2c2230e	-97.06847
34	0x42aeda20	87.426025
35	0x421e5184	39.579605
36	0x4279d916	62.461998
37	0xc1ce7cdf	-25.810972
38	0xc2e37aee	-113.7401
39	0x42a7256a	83.573074
40	0xc2a59abc	-82.802216
41	0x42b6ca51	91.39515
42	0x4294e592	74.44838
43	0x426dcf12	59.452217
44	0xc216d3bf	-37.706783
45	0xc2ec4ede	-118.15404
46	0x42b1d110	88.908325
47	0x42b51813	90.54702
48	0x428d3e4d	70.62168
49	0xc213dea6	-36.96743
50	0xc2aeba2e	-87.36363
51	0x42aaa575	85.32316
52	0xc2550f95	-53.265217
53	0x42995f78	76.68646
54	0xc21b0c28	-38.76187
55	0xc2b712ff	-91.5371
56	0xc270019a	-60.001564
57	0x428ff06a	71.96956
58	0x428e24fe	71.07225
59	0x41ec74ec	29.55709
60	0xc1f94d31	-31.162691
61	0xc2328b99	-44.636326
62	0x42430600	48.75586
63	0x42ad2a84	86.58304
64	0x4145c475	12.360463
65	0x42542c56	53.043297
66	0xc2a00895	-80.01676
67	0xc2019c73	-32.402782
68	0xc257c8a3	-53.945934
69	0x41632626	14.196814
70	0x42bcc1f4	94.378815
71	0xc2a7f7c9	-83.983955
72	0x4279bbe8	62.433502
73	0xc2a5fc31	-82.99256
74	0xc283d1e7	-65.909966
75	0xc248ce22	-50.2013
76	0x41b683b5	22.81431
77	0x42cd308e	102.59483
78	0xc2ae9c57	-87.30535
79	0xc29f400c	-79.62509
80	0xc27bfab4	-62.994827
81	0x41e4b279	28.587145
82	0x4293b6e5	73.857216
83	0xc29dabdf	-78.835686
84	0x41d8b953	27.09049
85	0xc2906d5e	-72.21361
86	0x4183aea7	16.46028
87	0x426cd2f9	59.206028
88	0x423f5b0c	47.838913
89	0xc2855063	-66.657005
90	0xc282c9f9	-65.39448
91	0xc1f1ce68	-30.225784
92	0x4160382b	14.013713
93	0x41bc6bc9	23.55263
94	0xc23f8353	-47.878246
95	0xc2a48d0d	-82.27549
96	0xc14a7be3	-12.655246
97	0xc2db9314	-109.78726
98	0x42b39337	89.78753
99	0x421be6f0	38.975525
100	0x4280246b	64.07113
101	0xc1c02b8f	-24.021269
102	0xc2ec9b3d	-118.3032
103	0x42a5d552	82.91664
104	0xc2acec58	-86.46161
105	0x42b755f8	91.66791
106	0x42938701	73.76368
107	0x42771e0f	61.779354
108	0xc216d03e	-37.70336
109	0xc3019b1b	-129.60588
110	0x42b08c74	88.27432
111	0x42b9475a	92.63936
112	0x428d4327	70.63116
113	0xc20e0110	-35.501038
114	0xc2b23c1a	-89.117386
115	0x42ac5126	86.15849
116	0xc245ece7	-49.48135
117	0x429a97fa	77.29683
118	0xc2169f67	-37.655666
119	0xc2c62bb1	-99.085335
120	0xc273a214	-60.90828
121	0x428f0a4a	71.520096
122	0x4293e9a7	73.95635
123	0x41f86f41	31.054323
124	0xc204092b	-33.008953
125	0xc229555f	-42.33337
126	0x424a5d59	50.59116
127	0x42af1436	87.539474
128	0xc1866efd	-16.804193
129	0xc2be0b83	-95.022484
130	0x42adc948	86.89313
131	0x42168c79	37.63718
132	0x427af255	62.736652
133	0xc1db3d69	-27.404985
134	0xc2e5bd62	-114.86989
135	0x42a8c5be	84.386215
136	0xc2a273fe	-81.22655
137	0x42b79f38	91.810974
138	0x4292d69c	73.41916
139	0x426b7950	58.86847
140	0xc20be81a	-34.97666
141	0xc2def8ef	-111.4862
142	0x42b17128	88.72101
143	0x42b8529f	92.16137
144	0x428b94b3	69.79043
145	0xc2197e1a	-38.373146
146	0xc2af22df	-87.56811
147	0x42ab1476	85.53996
148	0xc259188f	-54.273983
149	0x429c9feb	78.31234
150	0xc21790cf	-37.891415
151	0xc2bc08f3	-94.01748
152	0xc276ca9a	-61.697853
153	0x428ee7fe	71.45311
154	0x428e526b	71.16097
155	0x41eb81c1	29.438356
156	0xc1e1cbe5	-28.224558
157	0xc22b2e58	-42.795258
158	0x423e211e	47.53234
159	0x42a7d7fc	83.921844
160	0xc17274c1	-15.153504
161	0xc290e5b0	-72.44861
162	0x42a48786	82.264694
163	0x4209d447	34.457302
164	0x4268ad91	58.1695
165	0xc1d9b2b1	-27.212252
166	0xc2c2b52a	-97.353836
167	0x42a25e6a	81.1844
168	0xc295aafa	-74.83394
169	0x42adb6ea	86.857254
170	0x4289d00f	68.906364
171	0x4267fbcb	57.99589
172	0xc20d4704	-35.31935
173	0xc2efd304	-119.91214
174	0x42abe790	85.95227
175	0x42a9952d	84.79136
176	0x4280023d	64.00437
177	0xc20eda6a	-35.713295
178	0xc2a12639	-80.57465
179	0x42a5a8fe	82.83006
180	0xc22181f5	-40.37691
181	0x42a62dfa	83.0898
182	0xc20b26d4	-34.787918
183	0xc2928d92	-73.276505
184	0xc2835b63	-65.67849
185	0x4285f9a7	66.9876
186	0x4289503a	68.65669
187	0x41dd9b91	27.70096
188	0xc2012371	-32.28461
189	0xc20fdbe8	-35.964752
190	0x42423f04	48.56154
191	0x42a3526b	81.66097
192	0x413d1117	11.816672
193	0x424f3179	51.798313
194	0xc29f842e	-79.75816
195	0xc2020f53	-32.514965
196	0xc2556412	-53.347725
197	0x41671fd2	14.445269
198	0x42be3a30	95.11365
199	0xc2a74a44	-83.64505
200	0x4277be32	61.935738
201	0xc2a5cd8f	-82.90148
202	0xc28319a2	-65.550064
203	0xc251a365	-52.409565
204	0x41b9528a	23.165302
205	0x42c94cff	100.65038
206	0xc2b06e3d	-88.21531
207	0xc29d9a01	-78.80079
208	0xc2796d39	-62.356663
209	0x41dc5d33	27.545507
210	0x429442f8	74.1308
211	0xc29cc521	-78.38502
212	0x41d84a2a	27.036213
213	0xc2936283	-73.692406
214	0x41815704	16.167488
215	0x426d8417	59.378994
216	0x423e6ec3	47.608166
217	0xc2853002	-66.593765
218	0xc283cbff	-65.89843
219	0xc1f06a68	-30.051956
220	0x415cdd47	13.804023
221	0x41bbe5fd	23.487299
222	0xc24123ce	-48.284966
223	0xc2a25102	-81.15822
224	0x4120ce0b	10.050303
225	0x4256bf9a	53.68711
226	0xc29c837d	-78.25681
227	0xc1fbd447	-31.478651
228	0xc25740b9	-53.813206
229	0x415e1ca5	13.881993
230	0x42aec707	87.388725
231	0xc2a48c8a	-82.27449
232	0x4263f072	56.98481
233	0xc2a1f6f5	-80.98234
234	0xc2832b2d	-65.58433
235	0xc24e5885	-51.586445
236	0x41b00571	22.002657
237	0x42c3e12b	97.93978
238	0xc2ac0cce	-86.02501
239	0xc29a2c12	-77.086075
240	0xc27fa58a	-63.91166
241	0x41d95090	27.164337
242	0x42919387	72.78814
243	0xc29b8a07	-77.769585
244	0x41c22e47	24.272596
245	0xc28d2d33	-70.58828
246	0x417b5c3a	15.710016
247	0x426cffba	59.249733
248	0x423cbbae	47.18328
249	0xc284bbbc	-66.36667
250	0xc28745c1	-67.63624
251	0xc205c233	-33.439648
252	0x41510bc0	13.065369
253	0x41ca65e9	25.29976
254	0xc24c6652	-51.099922
255	0xc2a3d2ac	-81.91147

inter_layer.bias f4 [32]
0	0x42937e5e	73.74681
1	0x428f43db	71.63253
2	0xc2955156	-74.65886
3	0x4290db17	72.42791
4	0x42896595	68.6984
5	0x427b4a3b	62.82249
6	0xc293c38e	-73.88194
7	0xc293a128	-73.81476
8	0xc294289b	-74.07931
9	0x428af5a4	69.47977
10	0x42860dfb	67.027306
11	0xc2903ca2	-72.11842
12	0x428ab29a	69.34883
13	0xc29523cf	-74.56994
14	0xc23a19cd	-46.525196
15	0x4274ce9b	61.201763
16	0xc29021a8	-72.065735
17	0xc28ffd90	-71.99524
18	0x4292108a	73.0323
19	0xc2961a3e	-75.051254
20	0x4290149a	72.04024
21	0xc2909236	-72.28557
22	0x42908c43	72.27395
23	0xc2900f50	-72.02991
24	0x4292e4ee	73.44713
25	0x42922a6a	73.08284
26	0xc291f95b	-72.98702
27	0x42887b82	68.24123
28	0xc292e91b	-73.455284
29	0xc291f0f0	-72.97058
30	0xc2928c4c	-73.27402
31	0x428e1c84	71.055695

final_layer.weight f4 [1, 32]
0	0x42e9c51a	116.884964
1	0x42e5f97a	114.98726
2	0xc291f5b4	-72.97989
3	0x42e11890	112.54797
4	0x42e4ed7c	114.46384
5	0x42c8720a	100.22273
6	0xc2927d3e	-73.24461
7	0xc2952d43	-74.5884
8	0xc2a02d8b	-80.08895
9	0x42d82c39	108.08637
10	0x42d885df	108.26147
11	0xc2916ba6	-72.71025
12	0x42e1a688	112.82526
13	0xc2947873	-74.23525
14	0xc29053f1	-72.16395
15	0x42d2a7ee	105.32799
16	0xc29f7c07	-79.74224
17	0xc294e387	-74.44439
18	0x42e0bc86	112.36821
19	0xc293e097	-73.93865
20	0x42e7ec4a	115.9615
21	0xc2950f0b	-74.52938
22	0x42da4625	109.137
23	0xc299d62b	-76.9183
24	0x42e7252c	115.5726
25	0x42dd5d70	110.682495
26	0xc29b6381	-77.69434
27	0x42e290b4	113.28262
28	0xc2918117	-72.75213
29	0xc29bd8e2	-77.9236
30	0xc29566ee	-74.701035
31	0x42e3e2fe	113.943344
