continuous cartpole/rl_model/train_2022-02-16T23:10:08.409859/model/170350_actor.pt (torch, 6999 bytes, 5 tensors)

first_layer.weight f4 [32, 4]
-0.91264623 1.8928562 4.916878 -1.0978838 1.0280877 -0.18602903 -2.5779629 -0.38362443
-1.9342601 -1.5970464 12.279255 1.7009579 -16.365284 -3.2630668 13.726572 2.9114847
-0.12372358 -0.40209907 0.56350696 -0.3853137 0.7770726 1.6667885 -0.08634717 -1.640425
0.66823244 1.4577817 1.7011647 -0.19328344 -1.7599696 -0.6837517 -4.241957 -0.5507215
-2.3454483 3.182087 7.294281 -1.2974179 -1.4335167 -1.7737521 -2.7874455 0.61839634
-4.9467072 0.58212703 6.602905 -2.9624743 -0.83970153 0.2849452 5.63545 1.6840122
-1.5888648 1.4245943 5.807143 -1.6488265 5.251956 2.2166872 -5.6093583 1.4418508
-1.6041089 0.84443307 4.7810526 -1.4561042 0.64053404 2.8021326 -2.052231 -3.2603767
0.08689694 2.013372 0.46540648 -2.841401 -0.18018068 3.115361 -1.7509804 -0.42372626
1.6595995 1.4419582 -1.557943 -2.4986904 0.42356938 0.7304175 0.723788 -0.14766748
3.628938 1.9894526 9.033781 1.5552918 -2.2396355 2.499781 5.908124 -1.0501606
-0.32114708 -0.44859222 -0.64155716 -0.24436374 3.360777 0.032684583 0.39950582 -0.4823702
2.1334069 -0.5622631 -9.333467 -0.20827776 -0.36190984 1.436939 2.972315 -1.7358563
2.6935205 -0.010914472 -2.45551 1.412348 -4.880993 0.09496262 0.6858356 0.7499001
0.735652 1.8677397 -2.4281237 -2.169583 -1.385134 0.9837066 5.9741335 -1.9503068
6.7675304 1.1733202 -1.2467564 1.0353441 -0.20123419 0.20809416 -0.29965106 -0.29486164
00000000: 2fa3 69bf 1d49 f23f 1157 9d40 7587 8cbf
00000010: 6198 833f 657e 3ebe 58fd 24c0 6c6a c4be
00000020: d695 f7bf 046c ccbf d477 4441 fdb8 d93f
00000030: 1aec 82c1 16d6 50c0 0aa0 5b41 c455 3a40
00000040: ca62 fdbd eedf cdbe fe41 103f d647 c5be
00000050: 3bee 463f 5359 d53f c9d6 b0bd 72f9 d1bf
00000060: 4811 2b3f 9798 ba3f c4bf d93f 18ec 45be
00000070: af46 e1bf 5a0a 2fbf 1dbe 87c0 16fc 0cbf
00000080: d31b 16c0 50a7 4b40 c06a e940 ca11 a6bf
00000090: 7a7d b7bf 4f0a e3bf 8265 32c0 394f 1e3f
000000a0: 6d4b 9ec0 4706 153f ff4a d340 2e99 3dc0
000000b0: aef6 56bf 56e4 913e 9b55 b440 b68d d73f
000000c0: ec5f cbbf 1b59 b63f 1ed4 b940 bf0c d3bf
000000d0: 0610 a840 34de 0d40 dd7f b3c0 918e b83f
000000e0: 7153 cdbf c42c 583f 62fe 9840 9f61 babf
000000f0: 0afa 233f 2456 3340 c157 03c0 03aa 50c0
00000100: 06f7 b13d 16db 0040 c249 ee3e 84d9 35c0
00000110: 4981 38be 1362 4740 2020 e0bf a6f2 d8be
00000120: c26d d43f 1692 b83f ad6a c7bf 8bea 1fc0
00000130: 16de d83e a4fc 3a3f 2c4a 393f 2536 17be
00000140: 8540 6840 62a6 fe3f 5e8a 1041 cd13 c73f
00000150: 3056 0fc0 69fc 1f40 5a0f bd40 aa6b 86bf
00000160: 646d a4be e1ad e5be 173d 24bf 7d3a 7abe
00000170: f816 5740 45e0 053d 078c cc3e 3af9 f6be
00000180: bd89 0840 79f0 0fbf e155 15c1 c446 55be
00000190: 3f4c b9be 9eed b73f 693a 3e40 8a30 debf
000001a0: a462 2c40 9dd2 32bc 1327 1dc0 d2c7 b43f
000001b0: 1831 9cc0 c37b c23d ec92 2f3f 74f9 3f3f
000001c0: b153 3c3f 1812 ef3f 6166 1bc0 73da 0ac0
000001d0: 124c b1bf 32d4 7b3f 1a2c bf40 a7a3 f9bf
000001e0: 9c8f d840 5b2f 963f b795 9fbf 2886 843f
000001f0: 5610 4ebe a316 553e dd6b 99be 1bf8 96be

first_layer.bias f4 [32]
-1.0140773 0.93240714 -6.4897056 6.011938 -2.2101235 1.2625395 -1.8280659 1.5068014
0.85991865 2.7102664 2.4923525 -7.076097 1.3459641 -6.0173655 1.2878546 2.6832852
2.1210904 2.8203835 0.9746933 3.4623084 -4.8511662 0.68273515 1.5365427 -2.5853066
-4.72989 2.1238766 -3.1160865 3.4848194 1.9046928 2.3005164 -7.3385687 2.1792548
00000000: 49cd 81bf 3cb2 6e3f abab cfc0 cc61 c040
00000010: aa72 0dc0 e59a a13f 10fe e9bf dede c03f
00000020: a123 5c3f 0175 2d40 b482 1f40 636f e2c0
00000030: 8d48 ac3f 428e c0c0 6bd8 a43f f2ba 2b40
00000040: f2bf 0740 2a81 3440 8085 793f 7696 5d40
00000050: c13c 9bc0 bbc7 2e3f 6ead c43f aa75 25c0
00000060: 425b 97c0 98ed 0740 f66d 47c0 4807 5f40
00000070: f9cc f33f a93b 1340 8ed5 eac0 e978 0b40

inter_layer.weight f4 [32, 32]
-1.8221048 -4.270909 -0.32526007 -5.032292 0.017127894 -3.5028398 -0.63857156 1.9173588
-7.9143896 1.0951829 0.9145003 1.5224028 0.57025594 -10.798437 0.5508287 -2.2612257
-2.2331042 -0.232671 -0.097634524 -3.8953354 -9.581612 -1.0679908 -0.5958547 1.6763167
-1.8166783 -1.2760947 -3.798862 1.6252542 0.85398066 1.793874 -9.49445 1.3437402
-0.61407447 0.4663174 -2.9905808 2.3632936 -7.573924 -4.280801 5.00271 0.42536333
2.7760098 -1.0842909 3.260432 -3.55733 1.0217617 -0.22418435 0.6738065 0.37124366
-0.49929327 1.6312609 -3.1704361 5.832115 -2.5558372 0.6113655 3.9142396 -3.925534
-0.75203377 1.8474667 -2.351242 3.979082 -2.1925664 -0.12934157 -8.346135 -2.3700907
-0.6837712 -5.9821377 -2.0806699 -1.4580635 2.5067585 -0.019757297 -5.061107 2.923844
-4.589441 0.36757782 0.09426856 0.74975103 -3.0979474 -4.8041697 0.6610565 -1.1896327
-4.747587 2.5118518 -0.37560508 0.8441671 -3.0048568 -0.08514757 -3.56985 -4.347971
-6.3806176 2.9112844 -1.7996393 -2.9502513 -0.33003068 -0.034835033 -4.213042 3.8283687
-0.43336722 -5.3626127 1.737338 -4.3384132 2.5431871 -0.876861 -0.9922934 0.49917796
-1.2345847 0.15493444 0.12679549 -3.1792579 0.83950144 -10.416449 1.3195792 0.09959999
-2.911444 -1.0098518 0.5410957 -0.48927584 -2.3798413 1.5388982 -2.4758434 -2.2699647
-7.5467577 -0.6290686 -0.77122587 0.15642725 0.86510146 1.665949 -3.0700195 -0.7270364
-1.8408738 -0.14071825 1.5346006 1.8535098 1.0784574 1.9636592 -2.3385825 0.53585094
-0.4064778 1.7275946 -3.323967 0.020048406 1.8549039 -3.510251 4.867695 0.4336504
-2.7182398 1.2136835 0.23253144 2.9447827 -4.7377596 3.485019 -1.8850397 -0.9301492
-5.183639 -1.2286212 -1.2173718 -0.16615622 -1.7379266 0.95630616 -0.66391903 4.795162
0.95558226 1.0034989 -2.3190966 1.7771417 -2.9673002 0.13980831 -4.426916 -2.5186965
-1.9263278 0.8070909 0.75191385 -2.0685806 2.8487024 -1.0130146 -0.652141 2.726161
-0.0015935178 1.1791664 -0.8564468 0.9544002 0.037095573 -1.8469355 4.8520093 -6.5192146
5.250422 2.053114 -0.81949365 2.4292283 -0.10362982 -0.3126319 -6.8852515 -2.0140235
1.6671422 -3.4556973 0.59023446 2.4621263 4.38135 0.66207933 -0.20309304 2.164661
0.92534107 1.3422412 1.4895695 -1.6155896 -1.7972561 -5.5895386 3.5706549 -0.051855244
-4.920741 0.5133484 0.9172213 0.40951163 0.30749696 2.1694489 -1.6699513 -1.3341502
-11.461024 1.9409069 -0.76399344 1.5396336 0.8143875 1.9446542 -6.36201 2.5609257
-0.15849093 3.2232847 -2.4644792 -4.717487 -2.0298002 0.111126594 1.0560628 -2.033474
1.2995248 -0.9909587 0.62502337 -0.13776284 0.76425004 7.490807 -1.3444114 0.73996854
1.390103 0.064005226 0.28309166 1.3738184 -1.5811659 0.04292501 -2.9334362 1.1136261
5.5325637 -0.25203648 -1.6374421 -2.5202684 0.18277082 -0.733426 -1.3360317 -0.756463
00000000: bb3a e9bf 49ab 88c0 7d88 a6be 8908 a1c0
00000010: cc4f 8c3c 872e 60c0 6d79 23bf 036c f53f
00000020: ae42 fdc0 f42e 8c3f b11c 6a3f 18de c23f
00000030: 4bfc 113f 66c6 2cc1 1c03 0d3f ecb7 10c0
00000040: 2eeb 0ec0 4e41 6ebe 9cf4 c7bd 2d4d 79c0
00000050: 484e 19c1 ecb3 88bf ef89 18bf 8c91 d63f
00000060: ea88 e8bf 1257 a3bf 8e20 73c0 5408 d03f
00000070: 7a9e 5a3f aa9d e53f 44e9 17c1 aeff ab3f
00000080: fc33 1dbf 27c1 ee3e ad65 3fc0 3440 1740
00000090: 965d f2c0 52fc 88c0 3316 a040 39c9 d93e
000000a0: 25aa 3140 0bca 8abf ebaa 5040 4bab 63c0
000000b0: 16c9 823f 9590 65be 957e 2c3f a613 be3e
000000c0: 5ea3 ffbe 28cd d03f 6de8 4ac0 b0a0 ba40
000000d0: d692 23c0 7382 1c3f e782 7a40 f33b 7bc0
000000e0: 4985 40bf ca79 ec3f c07a 16c0 48a9 7e40
000000f0: 0253 0cc0 1e72 04be c589 05c1 91af 17c0
00000100: a10b 2fbf ac6d bfc0 b229 05c0 d3a1 babf
00000110: bb6e 2040 0eda a1bc 97f4 a1c0 4320 3b40
00000120: b3dc 92c0 2933 bc3e e00f c13d afef 3f3f
00000130: c544 46c0 c2bb 99c0 003b 293f e245 98bf
00000140: 3cec 97c0 2ec2 2040 4f4f c0be 561b 583f
00000150: 934f 40c0 d961 aebd 6c78 64c0 9422 8bc0
00000160: 052e ccc0 7c52 3a40 955a e6bf ebd0 3cc0
00000170: c8f9 a8be 2eaf 0ebd 3dd1 86c0 fe03 7540
00000180: 4fe2 ddbe 869a abc0 1761 de3f 48d4 8ac0
00000190: 94c3 2240 f679 60bf f106 7ebf 4194 ff3e
000001a0: df06 9ebf 22a7 1e3e add6 013e f678 4bc0
000001b0: 91e9 563f c6a9 26c1 f9e7 a83f 14fb cb3d
000001c0: 1955 3ac0 d342 81bf 3f85 0a3f 5d82 fabe
000001d0: 524f 18c0 9efa c43f 3874 1ec0 1a47 11c0
000001e0: 0a7f f1c0 a40a 21bf 0f6f 45bf 772e 203e
000001f0: 4a77 5d3f d13d d53f 337b 44c0 0f1f 3abf
00000200: c1a1 ebbf 7218 10be cb6d c43f cf3f ed3f
00000210: e40a 8a3f 2f59 fb3f 56ab 15c0 872d 093f
00000220: dc1d d0be d221 dd3f e0bb 54c0 8e3c a43c
00000230: 7e6d ed3f f4a7 60c0 28c4 9b40 6d07 de3e
00000240: a4f7 2dc0 fb59 9b3f b91c 6e3e 5277 3c40
00000250: ba9b 97c0 8d0a 5f40 fb48 f1bf 421e 6ebf
00000260: 5fe0 a5c0 7643 9dbf d7d2 9bbf db24 2abe
00000270: 6174 debf 7bd0 743f 99f6 29bf f871 9940
00000280: 0aa1 743f a772 803f 146c 14c0 6179 e33f
00000290: 3fe8 3dc0 e929 0f3e 4ca9 8dc0 5332 21c0
000002a0: e991 f6bf 829d 4e3f 6d7d 403f a063 04c0
000002b0: 2451 3640 76aa 81bf b6f2 26bf 6c79 2e40
000002c0: 96dd d0ba edee 963f 1940 5bbf 9253 743f
000002d0: 87f1 173d 6268 ecbf a943 9b40 689d d0c0
000002e0: 7503 a840 3866 0340 56ca 51bf 7a78 1b40
000002f0: df3b d4bd 4a11 a0be fb53 dcc0 c3e5 00c0
00000300: ea64 d53f 252a 5dc0 9b19 173f 7a93 1d40
00000310: 0534 8c40 087e 293f 9ff7 4fbe ce89 0a40
00000320: 27e3 6c3f 8fce ab3f 37aa be3f a4cb cebf
00000330: 7d0c e6bf 80dd b2c0 9c85 6440 2a66 54bd
00000340: b676 9dc0 cd6a 033f 04cf 6a3f 82ab d13e
00000350: 3e70 9d3e 40d8 0a40 f7c0 d5bf 6fc5 aabf
00000360: 5b60 37c1 a36f f83f 1395 43bf b712 c53f
00000370: b37b 503f 6eea f83f 9695 cbc0 35e6 2340
00000380: 724b 22be 4c4a 4e40 07ba 1dc0 a7f5 96c0
00000390: 3fe8 01c0 5796 e33d 112d 873f 7024 02c0
000003a0: d456 a63f 78af 7dbf 8801 203f b411 0dbe
000003b0: e4a5 433f b1b4 ef40 ac15 acbf 946e 3d3f
000003c0: e5ee b13f 2c15 833d 64f1 903e 48d9 af3f
000003d0: a563 cabf 23d2 2f3d 6bbd 3bc0 4d8b 8e3f
000003e0: c30a b140 ed0a 81be b497 d1bf 144c 21c0
000003f0: 4628 3b3e cec1 3bbf 1603 abbf 8fa7 41bf

inter_layer.bias f4 [32]
0.1805915 2.6841593 -0.16873313 1.1847092 3.4127018 3.3952734 3.8816707 -1.0646479
-0.014468744 -0.2857485 0.22033438 -0.3169405 -0.47430366 -0.1257491 -0.25430486 0.39917803
-0.8171241 -1.5326924 1.2528151 -1.027587 -0.97208184 0.9673374 -0.47073764 -0.4088988
0.5091919 -0.84555 1.6161003 -0.9148189 -0.13572234 1.9339094 -1.2558085 2.8348136
00000000: faec 383e 44c9 2b40 61c8 2cbe 8da4 973f
00000010: b569 5a40 294c 5940 4b6d 7840 6246 88bf
00000020: 500e 6dbc a14d 92be 569f 613e 0646 a2be
00000030: eed7 f2be 5fc4 00be 3f34 82be 1061 cc3e
00000040: 0c2f 51bf 442f c4bf 3f5c a03f f987 83bf
00000050: 5bda 78bf 6da3 773f 8604 f1be 2f5b d1be
00000060: 665a 023f f775 58bf 60dc ce3f 9231 6abf
00000070: ccfa 0abe 588a f73f 55be a0bf 966d 3540

final_layer.weight f4 [1, 32]
-5.7931323 7.933001 -9.251675 -6.839665 -7.885763 8.304876 -5.444406 3.8309338
-4.6391244 -6.737411 2.7037153 2.3699763 -5.082172 -3.9620233 2.128831 10.652945
3.471835 2.7952287 -8.078333 2.9330008 5.45578 -4.228355 5.701265 -9.8479185
-3.700085 -4.059151 -4.5845394 -6.2487044 2.9570327 -2.5197766 9.49422 -4.84039
00000000: 5761 b9c0 25db fd40 dc06 14c1 89de dac0
00000010: 2c58 fcc0 c6e0 0441 9338 aec0 052e 7540
00000020: b573 94c0 df98 d7c0 ac09 2d40 b1ad 1740
00000030: 27a1 a2c0 ca91 7dc0 c43e 0840 7672 2a41
00000040: 8b32 5e40 07e5 3240 da40 01c1 49b6 3b40
00000050: c095 ae40 af4e 87c0 c370 b640 1391 1dc1
00000060: 31ce 6cc0 91e4 81c0 8cb4 92c0 63f5 c7c0
00000070: 0640 3d40 0544 21c0 53e8 1741 7ae4 9ac0
