continuous cartpole/rl_model/train_2022-02-16T23:10:08.409859/model/174610_critic.pt (torch, 8580 bytes, 9 tensors)

norm_layer.weight f4 [4]
0	0x3f800000	1.0
1	0x3f800000	1.0
2	0x3f800000	1.0
3	0x3f800000	1.0

norm_layer.bias f4 [4]
0	0x00000000	0.0
1	0x00000000	0.0
2	0x00000000	0.0
3	0x00000000	0.0

norm_layer.running_mean f4 [4]
0	0x00000000	0.0
1	0x00000000	0.0
2	0x00000000	0.0
3	0x00000000	0.0

norm_layer.running_var f4 [4]
0	0x3f800000	1.0
1	0x3f800000	1.0
2	0x3f800000	1.0
3	0x3f800000	1.0

first_layer.weight f4 [32, 5]
0	0x41c65e1c	24.795952
1	0x41b392cf	22.446684
2	0x42b47be5	90.24198
3	0x4258ced3	54.201977
4	0x3dc857d3	0.09782376
5	0x4231da8c	44.463425
6	0x41381190	11.504288
7	0xc04df96d	-3.2183487
8	0x40e87540	7.2643127
9	0xbf5b9fb5	-0.8579057
10	0xc21fab7f	-39.917477
11	0xc1d7b3d8	-26.962814
12	0xc289681a	-68.70332
13	0xc19eb5c2	-19.838749
14	0x3e1058f8	0.14096439
15	0x41810355	16.126627
16	0xc237d4c6	-45.957787
17	0xc2cb1fd4	-101.562164
18	0xc1a623dd	-20.767511
19	0x3f4338a5	0.7625831
20	0xc208c83a	-34.195534
21	0xc1d92467	-27.142775
22	0xc2868f10	-67.27942
23	0xc1b4ad13	-22.584509
24	0x3e23730c	0.15961856
25	0x42b53437	90.60198
26	0x41da1ca2	27.26398
27	0x424dd175	51.454548
28	0x3f39bfbb	0.7255818
29	0x3ef30119	0.47461775
30	0x42a3bce6	81.86894
31	0x414f91a7	12.97306
32	0xc2ad654d	-86.69785
33	0xbe89eedc	-0.26940048
34	0x3e2badb3	0.1676548
35	0xc205b92f	-33.430843
36	0xc1da6332	-27.298435
37	0xc27c829a	-63.12754
38	0xc19b9e98	-19.452438
39	0x3c85b304	0.016320713
40	0x429a43c7	77.13238
41	0x40f6e180	7.715027
42	0xc2aec930	-87.392944
43	0xbf6f8cb8	-0.93574095
44	0x3e26e26a	0.16297308
45	0xc223e344	-40.97194
46	0xc1db8585	-27.440195
47	0xc2930419	-73.508
48	0xc1a0a1da	-20.07903
49	0x3dcc46ea	0.09974463
50	0xc1ed7381	-29.681398
51	0xc1d2ea7e	-26.364498
52	0xc2849c07	-66.30474
53	0xc18f9cb3	-17.951513
54	0x3e784458	0.24244821
55	0xc1d77149	-26.930315
56	0xc1a23a78	-20.27855
57	0xc2a34103	-81.626976
58	0xc1ad0fef	-21.63278
59	0x3e8c1806	0.27362078
60	0x4292adca	73.33943
61	0x400bc0bb	2.1836383
62	0xc22a957e	-42.64599
63	0x4121b060	10.10556
64	0xbf652840	-0.8951454
65	0x41ada277	21.704329
66	0x4197406a	18.906452
67	0x427ffa38	63.994354
68	0x40f46201	7.6369634
69	0x3e9b3368	0.30312657
70	0xc22e007d	-43.500477
71	0xc1e1a82b	-28.207113
72	0xc280bdcc	-64.3707
73	0xc1a74e4a	-20.913227
74	0x3c2aa79b	0.010415937
75	0xc231bd82	-44.435066
76	0xc1d2e3b9	-26.361193
77	0xc2818247	-64.75445
78	0xc19f1e45	-19.88978
79	0x3df4a945	0.11946348
80	0xc1e398eb	-28.449667
81	0xc1b5122b	-22.633871
82	0xc2713854	-60.305008
83	0xc195d1ba	-18.727406
84	0x3e2ef14e	0.17084238
85	0x425b7b90	54.870667
86	0x412d6599	10.837304
87	0x41c4377e	24.527096
88	0x4193ea96	18.489544
89	0x3f1d4f0d	0.61448747
90	0x42aa038f	85.00695
91	0x40c18677	6.047664
92	0xc2dd18ea	-110.54866
93	0xc080cd9c	-4.025099
94	0x3db92d12	0.090417996
95	0xc223a527	-40.91128
96	0xc1d3a5fb	-26.456045
97	0xc293eac0	-73.958496
98	0xc19bc223	-19.469793
99	0x3d6492f8	0.055804223
100	0x42334b16	44.823326
101	0x40a61f2c	5.191305
102	0xc02d4b9d	-2.70774
103	0x413f440f	11.954116
104	0xbfbbe55b	-1.4679369
105	0xc221c526	-40.442528
106	0xc1c33d8d	-24.405054
107	0xc2b362ff	-89.69335
108	0xc196f3d7	-18.869062
109	0x3db1eafa	0.08687396
110	0x428d6586	70.69829
111	0x41c2d038	24.35167
112	0x428419de	66.05052
113	0xbfbd98e6	-1.4812286
114	0x3f7446d9	0.95420605
115	0x40a9d511	5.307259
116	0x401336f3	2.3002288
117	0x426e7e95	59.623615
118	0x41715fcb	15.085887
119	0xbff07ec7	-1.8788689
120	0x42b78017	91.750175
121	0x41ab4985	21.410898
122	0x422f2039	43.781467
123	0x3ece112c	0.40247476
124	0x3e18995e	0.14902255
125	0xc204e752	-33.2259
126	0xc1b41901	-22.512209
127	0xc286b3c8	-67.351135
128	0xc18b80af	-17.437834
129	0x3df99f78	0.121886194
130	0xc1fedda8	-31.85823
131	0xc1b11952	-22.137363
132	0xc2a90691	-84.512825
133	0xc18d41b4	-17.657082
134	0x3eaf7aac	0.3427328
135	0xc211209a	-36.281837
136	0xc1730c0b	-15.19044
137	0xc2437af1	-48.87006
138	0xc1afa148	-21.95375
139	0xc06426bd	-3.5648644
140	0x410596eb	8.349345
141	0x3e9eb827	0.30999872
142	0x42897608	68.73053
143	0x41e58ff2	28.695286
144	0xc00a300a	-2.159182
145	0x423f6b1b	47.854595
146	0x417321a4	15.195713
147	0x421029d3	36.040844
148	0x41a8ec18	21.11528
149	0x3fc0b932	1.5056517
150	0xc1a96e7a	-21.178944
151	0xc1a21775	-20.261454
152	0xc275e015	-61.46883
153	0xc1d1a836	-26.207134
154	0xbeb63b7d	-0.3559226
155	0xc214214d	-37.03252
156	0xc1d0ff6b	-26.124716
157	0xc2906494	-72.19644
158	0xc190711d	-18.055231
159	0x3de219d6	0.11040084

first_layer.bias f4 [32]
0	0xc1c94e2e	-25.163174
1	0xc24c8e71	-51.139103
2	0x42ab0837	85.516045
3	0x429e4159	79.12763
4	0x429400b7	74.001396
5	0xc005839c	-2.0861578
6	0xc1d535b3	-26.65122
7	0x4299fa31	76.988655
8	0xc1cd3a7c	-25.653557
9	0x42a3c37e	81.88182
10	0x42a974ca	84.7281
11	0x4299d9f2	76.925674
12	0xc198d74e	-19.10513
13	0xc285c90b	-66.89266
14	0x4298aa4b	76.3326
15	0x429f81f7	79.75384
16	0x42a7da71	83.92664
17	0xc160c238	-14.047417
18	0xc2010026	-32.250145
19	0x42a18cb0	80.77478
20	0xc2530e8b	-52.764202
21	0x42998daf	76.776726
22	0xc1ab4d65	-21.41279
23	0xc24cfae2	-51.245003
24	0xc08ffc8a	-4.4995775
25	0x42a788f8	83.76752
26	0x42a11f31	80.56092
27	0x428bb6b3	69.856834
28	0xc2268ff8	-41.640594
29	0xc2298e06	-42.388695
30	0x4298cc6e	76.39928
31	0x42a6f5d0	83.4801

inter_layer.weight f4 [32, 32]
0	0xc0ef0d10	-7.4703445
1	0xc2ebb644	-117.85599
2	0x42d0c1a0	104.378174
3	0x42605e33	56.09199
4	0x429da952	78.8307
5	0xc1dfd6be	-27.979855
6	0xc3022222	-130.13333
7	0x42c380c6	97.75151
8	0xc2c5d9d3	-98.92544
9	0x42d691fa	107.28511
10	0x42b333d8	89.60126
11	0x4299b45b	76.85226
12	0xc24721f6	-49.783165
13	0xc316a5b4	-150.64728
14	0x42cd19a4	102.55008
15	0x42d5ae66	106.84062
16	0x42aa7a4a	85.238846
17	0xc203b12b	-32.923016
18	0xc2d6b406	-107.35161
19	0x42c769c4	99.70657
20	0xc2746775	-61.101032
21	0x42b4dc1a	90.429886
22	0xc2170e6a	-37.764076
23	0xc2ff69f0	-127.70691
24	0xc286d112	-67.40834
25	0x42ade200	86.94141
26	0x42b17164	88.721466
27	0x422a3b64	42.558
28	0xc22fc660	-43.943726
29	0xc229433c	-42.31566
30	0x4280895c	64.26828
31	0x42cdae15	102.840004
32	0xc14b17a7	-12.6932745
33	0xc2daaf22	-109.34206
34	0x42ca0e53	101.02798
35	0x425d2de3	55.29481
36	0x4298deaa	76.43489
37	0xc1f4f5ad	-30.619959
38	0xc2f3d800	-121.921875
39	0x42c1b021	96.844
40	0xc2bd4baf	-94.64782
41	0x42d1e849	104.95368
42	0x42b0a99f	88.33129
43	0x42935299	73.66132
44	0xc23ed1f2	-47.705025
45	0xc3013710	-129.21509
46	0x42ccc83d	102.39109
47	0x42d07e82	104.247086
48	0x42a8275a	84.07686
49	0xc21556a0	-37.334595
50	0xc2c9f2d7	-100.9743
51	0x42c56765	98.70194
52	0xc2809b26	-64.303024
53	0x42b4710c	90.220795
54	0xc21cb543	-39.177013
55	0xc2c8b50c	-100.35361
56	0xc285d079	-66.90717
57	0x42aaa1db	85.316124
58	0x42aabd98	85.3703
59	0x4225c7da	41.445168
60	0xc21fa783	-39.913586
61	0xc234e891	-45.227116
62	0x42793072	62.29731
63	0x42c80db0	100.02673
64	0x41207d05	10.030522
65	0x4274e067	61.219143
66	0xc2bb434f	-93.63146
67	0xc2407ce3	-48.12196
68	0xc287d842	-67.92238
69	0x41983940	19.027954
70	0x42cca940	102.33057
71	0xc2c26899	-97.20429
72	0x429405da	74.01143
73	0xc2c11ffa	-96.562454
74	0xc29f98b8	-79.79828
75	0xc280d582	-64.41701
76	0x41f248a8	30.285477
77	0x42e131a4	112.596954
78	0xc2c97d23	-100.74441
79	0xc2baacc2	-93.33742
80	0xc298ea46	-76.457565
81	0x41e8027f	29.001219
82	0x42ae5191	87.15931
83	0xc2b869a5	-92.20634
84	0x420afdaf	34.747738
85	0xc2ab85b6	-85.761154
86	0x41877d0b	16.936056
87	0x42819471	64.789925
88	0x425b1183	54.7671
89	0xc2a008d0	-80.01721
90	0xc29f64cb	-79.69686
91	0xc21f83c2	-39.87867
92	0x41a09f82	20.077885
93	0x41c1945d	24.197443
94	0xc26f78ac	-59.867844
95	0xc2bf750e	-95.72862
96	0xc117853e	-9.47003
97	0xc2f42038	-122.06293
98	0x42cec787	103.3897
99	0x425ac389	54.690952
100	0x429c1692	78.04408
101	0xc1e6a476	-28.830303
102	0xc2fcf850	-126.484985
103	0x42c06025	96.18778
104	0xc2c49d5c	-98.30734
105	0x42d2740b	105.22665
106	0x42af4b2a	87.646805
107	0x4297fa7c	75.98923
108	0xc23ed9ae	-47.712578
109	0xc30caa56	-140.66537
110	0x42cb83c2	101.75734
111	0x42d4adee	106.33971
112	0x42a82c4b	84.08651
113	0xc20f790f	-35.86822
114	0xc2cd74ce	-102.728134
115	0x42c71330	99.537476
116	0xc2721a64	-60.525772
117	0x42b5a9b4	90.83145
118	0xc2184886	-38.070824
119	0xc2d7d218	-107.91034
120	0xc287a0ce	-67.81407
121	0x42a9bbe1	84.86695
122	0x42b08256	88.25456
123	0x422bc53a	42.942604
124	0xc2270f3e	-41.764885
125	0xc22bb25d	-42.924183
126	0x4280440e	64.13292
127	0x42c9f777	100.98333
128	0xc159e7f1	-13.619126
129	0xc2d69777	-107.29583
130	0x42c8fd82	100.49513
131	0x425568dc	53.3524
132	0x42996b6c	76.70981
133	0xc200db06	-32.21389
134	0xc2f61a71	-123.05164
135	0x42c35078	97.657166
136	0xc2ba24f8	-93.072205
137	0x42d2bd34	105.36954
138	0x42ae9aae	87.30211
139	0x42922787	73.0772
140	0xc233e4a9	-44.9733
141	0xc2f51b10	-122.55286
142	0x42cc6861	102.203865
143	0x42d3b917	105.8615
144	0x42a67dc7	83.24566
145	0xc21af610	-38.740295
146	0xc2ca5b88	-101.17877
147	0x42c5d669	98.91877
148	0xc2829fb5	-65.31193
149	0x42b7b183	91.8467
150	0xc21939ea	-38.306557
151	0xc2cdaa29	-102.832344
152	0xc28934ef	-68.603386
153	0x42a99971	84.79969
154	0x42aaeb0a	85.45906
155	0x42254e45	41.326435
156	0xc213e372	-36.972115
157	0xc22d8b4e	-43.38604
158	0x42744b91	61.073795
159	0x42c2bb28	97.36554
160	0xc13f8319	-11.969506
161	0xc2a942bf	-84.63036
162	0x42bfbc83	95.86819
163	0x4248b1f2	50.173775
164	0x42904964	72.14334
165	0xc20015f4	-32.02144
166	0xc2d31228	-105.53546
167	0x42bce9c3	94.456566
168	0xc2ad5c03	-86.67971
169	0x42c8d572	100.416885
170	0x42a594fd	82.79099
171	0x429069b9	72.20649
172	0xc2350ebb	-45.264385
173	0xc302f963	-130.97417
174	0x42c6df5a	99.43623
175	0x42c4fc74	98.49307
176	0x429aec42	77.46144
177	0xc2105257	-36.08041
178	0xc2bc5ed4	-94.18521
179	0x42c06ba1	96.21021
180	0xc24d872c	-51.382004
181	0x42c14058	96.62567
182	0xc20ccfcd	-35.20293
183	0xc2a40889	-82.01667
184	0xc2912b65	-72.584755
185	0x42a0ab8c	80.33505
186	0x42a5e9a0	82.9563
187	0x421e55a2	39.583626
188	0xc223e4ba	-40.973366
189	0xc21238ca	-36.555458
190	0x427868ee	62.10247
191	0x42be363c	95.10593
192	0x4117cad3	9.487018
193	0x427059df	60.087765
194	0xc2babee6	-93.37285
195	0xc240ef88	-48.233917
196	0xc286a61c	-67.32443
197	0x419a3669	19.276567
198	0x42ce223b	103.06686
199	0xc2c1bb45	-96.86576
200	0x42930781	73.514656
201	0xc2c0f157	-96.47137
202	0xc29ee03e	-79.43797
203	0xc2854011	-66.62513
204	0x41f57ea6	30.68684
205	0x42dd526f	110.661
206	0xc2cb4f44	-101.654816
207	0xc2b906b3	-92.513084
208	0xc297a339	-75.818794
209	0x41dfac3d	27.9591
210	0x42aede51	87.43421
211	0xc2b782fd	-91.75584
212	0x420b09d2	34.75959
213	0xc2ae7acd	-87.239845
214	0x41852435	16.64268
215	0x428208d7	65.017265
216	0x425a2544	54.536392
217	0xc29fe862	-79.95387
218	0xc2a0670e	-80.20128
219	0xc21f1e08	-39.779327
220	0x419f4da8	19.912918
221	0x41c10d65	24.13154
222	0xc2712b3f	-60.292233
223	0xc2bd390a	-94.611404
224	0x40e3593e	7.104644
225	0x427d1cbe	63.27807
226	0xc2b7bb7a	-91.866165
227	0xc23ccb3e	-47.19848
228	0xc287942e	-67.78941
229	0x41959573	18.697973
230	0x42be878b	95.26473
231	0xc2bf109d	-95.53245
232	0x42890540	68.510254
233	0xc2bd17f3	-94.546776
234	0xc29ef1c9	-79.47224
235	0xc2839ad1	-65.802376
236	0x41f2185c	30.261894
237	0x42d961a2	108.69069
238	0xc2c6fe90	-99.49719
239	0xc2b5963c	-90.79343
240	0xc29abef8	-77.372986
241	0x41dc54c2	27.541386
242	0x42ac2d5e	86.08861
243	0xc2b64bd5	-91.14811
244	0x420430fb	33.047832
245	0xc2a84291	-84.13001
246	0x41811adf	16.13812
247	0x4283e82d	65.95347
248	0x4258611e	54.09484
249	0xc29f7118	-79.72089
250	0xc2a3e10f	-81.93957
251	0xc2326be1	-44.60535
252	0x41a1684d	20.175928
253	0x41cf377e	25.902096
254	0xc2805eb3	-64.18496
255	0xc2beb8a6	-95.36064

inter_layer.bias f4 [32]
0	0x42ab1b6c	85.55356
1	0x42a6e0ea	83.439285
2	0xc2ac5367	-86.162895
3	0x42a8783d	84.23484
4	0x42a10284	80.50491
5	0x4295429e	74.63011
6	0xc2aac6ed	-85.38853
7	0xc2ab1390	-85.53821
8	0xc2ab3407	-85.601616
9	0x42a2930f	81.287224
10	0x429dac10	78.83606
11	0xc2a7977e	-83.79588
12	0x42a24fc4	81.15579
13	0xc2ac11db	-86.034874
14	0xc267a171	-57.907658
15	0x4292048f	73.0089
16	0xc2a728d6	-83.57976
17	0xc2a714b1	-83.54041
18	0x42a9adb3	84.83926
19	0xc2ad1fac	-86.56186
20	0x42a7b1b6	83.84709
21	0xc2a7d71a	-83.92012
22	0x42a82991	84.081184
23	0xc2a76648	-83.69977
24	0x42aa81ff	85.2539
25	0x42a9c7cb	84.89022
26	0xc2a94720	-84.638916
27	0x42a0189c	80.048065
28	0xc2aa000c	-85.00009
29	0xc2a8e3c6	-84.44487
30	0xc2a969a4	-84.70633
31	0x42a5b99d	82.862526

final_layer.weight f4 [1, 32]
0	0x4302d88e	130.84592
1	0x4300dd5e	128.86472
2	0xc2adcbc5	-86.89799
3	0x42fcf0ab	126.470055
4	0x43005748	128.34094
5	0x42e424ed	114.07212
6	0xc2ae5744	-87.17044
7	0xc2b0f481	-88.47755
8	0xc2bc06e3	-94.01345
9	0x42f414b4	122.040436
10	0x42f45419	122.16425
11	0xc2ad3d94	-86.62027
12	0x42fd63fe	126.6953
13	0xc2b05128	-88.15851
14	0xc2ac49f2	-86.144424
15	0x42ee5c93	119.18081
16	0xc2bb5383	-93.66311
17	0xc2b0bc5c	-88.36789
18	0x42fc96cf	126.29455
19	0xc2afb2b2	-87.849014
20	0x4301ec92	129.9241
21	0xc2b0dcfa	-88.431595
22	0x42f62b21	123.084236
23	0xc2b5a9c7	-90.8316
24	0x430186a2	129.52591
25	0x42f94e63	124.6531
26	0xc2b73c5c	-91.61789
27	0x42fe4b8a	127.14754
28	0xc2ad5648	-86.66852
29	0xc2b7b378	-91.850525
30	0xc2b13ae8	-88.61505
31	0x42ffa74c	127.82675
