continuous cartpole/rl_model/train_2022-02-16T23:10:08.409859/model/179090_actor.pt (torch, 6999 bytes, 5 tensors)

first_layer.weight f4 [32, 4]
000000 ac d3 aa be 8e c0 ed 3f b1 0d 8b 40 ed 43 8c bf
       -0.33364618 1.8574388 4.3454213 -1.0958229
000010 0a 13 7f 3f 2c 46 40 be 0d 7c 26 c0 e1 8f c2 be
       0.99638426 -0.18776768 -2.6013215 -0.38000396
000020 a3 e8 36 c0 91 4a c4 bf 6a 80 54 41 8f 89 d6 3f
       -2.857949 -1.5335256 13.281351 1.676073
000030 8b 08 62 c1 c0 70 0d c0 3c 56 33 41 d7 f0 c1 3f
       -14.127086 -2.2100067 11.208553 1.5151623
000040 5a 77 20 be 91 06 cd be 5b 71 29 3f c6 7a c5 be
       -0.15670529 -0.40044072 0.6618859 -0.3857023
000050 17 3e 26 3f f2 4e d5 3f 27 a2 f3 3d ff 04 d1 bf
       0.6493849 1.6664717 0.118961625 -1.632965
000060 b0 66 24 3f 9c b4 bb 3f 74 ff f2 3f 49 76 37 be
       0.6421919 1.4664493 1.8984208 -0.17916216
000070 fb af d5 bf 8e 53 2d bf 8b cb 88 c0 be d2 0f bf
       -1.669433 -0.6770562 -4.2748466 -0.5618094
000080 cf 7f 2a c0 88 b6 4b 40 e7 e2 f4 40 1d a3 a1 bf
       -2.6640508 3.1830158 7.652698 -1.2627903
000090 30 97 9e bf 10 b8 c9 bf a5 39 20 c0 eb 75 23 3f
       -1.2389889 -1.5759296 -2.5035183 0.63851804
0000a0 50 15 9c c0 a0 bc 13 3f 97 de cf 40 00 44 3d c0
       -4.8776016 0.57709694 6.4959216 -2.9572754
0000b0 86 cf a2 bf ae 85 95 3e b8 30 c4 40 f4 0f da 3f
       -1.2719581 0.29203552 6.130947 1.7036119
0000c0 60 cc a0 bf 70 1b b4 3f f4 96 ae 40 16 d4 d1 bf
       -1.256237 1.4070873 5.455927 -1.6392848
0000d0 bb 57 a3 40 4a b8 0d 40 11 65 b0 c0 ae c3 b9 3f
       5.1044593 2.214373 -5.512337 1.4512842
0000e0 fd b6 c1 bf 65 5d 57 3f c3 4d 97 40 67 84 ba bf
       -1.5133969 0.84126884 4.7282424 -1.4571656
0000f0 5f 91 ca 3f 14 86 2f 40 52 a3 42 c0 a8 d4 4f c0
       1.5825614 2.7425585 -3.0412183 -3.2473545
000100 10 9c 82 3d 8f f1 00 40 e2 01 da 3e 68 ee 35 c0
       0.06377423 2.0147436 0.4257956 -2.8426762
000110 ac 20 b6 3e b4 54 46 40 cf 95 10 c0 ee 29 de be
       0.35571802 3.0989199 -2.2591436 -0.43391365
000120 7c 31 b1 3f ad 0b b9 3f d7 8d 99 bf 39 49 1f c0
       1.3843226 1.4456688 -1.1996411 -2.4888442
000130 7b 65 f0 3d b9 10 3c 3f ea 96 7e 3f a9 8a 0d be
       0.11738106 0.73463017 0.99449027 -0.13822426
000140 f1 e5 75 40 70 3d ff 3f fb b1 0b 41 dc 9b c4 3f
       3.8421595 1.9940624 8.730952 1.5360065
000150 18 04 04 c0 ca 24 20 40 d4 7d b6 40 fb ee 8b bf
       -2.0627499 2.5022454 5.70286 -1.0932306
000160 80 1b 1e 3d e7 76 e8 be 4a 2f 8f bf db 88 82 be
       0.038600445 -0.45403215 -1.1186306 -0.25495037
000170 50 e1 66 40 b4 e6 ff 3d 26 53 18 bf bf ae 1b bf
       3.607502 0.12495175 -0.59501874 -0.60813516
000180 12 04 0b 40 0f f4 10 bf 24 f2 16 c1 6e 8d 52 be
       2.1721234 -0.56622404 -9.434116 -0.20561764
000190 28 2b 4b 3f f5 a5 b4 3f e6 86 eb 3f 34 07 e2 bf
       0.79362726 1.4113146 1.8400543 -1.7658448
0001a0 cd 13 26 40 05 da 8a 3c ea f4 0d c0 14 62 b0 3f
       2.5949585 0.016949663 -2.2180734 1.3779931
0001b0 61 cb 86 c0 cb ae 7a be 2e 62 04 bf c4 be 6d 3f
       -4.2123265 -0.2448074 -0.5171231 0.9286921
0001c0 4c 4f ea 3e 5a cf ef 3f c9 81 04 c0 fc 77 0a c0
       0.45763624 1.8735154 -2.0704215 -2.1635733
0001d0 fa a6 a8 bf 67 6f 7b 3f 8d 1e be 40 7f 00 fa bf
       -1.3175957 0.9821686 5.9412293 -1.9531401
0001e0 d3 70 d5 40 54 09 97 3f 5d 68 8a bf 42 15 84 3f
       6.6700225 1.1799722 -1.0813099 1.0318987
0001f0 1a f6 af be b7 90 5a 3e 45 64 b1 bd 3a 86 96 be
       -0.34367448 0.21344267 -0.08661703 -0.29399282

first_layer.bias f4 [32]
000000 f4 56 77 bf 2f 73 70 3f c8 49 d1 c0 f6 c6 01 41
       -0.96617055 0.93925756 -6.5402565 8.111074
000010 a8 1c 0f c0 ab 20 9d 3f 76 0d ed bf 23 b3 c4 3f
       -2.236124 1.2275594 -1.8519733 1.5367168
000020 42 36 54 3f 28 06 35 40 18 61 1f 40 dd 0d e6 c0
       0.8289529 2.8285007 2.4903011 -7.1891923
000030 d1 d3 b4 3f 69 63 c1 c0 f5 c6 a8 3f 96 92 30 40
       1.4127141 -6.043385 1.3185717 2.758947
000040 1c 32 08 40 4f 7f 36 40 ea f8 67 3f 9a f4 5a 40
       2.1280584 2.8515203 0.9061419 3.4211793
000050 15 77 97 c0 61 ae 36 3f 57 b9 d4 3f 85 b8 1a c0
       -4.7332864 0.7135983 1.6619061 -2.4175122
000060 40 ce 96 c0 6e f2 10 40 f7 04 45 c0 61 67 74 40
       -4.712677 2.2647967 -3.078428 3.8188097
000070 28 6c e9 3f a7 52 12 40 75 97 eb c0 a0 c6 08 40
       1.8236132 2.2862947 -7.3622384 2.137123

inter_layer.weight f4 [32, 32]
000000 24 8b f1 bf 92 68 8b c0 bd de 89 be e6 35 92 c0
       -1.8870587 -4.356515 -0.26927748 -4.5690794
000010 0a c5 ea 3d 0c f9 60 c0 4d 74 2b bf a7 8d e6 3f
       0.114633635 -3.5152006 -0.66974336 1.8011979
000020 81 e6 fc c0 82 48 d5 3e 3a 0a 6b 3f 33 cb ca 3f
       -7.9031377 0.41656882 0.9181248 1.5843261
000030 7f 8e 13 3f f0 e7 2b c1 2e c4 0d 3f b0 c4 11 c0
       0.57639307 -10.744125 0.5537747 -2.2776299
000040 9b b2 0f c0 bd c9 81 be 57 de e6 bd 9e 02 7c c0
       -2.2452762 -0.25349227 -0.11272877 -3.9376597
000050 74 8e 17 c1 f6 2f 87 bf 5b 99 34 bf 93 ab c8 3f
       -9.472279 -1.0561512 -0.705465 1.567736
000060 cc 95 e7 bf 73 ae a4 bf 67 d8 71 c0 b2 7a ae 3f
       -1.8092589 -1.2865738 -3.7788332 1.3631194
000070 f3 eb 55 3f 84 55 e5 3f da f0 16 c1 23 e1 a5 3f
       0.83563155 1.7916722 -9.433802 1.2959331
000080 d7 91 0c bf 26 4c 0d 3f b4 fb 42 c0 6f 31 f3 3f
       -0.54910034 0.5519432 -3.0466127 1.8999461
000090 df 7b f5 c0 0a 98 88 c0 22 16 a1 40 9f a2 0a 3f
       -7.671371 -4.2685595 5.0339518 0.5415439
0000a0 12 f2 30 40 b8 b3 cf be 0d 70 50 40 51 a2 67 c0
       2.7647748 -0.40566802 3.256839 -3.619282
0000b0 70 00 82 3f e6 9e 8e be 6b be 2b 3f a8 81 c6 3e
       1.0156384 -0.27855605 0.6708743 0.38770795
0000c0 de 69 f9 be 8e 77 d3 3f 13 f1 49 c0 97 fb bb 40
       -0.48713583 1.652086 -3.155339 5.8744617
0000d0 6d 92 2a c0 6f 7c 19 3f 99 c3 80 40 c5 49 74 c0
       -2.6651871 0.59955496 4.0238767 -3.8170025
0000e0 9e 6e 42 bf b7 d1 ed 3f 34 c3 17 c0 6b b8 87 40
       -0.7595004 1.8579625 -2.3712893 4.241262
0000f0 04 26 0b c0 48 34 02 be 3c 82 06 c1 12 9f 14 c0
       -2.1741953 -0.12715256 -8.4067955 -2.322209
000100 1e ae 3f bf 28 2b c2 c0 8a 93 01 c0 fb a7 7e bf
       -0.74875057 -6.067768 -2.02463 -0.9947507
000110 31 ad 26 40 ab 85 03 bd 86 f4 a2 c0 bf b0 33 40
       2.6043208 -0.032109898 -5.092349 2.8076627
000120 af 80 92 c0 e1 3f 9f be a7 73 c8 3d d8 cc 4f 3f
       -4.5782084 -0.31103423 0.09787684 0.8117194
000130 32 e0 45 c0 3c fe 97 c0 c1 fa 29 3f de 61 9a bf
       -3.0918088 -4.7497845 0.66398245 -1.2061117
000140 5e 4f 98 c0 60 6c 1f 40 67 0c c8 be 7e 44 4d 3f
       -4.7596884 2.4909897 -0.39071962 0.80182636
000150 e4 4f 39 c0 a1 34 96 bd d2 7d 6b c0 52 9c 8e c0
       -2.8955011 -0.07334257 -3.6795545 -4.456582
000160 ff ef cb c0 46 a6 39 40 87 cb e3 bf a1 98 4d c0
       -6.3730464 2.9007735 -1.7796487 -3.2124407
000170 e6 5f b2 be 31 ad 17 bd 04 e0 84 c0 4b f3 71 40
       -0.3483879 -0.037030403 -4.1523457 3.7804744
000180 2c 26 ff be ea 57 ae c0 75 8b e5 3f 9f 02 78 c0
       -0.4983381 -5.4482317 1.7933184 -3.87516
000190 b6 01 29 40 4d a2 63 bf 1f 01 83 bf 5b 18 c4 3e
       2.6407294 -0.88919526 -1.0234717 0.38299832
0001a0 aa 97 9c bf 0a 11 06 bf 51 8b 05 3e 17 82 47 c0
       -1.2233784 -0.5236975 0.13041426 -3.117315
0001b0 40 7b 58 3f 4d cb 25 c1 1e 48 a9 3f b9 46 aa 3d
       0.84563065 -10.362134 1.3225133 0.083142705
0001c0 ac 1c 3b c0 00 ed 83 bf 72 a7 06 3f 2b 17 08 bf
       -2.923625 -1.0306702 0.5259925 -0.5316035
0001d0 e4 4f 11 c0 0b 7e c6 3f 88 79 25 c0 5c 39 18 c0
       -2.2705011 1.5507215 -2.5855427 -2.378501
0001e0 32 41 f1 c0 29 ba 23 bf a7 50 40 bf 78 79 d8 bd
       -7.5392084 -0.6395593 -0.75123066 -0.10570043
0001f0 f4 c3 58 3f 6a f5 d4 3f 51 99 40 c0 a9 5b 46 bf
       0.84674 1.6637394 -3.0093577 -0.7748361
000200 8a f5 f3 bf ab df 67 be 2a 9b cb 3f de 46 14 40
       -1.9059308 -0.22643916 1.5906727 2.3168254
000210 00 89 96 3f 72 c1 f9 3f 4b ab 17 c0 c6 d1 d6 3e
       1.1760559 1.951216 -2.36983 0.4195692
000220 2a 6a ca be 7a 43 86 3f 8a 82 54 c0 0c 22 a8 3d
       -0.39534122 1.0489342 -3.3204675 0.08209619
000230 59 33 ee 3f 33 2b 5d c0 a0 db 9b 40 32 8e d5 3e
       1.860942 -3.4557617 4.8705597 0.4171005
000240 cc c0 2e c0 07 ad 98 3f 0c 8d 5e 3e 36 c0 39 40
       -2.7305174 1.1927804 0.21733493 2.9023566
000250 48 1a 94 c0 dd ca 5f 40 89 53 ff bf 8e f6 84 bf
       -4.628208 3.4967568 -1.9947368 -1.0387743
000260 a6 a1 a5 c0 54 9e 9e bf ff 40 99 bf 79 51 db be
       -5.1759825 -1.2392068 -1.197296 -0.42835596
000270 6b d0 e0 bf cb 3b 74 3f 03 67 1a bf fc e8 97 40
       -1.7563604 0.95403737 -0.60313433 4.7471905
000280 a3 a1 82 3f b4 68 8b 3f 27 02 18 c0 79 2a a8 3f
       1.0205578 1.0891328 -2.3751314 1.3137962
000290 a1 26 44 c0 18 cf 1b 3e 68 a9 8c c0 d1 c2 19 c0
       -3.0648577 0.15215719 -4.3956795 -2.4025156
0002a0 ec 00 f8 bf 8c 2c be 3f 4d 91 3f 3f ae 5a 08 c0
       -1.9375281 1.4857345 0.74831086 -2.1305346
0002b0 85 ec 35 40 b5 a0 88 bf a2 b2 27 bf 67 86 2f 40
       2.842561 -1.0674044 -0.6550695 2.7425783
0002c0 6d 17 2d 3c 59 99 99 3f dd 61 57 bf 07 2a 7f 3f
       0.010564667 1.1999923 -0.841337 0.99673504
0002d0 f3 fa 93 bd 74 eb ed bf 5a c5 9e 40 9b 23 cd c0
       -0.07225599 -1.858748 4.961591 -6.4105964
0002e0 89 c5 a7 40 65 12 04 40 3e e9 56 bf 0a 40 2c 40
       5.242863 2.0636227 -0.8394965 2.6914086
0002f0 d1 a2 ae bd c1 f1 9e be 2a 45 de c0 0b ab fb bf
       -0.085271485 -0.3104382 -6.945943 -1.9661573
000300 95 10 cd 3f 61 a7 62 c0 2c 76 25 3f 39 3a 3b 40
       1.6020685 -3.541466 0.6463344 2.9254286
000310 3f 53 8f 40 72 4e 26 3f 97 01 70 be a6 18 03 40
       4.478912 0.6496345 -0.23438106 2.0483794
000320 67 bb 6f 3f c6 e4 29 3f 14 1d bf 3f 9f da c6 bf
       0.9364533 0.66364706 1.4930749 -1.5535468
000330 62 47 e5 bf 2e 1f b1 c0 3b b4 64 40 ff 22 8c bd
       -1.7912409 -5.535056 3.5735004 -0.068426125
000340 aa da 9d c0 7a 1c fc 3e c7 e9 66 3f 9c ef bb 3e
       -4.9329424 0.49240476 0.90200466 0.36706245
000350 c9 79 d5 3e 34 98 0b 40 b6 cb e3 bf 0f ae b8 bf
       0.41694477 2.1811647 -1.7796543 -1.4428118
000360 47 41 37 c1 5d 14 f7 3f 75 6f 3e bf 89 83 a3 3f
       -11.453437 1.9303089 -0.7438882 1.2774516
000370 4e c1 4b 3f 19 9e f8 3f 87 a3 c9 c0 14 d4 20 40
       0.79591835 1.9423248 -6.301212 2.5129442
000380 3c 45 ab bd 6c 80 38 40 a7 1d 0f c0 3b dd aa c0
       -0.08362815 2.8828382 -2.2361848 -5.3395057
000390 da 8d c9 bf c0 25 1f 3d a0 92 8b 3f 68 ba 1e c0
       -1.5746415 0.03885436 1.0904121 -2.4801273
0003a0 fb d0 a7 3f 05 26 bd c0 60 5b 16 3f c9 6c ff 3d
       1.3110651 -5.910891 0.5873318 0.12471921
0003b0 2e 05 3e 3f f3 a0 f8 40 06 7e af bf 8d be 26 3f
       0.74226654 7.769647 -1.3710334 0.6513451
0003c0 0c 63 a8 3f 2b 69 31 bd da 49 53 3e 27 9f 95 3f
       1.3155227 -0.043313187 0.20633641 1.1689194
0003d0 a2 41 92 bf b0 c6 5a 3d c5 6d 5b c0 6a fd a4 3f
       -1.142628 0.05341214 -3.4285748 1.2889836
0003e0 a7 e1 b4 40 48 3a a7 be 6b c5 c2 bf bb 60 86 c0
       5.6525455 -0.32661653 -1.5216497 -4.199308
0003f0 c5 da b9 3d 0f d0 47 bf 06 b0 86 bf ad 3f 78 bf
       0.0907493 -0.7805185 -1.0522468 -0.9697216

inter_layer.bias f4 [32]
000000 21 3e d0 3d c9 d5 30 40 fc 9b 7d be 29 8a 8d 3f
       0.101681 2.7630484 -0.24766535 1.1057788
000010 6e 5b 55 40 d9 58 5e 40 dd 5e 73 40 5e 7d b6 bf
       3.3337054 3.4741728 3.802665 -1.4257009
000020 e3 37 bf bd 08 b5 ba be 4c 2e 99 3e b3 d3 73 be
       -0.093368314 -0.3646624 0.29918134 -0.23811226
000030 ae 9e 0d bf 66 8b 51 be b4 b3 33 be 81 d2 f4 3e
       -0.5532025 -0.20463333 -0.1754902 0.47816852
000040 67 59 71 bf 6b 6d cb bf 41 41 96 3f e6 c3 ae bf
       -0.9427704 -1.5892767 1.1738664 -1.3653533
000050 59 89 7e bf 74 71 63 3f fd 8f c8 be f8 c2 f9 be
       -0.99428326 0.8884499 -0.39172354 -0.48781562
000060 46 53 dc 3e 45 a5 6c bf ec bd c4 3f 15 cd 5e bf
       0.43032283 -0.9243968 1.537046 -0.8703168
000070 2a eb 68 bd 37 6a ed 3f 1c a1 96 bf 19 5f 30 40
       -0.056864895 1.8548039 -1.1767917 2.7558043

final_layer.weight f4 [1, 32]
000000 7a 5c b9 c0 10 b6 fd 40 22 13 14 c1 ef 89 db c0
       -5.7925386 7.9284744 -9.254671 -6.8605876
000010 1e 7a fc c0 93 5b 05 41 d7 f9 ad c0 37 fd 78 40
       -7.889907 8.334857 -5.436748 3.890455
000020 6c ac 94 c0 c2 f2 d7 c0 00 c2 2d 40 2c 36 19 40
       -4.6460476 -6.7483835 2.7149658 2.3939314
000030 e2 c0 a2 c0 30 09 80 c0 fc 5d 09 40 c8 1e 2a 41
       -5.0860453 -4.0011215 2.1463614 10.632515
000040 3d 45 63 40 4e dc 31 40 c2 7c 01 c1 cc d4 3f 40
       3.551101 2.7790713 -8.092958 2.997363
000050 43 f1 ad 40 5c f0 86 c0 3c cf b5 40 f4 f0 1c c1
       5.435701 -4.2168407 5.681547 -9.808826
000060 1c 5a 6d c0 50 cf 7c c0 e6 35 92 c0 62 59 c7 c0
       -3.7086248 -3.9501534 -4.5690794 -6.229661
000070 10 22 3e 40 e2 4a 1f c0 7f 92 17 41 37 74 99 c0
       2.970829 -2.4889455 9.473266 -4.7954364
