continuous cartpole/rl_model/train_2022-02-16T23:10:08.409859/model/2700_actor.pt (torch, 6999 bytes, 5 tensors)

first_layer.weight f4 [32, 4]
0	0x3f235454	0.6380055
1	0x3f263a95	0.6493314
2	0xc03433b0	-2.8156548
3	0xbfa2e0f6	-1.2724903
4	0x3f814c1b	1.010135
5	0x3d912d34	0.070887
6	0x3cdbc638	0.026827917
7	0xbf38f95d	-0.722555
8	0xc01edfd7	-2.482412
9	0x3e733956	0.2375234
10	0x403b5361	2.926964
11	0x3f04d3bc	0.5188558
12	0x3fd3e07c	1.6552882
13	0x3fbcba9b	1.4744447
14	0x400bcd54	2.1844072
15	0x3e8dbe80	0.27684402
16	0x3f0b3f36	0.5439333
17	0x3ea87ded	0.32908574
18	0x3ff0dcec	1.881742
19	0xbd0db618	-0.034597486
20	0x3d1994b0	0.037495315
21	0x3c21b1d6	0.00986906
22	0xc05d90ae	-3.4619555
23	0xbf9606ec	-1.1720862
24	0xbfac5d80	-1.3466034
25	0x3efc139a	0.49233705
26	0x40464155	3.0977376
27	0x3f3e43c5	0.7432216
28	0x3f17cb73	0.59294814
29	0xbe6c92cb	-0.23102872
30	0xc06d9ca8	-3.7126865
31	0xbf815a56	-1.0105693
32	0xbe7a3e53	-0.24437837
33	0xbebf12fc	-0.3731917
34	0x40664a4c	3.5982847
35	0x3ffeefd2	1.9916937
36	0x3f233f15	0.6376813
37	0x3da40b6e	0.080099925
38	0x3f06e216	0.5268873
39	0xbf201c69	-0.6254335
40	0xbf1f7621	-0.62289625
41	0xbf6a3a14	-0.9149487
42	0x40407bb9	3.0075514
43	0x3fee7dec	1.8632178
44	0xbfd095bc	-1.6295695
45	0xbf1d0223	-0.61331385
46	0x3ead2ec5	0.33824745
47	0x3f38cd22	0.7218801
48	0x3f5556ec	0.8333576
49	0x3f46533b	0.7747075
50	0x40662bb8	3.5964184
51	0x3f702bdc	0.93816924
52	0x3f942c50	1.1576023
53	0x3fca9e50	1.5829563
54	0x4025559a	2.5833497
55	0x3e268746	0.1626254
56	0x3ec74e01	0.389267
57	0x3f6acbbe	0.91717136
58	0x404005e3	3.0003593
59	0x3f286ef6	0.6579431
60	0x3fe0fd74	1.7577348
61	0x3fd64b9c	1.6741824
62	0x40123ae6	2.2848449
63	0x3e1b37f6	0.15158066
64	0xbff9722a	-1.9487965
65	0xbe92cc48	-0.2867148
66	0x406b85fe	3.6800532
67	0x3f412b65	0.7545684
68	0x3f4b8f09	0.7951513
69	0x3f7be497	0.98395675
70	0xc0388ce5	-2.8835995
71	0xbfa776a4	-1.3083081
72	0x3f2a8dc0	0.66622543
73	0xbe501536	-0.20320591
74	0xc05b11fc	-3.4229727
75	0xbf8ddf6d	-1.1083809
76	0x3f85b87f	1.0446929
77	0x3f6d1595	0.92611057
78	0x400e0185	2.2188427
79	0xbda0b5a6	-0.07847147
80	0x3fd3b001	1.6538087
81	0x3f7e53b9	0.993465
82	0x405564f0	3.3342857
83	0x3e04bd34	0.129628
84	0x3f7147ae	0.9425
85	0x3f7ead63	0.9948332
86	0xc031d735	-2.7787602
87	0xbf374109	-0.7158361
88	0x3f01e00d	0.507325
89	0x3f8cdf14	1.1005578
90	0x403bc3eb	2.933833
91	0x3f801558	1.0006514
92	0xbfb5324f	-1.4155978
93	0xbedad016	-0.42736882
94	0x40229876	2.5405555
95	0x3f08a0cb	0.5337035
96	0x3fd5becd	1.6698853
97	0x3eebee6b	0.46080336
98	0xc089e718	-4.3094597
99	0xbfc2814d	-1.519571
100	0x3fab2b84	1.3372655
101	0x3ed2c51e	0.41166013
102	0xc03d8356	-2.961141
103	0xbe06f74e	-0.13180277
104	0x3ff83671	1.9391614
105	0x3fac3a3b	1.345527
106	0x3fa1cecd	1.2641236
107	0xbfa70ea4	-1.3051343
108	0x3f56fbe4	0.83978105
109	0x3f408e60	0.75217247
110	0x402cfb21	2.7028277
111	0x3f73e462	0.9527036
112	0x3f2f651d	0.6851366
113	0x3f664231	0.8994475
114	0xc03880ee	-2.8828692
115	0xbf763236	-0.96170366
116	0xbf4efada	-0.8085152
117	0xbffd6af1	-1.9798261
118	0x3e7a3068	0.24432528
119	0x3f38e905	0.7223056
120	0xbf2f20db	-0.6840951
121	0x3f93952c	1.1529899
122	0x4068fcfc	3.640441
123	0x3f4564d3	0.7710697
124	0x3fc5643d	1.5421215
125	0xbd0ed44a	-0.034870423
126	0xc09800b0	-4.750084
127	0xbfc2e7be	-1.5226972

first_layer.bias f4 [32]
0	0x3f8b74a3	1.089497
1	0x3ebd0b64	0.36922753
2	0xc0000160	-2.000084
3	0x3fb1fd29	1.3905383
4	0xbf309c72	-0.68988717
5	0x3f5460f7	0.82960457
6	0xbfdb876a	-1.71507
7	0x3f6d50fa	0.92701685
8	0xbf7981e7	-0.9746384
9	0x3f02e907	0.5113682
10	0xbfa8dd2e	-1.3192499
11	0xbfb94bf8	-1.4476309
12	0x3fb4a74e	1.4113557
13	0x3fae1721	1.3600808
14	0x3f27e95c	0.65590453
15	0x3fc54731	1.5412351
16	0xbf804528	-1.0021105
17	0x3f2283fe	0.63482654
18	0x3f74417e	0.95412433
19	0x3f6a4706	0.91514623
20	0x3f95e074	1.1709123
21	0x3f0242fd	0.50883466
22	0x3fbf8d33	1.4964966
23	0xbfb41b04	-1.4070745
24	0x3f9b62fc	1.2139583
25	0x3fded9ce	1.7410219
26	0x3fa142a5	1.2598463
27	0x3f95d6ab	1.1706136
28	0x3f415ea4	0.75535035
29	0x3f5fb5ef	0.87386984
30	0x3f45b5f3	0.7723076
31	0xbdd0a19b	-0.10187074

inter_layer.weight f4 [32, 32]
0	0x3f1726ab	0.5904338
1	0xbf9049d8	-1.1272535
2	0xbfab0bd5	-1.3362986
3	0x3e2e9af0	0.17051291
4	0x3efe18aa	0.49628192
5	0x3c929d3d	0.017897243
6	0xc003402b	-2.0507915
7	0x3ebb8b07	0.36629507
8	0xbf2a9b09	-0.66642815
9	0xbf6231ae	-0.88357055
10	0xbc880ca3	-0.016607588
11	0xbf2a2e9f	-0.6647739
12	0xbd4e8b02	-0.050425537
13	0xbdc5b018	-0.09652728
14	0xbed722d5	-0.42018762
15	0xbdf3a0fa	-0.11895938
16	0xc00b3bc7	-2.1755235
17	0x3ee7cf37	0.4527528
18	0x3e51ac65	0.2047592
19	0xbca3045a	-0.019899536
20	0x3d40f19e	0.047105424
21	0x3ed88a2b	0.42292914
22	0xbe92703d	-0.28601256
23	0xbfab53e6	-1.3384979
24	0x3f1e36d1	0.61802393
25	0x3f4244e2	0.75886357
26	0x3f31e7bb	0.6949422
27	0xbdaa7508	-0.08323103
28	0x3f1e2b97	0.6178526
29	0x3fc3ba45	1.529122
30	0xc00ea40b	-2.2287624
31	0x3f412266	0.7544311
32	0x3d24b349	0.040210042
33	0x3eabbb3e	0.33541292
34	0xbebbaa09	-0.36653164
35	0x3f6670e2	0.90015996
36	0xbf73c4ff	-0.9522247
37	0xbf1f76a3	-0.622904
38	0x3e1cf847	0.15329085
39	0xbf7c0f41	-0.98460776
40	0x3f5ba99a	0.85805666
41	0xbecf4d68	-0.40488744
42	0x3f32e88f	0.69886106
43	0xbe9d5ee3	-0.30736455
44	0x3fd13bbd	1.6346356
45	0x3f755368	0.9583039
46	0x3f9e4232	1.2363951
47	0x3f396c3a	0.72430766
48	0xbdb4d9ea	-0.08830626
49	0xbdc6ba2d	-0.09703479
50	0xbf1bd307	-0.6086888
51	0x3f2320fe	0.6372222
52	0x3f68432b	0.9072749
53	0x3e9338b3	0.28754196
54	0x3fb2b4f4	1.3961473
55	0xbc7374aa	-0.014859358
56	0xbdf0bc85	-0.11754707
57	0x3e8aee74	0.2713505
58	0x3ed39f0f	0.4133229
59	0x3fb0520e	1.3775041
60	0x3ea11c70	0.3146701
61	0xbee36698	-0.4441421
62	0x3f9d884b	1.2307218
63	0xbffcbffa	-1.9746087
64	0x3f465efc	0.77488685
65	0xbfbfe0ed	-1.4990517
66	0xbfdafc02	-1.7108157
67	0xbe40f86f	-0.1884477
68	0x3f4faf9a	0.8112732
69	0x3f42c1a3	0.76076716
70	0xbfee9ae1	-1.8641015
71	0x3f7440d6	0.9541143
72	0xbd86bc53	-0.06578889
73	0xbf843194	-1.032763
74	0x3ee0267a	0.43779355
75	0x3e348b12	0.17631176
76	0xbe03a62b	-0.12856357
77	0xbd029e69	-0.031889353
78	0xbecd77d6	-0.4013049
79	0xbd68b50f	-0.056813296
80	0xc05c2783	-3.4399116
81	0x3ecb7d03	0.39743814
82	0x3f1c605a	0.6108452
83	0x3ea313cb	0.31851038
84	0x3d16f79a	0.036857225
85	0x3f253346	0.6453136
86	0xbe7bbe77	-0.24584375
87	0xbf947b0d	-1.1600052
88	0x3f34a991	0.7057124
89	0x3f476b41	0.7789803
90	0x3ee1a5b9	0.4407175
91	0xbe609ec5	-0.21935566
92	0x3f233db5	0.6376603
93	0x3fbf6d91	1.4955312
94	0xc0111d4f	-2.2674139
95	0x3ffbd023	1.9672893
96	0x3f1b4da1	0.6066533
97	0xbfc6ac23	-1.5521282
98	0xbf5f0a5a	-0.8712517
99	0xbd81c3d0	-0.063361764
100	0x3f26cff8	0.65161085
101	0x3f2e7b03	0.6815645
102	0xbfdb3244	-1.7124715
103	0x3f4e792c	0.80653644
104	0xbef5186a	-0.4787019
105	0xbfbbb025	-1.466313
106	0xbcc62f4f	-0.02419248
107	0xbe8864f9	-0.26639536
108	0xbe184b0f	-0.14872383
109	0xbda52407	-0.08063512
110	0xbf4ce051	-0.8002978
111	0x3d99dd73	0.07512941
112	0xc001c423	-2.0275962
113	0x3e895822	0.26825052
114	0x3f4c5a68	0.7982545
115	0x3cb3886b	0.021915635
116	0xbdadd2f7	-0.08487504
117	0x3f249b89	0.6429983
118	0xbd0e4e3f	-0.03474259
119	0xbfb98be5	-1.4495817
120	0x3f3d183f	0.7386512
121	0x3f6d089f	0.9259128
122	0x3ee7b260	0.45253277
123	0xbe1ed1b2	-0.1550968
124	0x3ed46acd	0.41487733
125	0x3fa4de3f	1.2880324
126	0xc00c327e	-2.1905818
127	0x3fc94477	1.5724019
128	0x3f362fb8	0.71166563
129	0xc000f33e	-2.0148463
130	0x3e09ab96	0.13444361
131	0xbe84cc55	-0.25937143
132	0x3f89694a	1.0735257
133	0x3f25aad0	0.64713764
134	0x3ede274b	0.43389353
135	0x3f2fb18d	0.68630296
136	0x3e246ffa	0.1605834
137	0xbfac2541	-1.3448869
138	0x3c499870	0.01230441
139	0x3f77a3c7	0.9673428
140	0xbf013d4a	-0.50484145
141	0xbe766450	-0.24061704
142	0xbe1129d0	-0.14176106
143	0xbb968543	-0.0045935228
144	0xbdf7b744	-0.12095502
145	0x3f236521	0.63826185
146	0x3f027c40	0.5097084
147	0x3deae054	0.114685684
148	0xbe620032	-0.22070387
149	0x3f1e3ec0	0.618145
150	0xbf070ba4	-0.5275214
151	0xbe0a738a	-0.13520637
152	0x3f3031e4	0.6882613
153	0x3f1c9e2d	0.6117886
154	0xbcdd9832	-0.027050111
155	0xbf4125a5	-0.75448066
156	0x3f11fddc	0.57027984
157	0x3fa27225	1.2691084
158	0xbe11e91e	-0.14249083
159	0x3ff3d2d0	1.904871
160	0x3ea0de07	0.31419393
161	0x3eefafc9	0.468138
162	0xbe84d72a	-0.25945407
163	0x3f5a37d5	0.8524144
164	0xbf808aaa	-1.0042317
165	0xbf3062d0	-0.68900776
166	0x3ea213d7	0.31655762
167	0xbf5fba1a	-0.87393343
168	0x3e822b21	0.2542353
169	0xbdc3084c	-0.09523067
170	0x3ec92701	0.3928757
171	0xbf11f2c2	-0.57011044
172	0x3fd23a9f	1.642414
173	0x3f722540	0.9458809
174	0x3f77e950	0.9684038
175	0x3f4b9513	0.79524344
176	0x3c18ed14	0.009333868
177	0x3e5ec75b	0.21755736
178	0xbf383a82	-0.71964276
179	0x3f535332	0.8254882
180	0x3f91db84	1.1395116
181	0xbdd77943	-0.10521176
182	0x3faaab03	1.3333439
183	0x3db815a3	0.08988502
184	0x3d993272	0.07480325
185	0x3eac4a55	0.3365046
186	0x3e898630	0.2686019
187	0x3fb64850	1.4240818
188	0x3e64fef8	0.22362888
189	0xbf3b809f	-0.73243135
190	0x3f7643e1	0.96197325
191	0xc0098696	-2.1488395
192	0x3f118660	0.56845665
193	0xbfb21834	-1.3913636
194	0xbfc39bfe	-1.528198
195	0x3d0d8dc6	0.034559034
196	0x3f4d963a	0.8030735
197	0x3f2be370	0.6714392
198	0xc00384d4	-2.0549822
199	0x3f808ead	1.0043541
200	0xbe6d8fbb	-0.2319936
201	0xbfa48654	-1.2853494
202	0x3edbc9c6	0.42927378
203	0xbf0fc580	-0.56160736
204	0xbe826f78	-0.2547567
205	0xbd3433ae	-0.043994598
206	0xbf28a1a9	-0.65871674
207	0xbb19cbbf	-0.002346739
208	0xc056f464	-3.3586664
209	0x3f2145a6	0.629969
210	0x3f2eb6a3	0.6824743
211	0x3e536154	0.20642596
212	0xbdabc68f	-0.083874814
213	0x3f1d92d6	0.6155218
214	0xbe530310	-0.20606637
215	0xbf25e12a	-0.647967
216	0x3f56f392	0.8396541
217	0x3f60712e	0.876727
218	0x3f13e864	0.57776475
219	0xbe56490a	-0.209263
220	0x3ef51114	0.47864592
221	0x3fbdcc34	1.4827943
222	0xc0189937	-2.3843515
223	0x3fd8ecde	1.6947286
224	0xbd500dd1	-0.050794426
225	0x3f81e952	1.0149329
226	0xbec15eba	-0.37767583
227	0x3f7efc8c	0.99604106
228	0xbf13699e	-0.57583034
229	0xbe0f40eb	-0.13989608
230	0x3e896fa6	0.26842993
231	0xbe89f629	-0.26945618
232	0x3f25b6a0	0.6473179
233	0x3f413feb	0.75488156
234	0x3f4728c8	0.777966
235	0xbef5e850	-0.48028803
236	0x3fa462e9	1.2842685
237	0x3f75ff79	0.96092945
238	0x3f8c764a	1.0973599
239	0x3f37118b	0.71511143
240	0xbe23462e	-0.1594474
241	0x3cfb2d61	0.030661287
242	0xbdc326c6	-0.0952888
243	0x3f533a6c	0.8251102
244	0x3f6ee50c	0.9331825
245	0x3d3343ba	0.04376576
246	0x3f922715	1.1418177
247	0xbe001b9e	-0.12510535
248	0xbe1993a4	-0.14997727
249	0x3eabfd60	0.33591747
250	0x3e034116	0.12817797
251	0x3fa2b241	1.2710649
252	0xbbc63ef0	-0.006049983
253	0xbe9c5279	-0.30531672
254	0x3fb826a0	1.4386787
255	0xbfaf2151	-1.3682042

inter_layer.bias f4 [32]
0	0x3f3ab383	0.72930163
1	0xbd60bcdf	-0.05486762
2	0x3f2d81b1	0.6777602
3	0x3f497fb3	0.7871048
4	0x3f5978e6	0.849501
5	0x3d2e8355	0.042605717
6	0x3f53394a	0.8250929
7	0xbeabecbf	-0.3357906
8	0x3f1ebb67	0.62004703
9	0x3f2cae07	0.67453045
10	0xbdafef74	-0.08590594
11	0xbe4f7018	-0.20257604
12	0x3f161f3d	0.58641416
13	0x3f363ff8	0.7119136
14	0xbe993456	-0.29922742
15	0x3da5ddd6	0.080989525
16	0xbdc4e79a	-0.09614487
17	0xbe813119	-0.2523277
18	0x3f470d60	0.77754784
19	0x3cb6280a	0.022235889
20	0x3da08b9a	0.07839127
21	0x3f34d03f	0.7063026
22	0xbe130988	-0.14359105
23	0x3f29e49d	0.6636446
24	0x3f4ff80e	0.81237876
25	0x3f4cf127	0.8005547
26	0x3f42f5e7	0.7615647
27	0x3f297656	0.6619619
28	0xbca1d455	-0.019754568
29	0x3f2cf148	0.67555666
30	0x3c318e74	0.010837186
31	0x3f0bc5d3	0.5459873

final_layer.weight f4 [1, 32]
0	0xbfe88410	-1.8165302
1	0x3fef121a	1.8677399
2	0xbfba939f	-1.45763
3	0xbf95f178	-1.1714315
4	0xbf8d02e0	-1.1016502
5	0x4004825c	2.0704565
6	0xbfdf98d8	-1.7468519
7	0x3ff40800	1.9064941
8	0xbf7da82f	-0.9908475
9	0xbfb6dea6	-1.4286697
10	0x3fe72ea1	1.8061105
11	0x3fe2e6bf	1.7726668
12	0xbfbc8b2a	-1.472997
13	0xbfa26f1e	-1.269016
14	0x3fd2d4a1	1.6471139
15	0x3fe4b78a	1.7868512
16	0x3fd9d269	1.7017337
17	0x3fd73eb1	1.6816007
18	0xbfd00468	-1.6251345
19	0x3fd45080	1.6587067
20	0x3fe5ba30	1.7947445
21	0xbf84a035	-1.0361391
22	0x3ff50d6b	1.914472
23	0xbfc7a6c7	-1.5597771
24	0xbf96a90f	-1.1770343
25	0xbf88393b	-1.0642465
26	0xbfc3a187	-1.5283669
27	0xbf895d90	-1.0731678
28	0x401e85cc	2.4769163
29	0xbf9414ad	-1.156881
30	0x40094587	2.1448686
31	0xbfc4e557	-1.5382489
