continuous cartpole/rl_model/train_2022-02-16T23:10:08.409859/model/38090_critic.pt (torch, 8580 bytes, 9 tensors)

norm_layer.weight f4 [4]
0	0x3f800000	1.0
1	0x3f800000	1.0
2	0x3f800000	1.0
3	0x3f800000	1.0

norm_layer.bias f4 [4]
0	0x00000000	0.0
1	0x00000000	0.0
2	0x00000000	0.0
3	0x00000000	0.0

norm_layer.running_mean f4 [4]
0	0x00000000	0.0
1	0x00000000	0.0
2	0x00000000	0.0
3	0x00000000	0.0

norm_layer.running_var f4 [4]
0	0x3f800000	1.0
1	0x3f800000	1.0
2	0x3f800000	1.0
3	0x3f800000	1.0

first_layer.weight f4 [32, 5]
0	0x40d9124e	6.7834845
1	0x406179b1	3.5230525
2	0xc15c565f	-13.771087
3	0x3f779f3c	0.9672735
4	0x3d04ec5e	0.03245198
5	0x3fe2d5c5	1.7721487
6	0x3f9172df	1.1363181
7	0xc12bda51	-10.7408
8	0xbfca5b73	-1.5809158
9	0x3d7e0568	0.062016875
10	0xc0e52e57	-7.1619067
11	0xc051802e	-3.2734485
12	0x4027f47d	2.6242974
13	0xbec4cabb	-0.3843592
14	0x3e028d96	0.12749323
15	0xbfb8731f	-1.4410132
16	0xbf956a4e	-1.1673067
17	0x4045b84e	3.089374
18	0x3f324979	0.6964336
19	0x3ef4c8eb	0.47809538
20	0xc09fcf81	-4.99408
21	0xbf500d79	-0.8127056
22	0x405ae983	3.4205024
23	0xbf403937	-0.750873
24	0x3f1519c5	0.58242446
25	0x40ff9c28	7.987812
26	0x4017a223	2.369271
27	0x409ec040	4.960968
28	0x3f0bbd39	0.54585606
29	0x3ceeb69f	0.029139815
30	0x40513c4d	3.2693055
31	0x3f48dcec	0.784621
32	0xc1ae2429	-21.767656
33	0xbf73bf1f	-0.952135
34	0xbd69ff87	-0.057128455
35	0xc0cf3276	-6.47491
36	0xc08e7759	-4.452069
37	0x40ea0bc7	7.3139377
38	0xbed08d7f	-0.40732953
39	0x3ecb2e36	0.39683694
40	0x40ad5e28	5.4177437
41	0x3f9d4855	1.2287699
42	0xc146ac01	-12.416993
43	0xbfa418f6	-1.2820117
44	0x3da7f604	0.08201221
45	0xc104f762	-8.310396
46	0xc03f507e	-2.9892879
47	0x3f09bdb5	0.53805095
48	0xbf894ea5	-1.0727125
49	0xbe00c688	-0.12575734
50	0xbee0f1ef	-0.4393458
51	0xbf51b32b	-0.81914014
52	0x4150ae18	13.042503
53	0xbe889585	-0.26676574
54	0xbf097872	-0.5369941
55	0xc010dd12	-2.263493
56	0xbf5ebc2c	-0.8700588
57	0xc12a3ca1	-10.639802
58	0x3f46faec	0.77726626
59	0x3f1f7482	0.6228715
60	0x40bca29f	5.894851
61	0x3fbd3789	1.4782573
62	0x407e3ffd	3.9726555
63	0xbf18661c	-0.59530807
64	0x3d8ec51c	0.069711894
65	0x3ec43b0f	0.38326308
66	0x3f97416a	1.1816838
67	0x41c932c0	25.14978
68	0xbe39c2b3	-0.18140678
69	0x3ceeb038	0.029136762
70	0xc11d54c4	-9.833195
71	0xc09fe019	-4.9961057
72	0x40964652	4.696084
73	0xbef418e5	-0.47675243
74	0x3eb57ad7	0.35445282
75	0xc136729a	-11.402979
76	0xc00b7c44	-2.1794596
77	0x4113734d	9.21565
78	0xbf2339ed	-0.6376026
79	0xbe033638	-0.12813652
80	0x40358ce3	2.836724
81	0x3f44ab09	0.7682348
82	0x40c968e5	6.2940545
83	0x3fca4453	1.5802101
84	0x3ea74c05	0.32675186
85	0x40882da1	4.25557
86	0x40355134	2.8330812
87	0xc057c4ec	-3.3713942
88	0x3f6c5456	0.92316186
89	0xbd458dc0	-0.048230886
90	0x4004d937	2.0757577
91	0x3e485ee5	0.1956745
92	0xc1840b23	-16.505438
93	0xc007b657	-2.1205041
94	0x3d936f88	0.07199007
95	0xc10b56dd	-8.708707
96	0xc00bf0b9	-2.1865675
97	0x401a1ab3	2.4078796
98	0xbf732a80	-0.94986725
99	0xbed86172	-0.42261845
100	0x40fded64	7.9352283
101	0x402d2d7c	2.7059011
102	0xc0a851bf	-5.259979
103	0x3f7643e9	0.9619737
104	0xbd6435fd	-0.05571555
105	0xc0f0a1f2	-7.5197687
106	0xbfe8786f	-1.8161753
107	0xc17eadc8	-15.917427
108	0x3d586297	0.052828398
109	0xbf0249e3	-0.5089399
110	0x404830a3	3.1279685
111	0xbe8b8bff	-0.27255246
112	0x40379752	2.8686109
113	0xbe73a218	-0.23792303
114	0x3c2fd978	0.010733001
115	0x3f192a43	0.5983011
116	0x3f839749	1.0280544
117	0x417a49a2	15.642977
118	0x3e867f72	0.26269108
119	0x3cf43094	0.02980832
120	0x41231cf8	10.194572
121	0x40540a24	3.313119
122	0x409aca3a	4.837186
123	0x3f9599ae	1.1687524
124	0x3d273387	0.040820625
125	0xbee201e8	-0.4414208
126	0x3f87cfc2	1.0610278
127	0x40dfc9cc	6.9933834
128	0x3fcbd461	1.5924188
129	0xbf080c84	-0.531441
130	0xbffb4c92	-1.9632742
131	0x401e9f04	2.4784555
132	0xc06c7196	-3.6944327
133	0x3f775fec	0.9663074
134	0xbee113f4	-0.43960536
135	0xc0f6c71c	-7.7118053
136	0x401b524f	2.4268987
137	0x41283d45	10.514958
138	0x3e907c7f	0.28219983
139	0xbf1d2fc1	-0.6140099
140	0x4099ce6f	4.8064494
141	0x3faf084c	1.3674407
142	0x41518110	13.094009
143	0x3dfa7752	0.1222979
144	0x3cf14004	0.02944947
145	0x3df19543	0.117960475
146	0xc02bded5	-2.6854756
147	0xc046bb99	-3.1052
148	0x3f80258e	1.0011461
149	0x3eed9588	0.46403146
150	0xbe935c49	-0.28781345
151	0xc05cbefc	-3.4491568
152	0x40373dcf	2.8631475
153	0xbefa76d4	-0.48918784
154	0xbf633ad2	-0.8876163
155	0xc0b1073c	-5.532133
156	0xc010837a	-2.2580247
157	0xbf7e9437	-0.9944491
158	0x3f8335dc	1.0250812
159	0x3e04f03f	0.12982272

first_layer.bias f4 [32]
0	0xbfc166d1	-1.5109502
1	0xc0de6f5b	-6.951093
2	0x4149b187	12.605842
3	0x40255fc7	2.5839708
4	0x40ce34d7	6.44395
5	0xbfc3d1f3	-1.5298446
6	0xc1206234	-10.023975
7	0x404cea85	3.201814
8	0xc0b6fcb7	-5.718349
9	0x4110071d	9.001737
10	0x410e47f7	8.89257
11	0x40e8ac89	7.2710614
12	0xc103ac4c	-8.229565
13	0xc0ccd097	-6.4004626
14	0x40d06ca8	6.5132637
15	0x40fe6a62	7.950486
16	0x3faa6cdf	1.3314475
17	0xc0cbb996	-6.3664045
18	0xc101fa5e	-8.123625
19	0x40ee46b7	7.446132
20	0xc0aed14f	-5.4630504
21	0x409f7dbc	4.9840984
22	0xc0cfe2fc	-6.496458
23	0xc097d5a7	-4.7448306
24	0xc09ebc9f	-4.960525
25	0x41132a2d	9.197797
26	0x41051ca7	8.319495
27	0x3f913aba	1.1346047
28	0xc0c4490c	-6.133917
29	0x3f1eb500	0.61994934
30	0x4100daab	8.053386
31	0x41510d19	13.065698

inter_layer.weight f4 [32, 32]
0	0xbf277de1	-0.6542645
1	0xc1f10cd1	-30.131258
2	0x410f1280	8.942017
3	0x3eef7742	0.46770674
4	0x3f98ca96	1.1936824
5	0xc002ae94	-2.0419054
6	0xc1ebf0af	-29.492521
7	0x3fa468f5	1.284453
8	0xc121e3c4	-10.118107
9	0x4102a96f	8.166366
10	0x3fdfa5cd	1.7472473
11	0x3fae666e	1.3625009
12	0xc0ee4a68	-7.446583
13	0xc29b2468	-77.571106
14	0x3fd82ded	1.6889015
15	0x41183398	9.512596
16	0x3f896604	1.0734258
17	0xc0b356fa	-5.6043673
18	0xc14e0ee7	-12.878638
19	0x3fc95ff7	1.5732411
20	0xc118e72a	-9.556437
21	0xbde75f8a	-0.112975195
22	0xc0217b46	-2.523149
23	0xc28a27af	-69.07751
24	0xc0f9b1fd	-7.802977
25	0x3fac6c95	1.3470637
26	0x401c858d	2.4456513
27	0x3e0ef805	0.139618
28	0xc0db1cf5	-6.847285
29	0xbee863ff	-0.4538879
30	0x3f5468c8	0.82972383
31	0x40fa2396	7.816844
32	0xc097071c	-4.719618
33	0xc1a81f80	-21.01538
34	0x40c2dbe2	6.089341
35	0x3fabed7e	1.3431852
36	0xbcc95aa4	-0.024579354
37	0xc04c9c40	-3.1970367
38	0xc1974882	-18.910404
39	0x3fe531a2	1.7905772
40	0xc08ae715	-4.3407083
41	0x40ca0f58	6.314373
42	0x3f483be6	0.782164
43	0xbe933944	-0.28754628
44	0xc015b60f	-2.339237
45	0xc255e294	-53.471268
46	0x403c52e8	2.9425602
47	0x40f31e3d	7.597441
48	0x3f2aac45	0.6666911
49	0xc0d940fe	-6.7891836
50	0xc09a87d5	-4.829081
51	0x3f65420d	0.8955391
52	0xc145ea1d	-12.369657
53	0xbdf01123	-0.117220186
54	0xc01bac02	-2.4323735
55	0xc22234ed	-40.551685
56	0xc0b7ed4c	-5.747717
57	0xbe596435	-0.21229632
58	0xbe2407b3	-0.16018562
59	0x3f7ac0a3	0.9795019
60	0xc04b1268	-3.1729984
61	0xc007ab18	-2.1198177
62	0x3f48c122	0.784197
63	0x40d085cd	6.516333
64	0x3eab997b	0.33515534
65	0x40848786	4.1415434
66	0xc103eb71	-8.244981
67	0xbfc38439	-1.5274726
68	0xbf975cf0	-1.1825237
69	0x3fca3281	1.5796663
70	0x41a66912	20.801304
71	0xbfd51aea	-1.6648839
72	0x40d192e5	6.5491815
73	0xc109e1d4	-8.617634
74	0xbfabca0f	-1.3421038
75	0xbed883f0	-0.4228816
76	0x3fd7ed25	1.6869246
77	0x42577de0	53.872925
78	0xc024c20c	-2.5743437
79	0xc1111549	-9.067697
80	0xc017ed5a	-2.3738618
81	0x3fdbc609	1.716981
82	0x40d60e0f	6.689216
83	0xbfc67e51	-1.5507299
84	0x40d29b60	6.5814667
85	0xbf72c2f2	-0.9482871
86	0x3ff64f16	1.9242885
87	0x41f359fa	30.418934
88	0x40c2d0db	6.087995
89	0xbfecf65b	-1.8512682
90	0xbfd56ede	-1.6674459
91	0xbf946d4f	-1.1595858
92	0x40169cf4	2.3533297
93	0xbf59107f	-0.84790796
94	0xbf8a5044	-1.0805745
95	0xc0f293a2	-7.5805216
96	0xbfb42db8	-1.4076452
97	0xc20eba2a	-35.6818
98	0x410cf710	8.810318
99	0x3f0dd3e9	0.55401474
100	0x3fb09682	1.3795931
101	0xbfd3ad79	-1.6537315
102	0xc1c7beaa	-24.968098
103	0x3e620702	0.22072986
104	0xc10782ba	-8.469416
105	0x40d8e2f9	6.7777066
106	0x3f1835c3	0.59457034
107	0x3f9ff93c	1.2497935
108	0xc085f9fa	-4.1867647
109	0xc282b26a	-65.348465
110	0x3fb4dc51	1.4129735
111	0x41148f96	9.285055
112	0x3ef90cd0	0.48642588
113	0xc0d370c7	-6.607517
114	0xc10429de	-8.2602215
115	0x3ff98017	1.9492215
116	0xc10dc7e7	-8.861304
117	0x3f0a88ec	0.54115176
118	0xbfca25ad	-1.5792748
119	0xc23d5183	-47.3296
120	0xc0e467d1	-7.137673
121	0xbe71587e	-0.23568913
122	0x40281119	2.6260436
123	0x3fb3cc3c	1.4046702
124	0xc08b023e	-4.3440237
125	0xbe166f9b	-0.14691012
126	0x3fa0f6f1	1.257536
127	0x40df5767	6.979419
128	0xc0a9862d	-5.297629
129	0xc19ea9f1	-19.83298
130	0x40bad9f2	5.8391047
131	0xbe843dab	-0.258283
132	0x3e2fdacb	0.17173307
133	0xc081f830	-4.0615463
134	0xc1a81d17	-21.014204
135	0x4025aa49	2.5885184
136	0xc042d62c	-3.044322
137	0x40e4f4cc	7.1548824
138	0x3eea4d07	0.45761892
139	0xbee93559	-0.45548514
140	0xbe9a5aaa	-0.30147296
141	0xc23c46f0	-47.069275
142	0x4030b63d	2.761123
143	0x4117f867	9.498145
144	0x3e7da67e	0.24770543
145	0xc0dfbaa3	-6.991533
146	0xc0a023b3	-5.004358
147	0x3fad8669	1.3556644
148	0xc1535b5d	-13.2098055
149	0x3fef5da9	1.8700458
150	0xbfa78474	-1.3087296
151	0xc22e6ec6	-43.608177
152	0xc0f04087	-7.507877
153	0xbe7b1c3a	-0.24522486
154	0x3f316ef0	0.693099
155	0x3fcd5656	1.6041973
156	0xbf311fdd	-0.69189245
157	0xbe39fca8	-0.18162787
158	0x3ed6e662	0.41972643
159	0x407ceffa	3.952147
160	0xbdddb958	-0.10826367
161	0xc12d4af8	-10.830803
162	0x40ec9c69	7.394093
163	0x3ec7ae89	0.39000347
164	0x3f4f4338	0.8096194
165	0xc04f240e	-3.2365756
166	0xc0f5f748	-7.6864357
167	0x3eaa9f73	0.33324775
168	0xc003c0d6	-2.0586448
169	0x40efa006	7.488284
170	0xbf15e54f	-0.5855302
171	0x4029f56c	2.6556044
172	0xc04e388c	-3.2222013
173	0xc26f1820	-59.77356
174	0x3ff8cd93	1.9437736
175	0x410a3894	8.638813
176	0xbe675ab1	-0.2259319
177	0xc0c5c047	-6.1797214
178	0xc03fc7c7	-2.9965684
179	0x40153f50	2.3319893
180	0xc0c76245	-6.230746
181	0x4101ce1e	8.112822
182	0xbfee0409	-1.8594981
183	0xc1f84651	-31.034334
184	0xc11629cb	-9.385203
185	0xbf668ee2	-0.9006177
186	0x3fdbe4a9	1.7179157
187	0xbf41df41	-0.75731283
188	0xc0af23cb	-5.4731193
189	0x4084bc3a	4.147977
190	0x3e49c48a	0.1970388
191	0x409b5782	4.854432
192	0x3ea25ce0	0.31711483
193	0x40418a0e	3.0240512
194	0xc100b676	-8.044546
195	0xbfa6d432	-1.3033507
196	0xbf1d247b	-0.6138379
197	0x3fc45bf1	1.5340558
198	0x41a7a0d0	20.953522
199	0xbfbb2168	-1.461957
200	0x40c5703d	6.169951
201	0xc10a227f	-8.633422
202	0xbf854fa5	-1.041493
203	0xbffb6c7c	-1.9642482
204	0x400f157a	2.2356858
205	0x425134b4	52.301468
206	0xc06c74ea	-3.6946359
207	0xc105317a	-8.324579
208	0xbfd0b3f5	-1.6304919
209	0x3f0f4682	0.5596696
210	0x40c3e77f	6.122009
211	0xbf9e6f0e	-1.2377641
212	0x40d6fc61	6.718308
213	0xc0222681	-2.5336
214	0x3ffd69d5	1.9797922
215	0x41faacb5	31.33433
216	0x40beb673	5.9597716
217	0xbfe74eba	-1.80709
218	0xbfd00f34	-1.625464
219	0xbf80c634	-1.0060487
220	0x40394ede	2.8954387
221	0xbeff9506	-0.49918383
222	0xbf9f6852	-1.2453711
223	0xc0eb8be2	-7.3608255
224	0xc003e04a	-2.0605645
225	0x403b444e	2.926044
226	0xc0c68e32	-6.204858
227	0xbee4526d	-0.44594136
228	0xbf881b18	-1.0633268
229	0xbf693ad0	-0.91105366
230	0x4163b6ca	14.232126
231	0xbec2d006	-0.38049334
232	0x3e986067	0.2976105
233	0xc0d7be3d	-6.7419724
234	0xbe3044de	-0.17213771
235	0xbf0b5174	-0.5442116
236	0x3f59bb55	0.8505147
237	0x4241bf32	48.436714
238	0xbfef30b1	-1.8686734
239	0xc0d32783	-6.598573
240	0xc02dd2e9	-2.715998
241	0x3f597f5e	0.8495997
242	0x408e04a5	4.438067
243	0xbe330b50	-0.17484784
244	0x409064e6	4.5123167
245	0x3f676d0b	0.9040076
246	0x3fabd5ca	1.3424618
247	0x41fef3f6	31.869122
248	0x4092dfe6	4.5898314
249	0xbf3954f0	-0.7239523
250	0xc02ad7d8	-2.669424
251	0xbff94934	-1.9475465
252	0x3f959c37	1.1688298
253	0x3d7bcf80	0.061477184
254	0xbf4cab0b	-0.7994849
255	0xc0f0feac	-7.531088

inter_layer.bias f4 [32]
0	0x413bcae8	11.737038
1	0x410c6139	8.773736
2	0xc131a600	-11.103027
3	0x412e22ac	10.883465
4	0x40c7904a	6.2363634
5	0x40f67551	7.701821
6	0xc12f8f2b	-10.972453
7	0xc10997c2	-8.59955
8	0xc12dc835	-10.861379
9	0x41266382	10.399294
10	0x4125ed41	10.370423
11	0xc12d1095	-10.816548
12	0x40d9dd91	6.8082967
13	0xc132deb7	-11.179374
14	0xc0bbdbb9	-5.8705716
15	0x4097241f	4.7231593
16	0xc11e6d53	-9.9016905
17	0xc1240d42	-10.253237
18	0x412eafaa	10.917887
19	0xc1397b66	-11.592627
20	0x4153ed73	13.245471
21	0xc122a883	-10.166141
22	0x412a0732	10.626757
23	0xc12a81f5	-10.656728
24	0x412f3dfa	10.952631
25	0x412f9605	10.974126
26	0xc122f6b6	-10.185232
27	0x409a1835	4.815455
28	0xc12332ea	-10.19993
29	0xc1304c51	-11.018632
30	0xc125ff91	-10.374894
31	0x410c1491	8.755021

final_layer.weight f4 [1, 32]
0	0x419b5455	19.416178
1	0x41893440	17.150513
2	0xc07957be	-3.8959804
3	0x416e1996	14.881247
4	0x41875ae7	16.919386
5	0x41510077	13.0626135
6	0xc082d570	-4.0885544
7	0xc0a49b6e	-5.1439734
8	0xc12fd2c6	-10.988958
9	0x41534986	13.20545
10	0x417e2f56	15.886557
11	0xc06893ea	-3.634028
12	0x41787ecf	15.530959
13	0xc096b936	-4.7101088
14	0xc14b782b	-12.716838
15	0x41650537	14.313773
16	0xc12b8a1d	-10.721219
17	0xc0a1c830	-5.055687
18	0x4176a6d9	15.415734
19	0xc0961039	-4.6894803
20	0x41b4fbfa	22.623035
21	0xc0a0e179	-5.0275235
22	0x4143332e	12.199995
23	0xc0fe3f0a	-7.945195
24	0x4193538b	18.415792
25	0x415d4739	13.829888
26	0xc1090be9	-8.565408
27	0x416f69c9	14.963326
28	0xc072a888	-3.7915363
29	0xc11362fc	-9.211666
30	0xc0aac0e2	-5.3360453
31	0x4182a5eb	16.331015
