continuous cartpole/rl_model/train_2022-02-16T23:10:08.409859/model/42430_critic.pt (torch, 8580 bytes, 9 tensors)

norm_layer.weight f4 [4]
0	0x3f800000	1.0
1	0x3f800000	1.0
2	0x3f800000	1.0
3	0x3f800000	1.0

norm_layer.bias f4 [4]
0	0x00000000	0.0
1	0x00000000	0.0
2	0x00000000	0.0
3	0x00000000	0.0

norm_layer.running_mean f4 [4]
0	0x00000000	0.0
1	0x00000000	0.0
2	0x00000000	0.0
3	0x00000000	0.0

norm_layer.running_var f4 [4]
0	0x3f800000	1.0
1	0x3f800000	1.0
2	0x3f800000	1.0
3	0x3f800000	1.0

first_layer.weight f4 [32, 5]
0	0x40ed81b4	7.422083
1	0x4039ec9d	2.9050667
2	0xc151fb35	-13.12383
3	0x3fd95b77	1.6981038
4	0x3d6622d8	0.056185573
5	0x403d9853	2.9624221
6	0x3f39a1aa	0.72512305
7	0xc121dc34	-10.116261
8	0xbf806576	-1.0030963
9	0xbc90c277	-0.017670853
10	0xc0f7d267	-7.744434
11	0xc030c132	-2.7617917
12	0x3ffa1916	1.9538906
13	0xbf89283e	-1.0715406
14	0x3e057786	0.13033876
15	0xbff5de19	-1.9208404
16	0xbefd522c	-0.49476755
17	0x402173b7	2.5226877
18	0xbdbce000	-0.09222412
19	0x3f021730	0.5081663
20	0xc0b2839d	-5.578566
21	0xbe7280da	-0.23681965
22	0x402fc0df	2.746147
23	0xbfc07df6	-1.503844
24	0x3f1d033a	0.6133305
25	0x4109f87b	8.623164
26	0x3fe146f3	1.7599777
27	0x40b3e008	5.6210976
28	0x3fa476a5	1.2848707
29	0x3d3c2239	0.045931075
30	0x408ac2c9	4.3362775
31	0xbe852a7b	-0.26008973
32	0xc1b24697	-22.284468
33	0x3de75aeb	0.11296638
34	0xbddb30cf	-0.10702669
35	0xc0e6471b	-7.19618
36	0xc0817b32	-4.0462885
37	0x40cff732	6.498925
38	0xbf8253c9	-1.0181819
39	0x3eb04888	0.34430337
40	0x40c0399c	6.0070324
41	0x3f20fcb4	0.62885594
42	0xc13ab86e	-11.670027
43	0xbeffbced	-0.49948826
44	0x3e1ad965	0.15121992
45	0xc1161abb	-9.381526
46	0xbff8e87e	-1.9445951
47	0x3f871844	1.055428
48	0xc008dd76	-2.138517
49	0xbd7c58a3	-0.061607968
50	0xbfc17e66	-1.5116699
51	0x3e6f0d06	0.23344812
52	0x41595055	13.582112
53	0xbfabfb5f	-1.3436087
54	0xbf0621db	-0.5239541
55	0xc039f905	-2.905824
56	0xbe7d2922	-0.24722722
57	0xc135c8e2	-11.361544
58	0xbd211b93	-0.039332937
59	0x3f27fb23	0.6561758
60	0x40d1e505	6.5592065
61	0x3f67c83f	0.90539926
62	0x4097d079	4.7441983
63	0x3e2cc243	0.1687098
64	0x3dc4f3c1	0.09616805
65	0x3f7a9e1c	0.97897506
66	0x3f2ca8b1	0.674449
67	0x41ce9d6f	25.826872
68	0x3eff3192	0.49842507
69	0x3cf6950a	0.030100364
70	0xc125d7a3	-10.365146
71	0xc08e1f3b	-4.4413123
72	0x40828250	4.0784073
73	0xbf97e809	-1.1867687
74	0x3ebab5d1	0.3646684
75	0xc14792b2	-12.473314
76	0xbf913f4a	-1.1347439
77	0x411bcb87	9.737189
78	0xbfda0047	-1.7031335
79	0xbd8f4b2b	-0.06996759
80	0x3bb080e2	0.005386458
81	0x3f8e17b9	1.110099
82	0x4042ebe9	3.0456488
83	0x3f6f00c6	0.93360555
84	0x3ea24874	0.31695902
85	0x40aa695c	5.3253613
86	0x3fe3bf00	1.7792664
87	0xc0793fbb	-3.8945148
88	0x3ffa679e	1.9562871
89	0xbde2c42c	-0.11072573
90	0x4026bf88	2.6054401
91	0xbed37b1a	-0.41304857
92	0xc17d4f52	-15.831865
93	0xbfa7494a	-1.3069241
94	0x3de63045	0.112396754
95	0xc11c7448	-9.778389
96	0xbf92bbd2	-1.1463568
97	0x403b294c	2.9243956
98	0xc000d28f	-2.0128515
99	0xbea8a950	-0.32941675
100	0x4110184d	9.005933
101	0x3fe47ffd	1.7851559
102	0xc0b91f6f	-5.785087
103	0x3fecf134	1.8511109
104	0xbdd456fe	-0.10368155
105	0xc1093560	-8.575531
106	0xbf49e8db	-0.78870934
107	0xc177561a	-15.458521
108	0xbf7eff16	-0.9960798
109	0xbeb5a02e	-0.3547377
110	0x40729b40	3.7907257
111	0xbf4b72f0	-0.79472256
112	0x4066f84f	3.6089056
113	0x3eeb23b0	0.45925665
114	0x3c7c8357	0.015412173
115	0x3f9bf16f	1.2183055
116	0x3f09a37e	0.53765094
117	0x4182d1b7	16.3524
118	0x3f70c456	0.94049585
119	0x3d105026	0.035232686
120	0x412d152b	10.817668
121	0x402e3205	2.721803
122	0x40afce82	5.4939585
123	0x3ff2c8d9	1.8967544
124	0x3d64fa00	0.05590248
125	0xbfc0876c	-1.5041327
126	0x40064d74	2.0984774
127	0x40f0315e	7.5060263
128	0x3f050594	0.51961637
129	0xbf04d1f7	-0.5188288
130	0xc041dbea	-3.0290475
131	0x4061a1c7	3.525499
132	0xc04c8e2f	-3.1961782
133	0xbdd35834	-0.10319558
134	0xbeb3ab00	-0.350914
135	0xc10c994a	-8.787424
136	0x405e6c16	3.475347
137	0x413134da	11.075403
138	0xbf4a0701	-0.7891694
139	0xbf0d02d7	-0.5508246
140	0x40ae51af	5.447471
141	0x3f4dc248	0.80374575
142	0x415c95af	13.786544
143	0x3f57fc27	0.8436913
144	0x3cfa5d0d	0.030561948
145	0xbe56ac22	-0.20964101
146	0xbfe3f3e3	-1.7808803
147	0xc0613dbf	-3.5193937
148	0x3d964e44	0.07339147
149	0x3efa9224	0.4893962
150	0xbfac286c	-1.3449836
151	0xc01ad96e	-2.4195209
152	0x40594fd5	3.3954976
153	0xbfc6a2ee	-1.5518472
154	0xbf5995c0	-0.84994125
155	0xc0c4e719	-6.15321
156	0xbfe16a25	-1.7610518
157	0xbfda596c	-1.7058539
158	0x3eaec369	0.3413346
159	0x3dfdbdbb	0.12389704

first_layer.bias f4 [32]
0	0xc000d1e8	-2.0128117
1	0xc1039817	-8.224631
2	0x415255a7	13.145911
3	0x40414726	3.0199676
4	0x40df8994	6.985544
5	0xc002fd58	-2.0467129
6	0xc13a7182	-11.652712
7	0x407874a7	3.88212
8	0xc0c94c18	-6.290539
9	0x412971c7	10.590278
10	0x412b1549	10.692697
11	0x40fb08f3	7.8448424
12	0xc10db3f9	-8.856439
13	0xc0de4739	-6.946194
14	0x40e01b09	7.0033
15	0x41192244	9.570866
16	0x40944fa5	4.634722
17	0xc0ffcc3d	-7.9936814
18	0xc1076bcf	-8.46382
19	0x41107a59	9.02987
20	0xc0e399bb	-7.112516
21	0x40c8c780	6.274353
22	0xc0e3454f	-7.1022105
23	0xc0aa4d12	-5.321908
24	0xc0af4bd0	-5.4780045
25	0x412ea88f	10.916152
26	0x411d750f	9.841079
27	0x403ed07b	2.9814746
28	0xc0d60c48	-6.688999
29	0x3f480c35	0.78143626
30	0x411ed119	9.926049
31	0x415a512a	13.644815

inter_layer.weight f4 [32, 32]
0	0xbf4c70a0	-0.7985935
1	0xc1f1698b	-30.176535
2	0x410e553c	8.895809
3	0x3eabaa8d	0.33528557
4	0x3f91469d	1.1349674
5	0xc018d8f8	-2.3882427
6	0xc1ed2acc	-29.645897
7	0x3f944aaa	1.1585286
8	0xc124df9a	-10.30459
9	0x4101d1de	8.113737
10	0x3fd270a9	1.6440631
11	0x3fa0050e	1.2501543
12	0xc0fcc1f6	-7.898677
13	0xc29c1c7f	-78.05566
14	0x3fc61850	1.547617
15	0x4117115f	9.441741
16	0x3f756a2b	0.95865124
17	0xc0b79bfc	-5.737791
18	0xc150a4ee	-13.040266
19	0x3fb9df78	1.4521322
20	0xc11a62db	-9.649135
21	0xbe845cf3	-0.25852165
22	0xc05eb0fa	-3.4795518
23	0xc28ba8b6	-69.82951
24	0xc104466a	-8.267191
25	0x3f9e36d3	1.2360481
26	0x40173273	2.3624542
27	0x3d0a2184	0.03372337
28	0xc0ec9e8a	-7.394353
29	0xbf212db8	-0.62960386
30	0x3f33a5fe	0.7017516
31	0x40f525ea	7.660878
32	0xc09b4af9	-4.852902
33	0xc1a8bac8	-21.091202
34	0x40bf42aa	5.9768877
35	0x3f944716	1.1584194
36	0xbe029e39	-0.1275567
37	0xc062ecaf	-3.545696
38	0xc19589c7	-18.692274
39	0x3fcf0981	1.6174775
40	0xc09470b7	-4.638759
41	0x40d2ae4f	6.583778
42	0x3f83b2d8	1.0288954
43	0xbee6e903	-0.4509965
44	0xc0387ed0	-2.88274
45	0xc257e505	-53.97365
46	0x402f3d14	2.738103
47	0x40fb230c	7.848028
48	0x3f047997	0.5174803
49	0xc0d1887a	-6.5479097
50	0xc0a39fda	-5.113263
51	0x3f8f087d	1.1174465
52	0xc1417dfd	-12.093259
53	0x3da6070c	0.08106813
54	0xc0603256	-3.5030723
55	0xc225a435	-41.41036
56	0xc0c6e5d0	-6.2155533
57	0x3ce41fe6	0.027847242
58	0x3dcf4980	0.10121441
59	0x3f9c791a	1.2224457
60	0xc06f8154	-3.7422686
61	0xc016ca35	-2.3560917
62	0x3f80ebc1	1.0071946
63	0x40c93b1a	6.2884645
64	0x3e657f83	0.22411923
65	0x40769b70	3.8532372
66	0xc1039ee8	-8.226295
67	0xbfc80ab6	-1.5628269
68	0xbf9dd7d9	-1.2331496
69	0x3fc13a9e	1.5096014
70	0x41a8891d	21.06695
71	0xbfd40f23	-1.6567119
72	0x40c90006	6.281253
73	0xc109f193	-8.621478
74	0xbf974b65	-1.1819884
75	0xbee912ef	-0.45522258
76	0x3fbf7e98	1.4960508
77	0x4256fb8a	53.745644
78	0xc0250bb5	-2.5788395
79	0xc11108a7	-9.064612
80	0xc017f866	-2.374536
81	0x40022047	2.03322
82	0x40c793cb	6.236791
83	0xbfb4e6a9	-1.4132892
84	0x40dd2e98	6.9119377
85	0xbf4909a3	-0.7853033
86	0x4007ad05	2.1199353
87	0x41f31834	30.386818
88	0x40c0d13a	6.0255404
89	0xbfd6a650	-1.6769505
90	0xbfc31a62	-1.5242426
91	0xbf80997c	-1.004684
92	0x40125bf8	2.2868633
93	0xbf5f36e4	-0.8719313
94	0xbf66887a	-0.90051997
95	0xc0f05587	-7.5104403
96	0xbfda2183	-1.7041477
97	0xc20f2a7d	-35.791492
98	0x4108f876	8.560659
99	0x3e695872	0.22787645
100	0x3f90b4ba	1.1305153
101	0xc0082e19	-2.1278136
102	0xc1c9a595	-25.20585
103	0xbdb04a92	-0.08607973
104	0xc10e0650	-8.876541
105	0x40d44765	6.633715
106	0x3ecaad82	0.395855
107	0x3f71e0bc	0.9448354
108	0xc09c4d28	-4.8844185
109	0xc283f7f5	-65.98429
110	0x3f894081	1.072281
111	0x4111e536	9.11846
112	0x3e4e726d	0.20160837
113	0xc0da733c	-6.8265667
114	0xc109804f	-8.593825
115	0x3fde706e	1.7378061
116	0xc1107f8d	-9.03114
117	0x3e9fcab2	0.31209332
118	0xc02cfa10	-2.7027626
119	0xc24135d3	-48.302563
120	0xc0f6bca7	-7.710529
121	0xbee14c4e	-0.44003528
122	0x401cfa4c	2.452777
123	0x3f9a10be	1.2036359
124	0xc0a03232	-5.0061274
125	0xbf05383b	-0.52038926
126	0x3f84b5e5	1.036801
127	0x40d4079a	6.625928
128	0xc0ad5218	-5.416271
129	0xc19fada2	-19.959782
130	0x40b7dd8d	5.745795
131	0xbee3ba95	-0.44478288
132	0x3d5172da	0.05113492
133	0xc08baec2	-4.3650827
134	0xc1a811ba	-21.008656
135	0x401bb871	2.4331324
136	0xc05e288e	-3.4712253
137	0x40e7852c	7.2350063
138	0x3f01fda0	0.50777626
139	0xbf1eaa6f	-0.6197881
140	0xbf5fd830	-0.8743925
141	0xc23e18c7	-47.524197
142	0x4024dd15	2.5759938
143	0x4118ff30	9.562302
144	0x3ddcc298	0.10779303
145	0xc0dee218	-6.9650993
146	0xc0b38855	-5.610392
147	0x3fb0d53b	1.3815073
148	0xc1526455	-13.149495
149	0x3fef353c	1.8688121
150	0xc0134985	-2.3013623
151	0xc2319c12	-44.402412
152	0xc0fdd6c1	-7.932465
153	0xbe5028d1	-0.2032807
154	0x3f4209d3	0.7579624
155	0x3fd36247	1.6514367
156	0xbf99c6db	-1.2013811
157	0xbed0b624	-0.40763962
158	0x3ee3970c	0.44451177
159	0x40710ced	3.766414
160	0x3b04ff30	0.0020293705
161	0xc128a8f1	-10.541245
162	0x40ebfb19	7.3744016
163	0x3ed94bd5	0.42440668
164	0x3f5c001e	0.8593768
165	0xc04ab6c9	-3.1674063
166	0xc0fe7e2e	-7.952903
167	0x3ea5e61c	0.32402122
168	0xbfe53387	-1.790635
169	0x40efbb36	7.491603
170	0xbf3f12bf	-0.7463798
171	0x402bf7c4	2.6869974
172	0xc042069f	-3.0316541
173	0xc26e96b6	-59.64718
174	0x3ff93d8b	1.9471906
175	0x410a29a4	8.635166
176	0xbe67ab01	-0.22623827
177	0xc0cfe5eb	-6.496816
178	0xc022ce4a	-2.543841
179	0x400c67d5	2.1938374
180	0xc0d1fc91	-6.562081
181	0x40fe5f2a	7.9491167
182	0xc003ac12	-2.0573773
183	0xc1f80768	-31.003616
184	0xc1152d93	-9.3236265
185	0xbf89afd8	-1.0756788
186	0x3fc9789f	1.5739936
187	0xbf69b5fa	-0.912933
188	0xc0ad0b60	-5.4076385
189	0x408578a4	4.1709766
190	0x3c84ff55	0.016235033
191	0x40990ef7	4.783077
192	0x3e530748	0.20608246
193	0x402f118c	2.735446
194	0xc10069b9	-8.025811
195	0xbfab57db	-1.3386186
196	0xbf2a1578	-0.6643901
197	0x3fbb655c	1.4640307
198	0x41a9c11b	21.21929
199	0xbfba11ea	-1.4536717
200	0x40bcdc59	5.901898
201	0xc10a3208	-8.637215
202	0xbf619af3	-0.8812706
203	0xbfff8d3e	-1.9964979
204	0x4002dda6	2.0447783
205	0x4250b26f	52.17425
206	0xc06cbc8c	-3.699008
207	0xc1052491	-8.321427
208	0xbfd0c704	-1.6310735
209	0x3f604509	0.8760534
210	0x40b56c52	5.6694727
211	0xbf8cd48e	-1.1002367
212	0x40e190ba	7.048917
213	0xc017b6c3	-2.37053
214	0x400b3f56	2.1757407
215	0x41fa6b32	31.302341
216	0x40bcb75a	5.897382
217	0xbfd0fb79	-1.6326743
218	0xbfbdb76f	-1.4821604
219	0xbf59dead	-0.851054
220	0x40350ec2	2.8290257
221	0xbf05e9c3	-0.5230982
222	0xbf8858f5	-1.0652148
223	0xc0e94c6a	-7.290578
224	0xc00af67d	-2.1712945
225	0x4028c707	2.6371477
226	0xc0c5f1fc	-6.185789
227	0xbef63512	-0.48087364
228	0xbf8e89d0	-1.1135807
229	0xbf7b10d2	-0.9807254
230	0x4167f88c	14.49818
231	0xbebe6484	-0.37186062
232	0x3cf281bf	0.029602883
233	0xc0d7dbbd	-6.7455735
234	0xbc3eddd0	-0.011649564
235	0xbf137d8c	-0.57613444
236	0x3f28e6ef	0.65977377
237	0x42413d55	48.309895
238	0xbfefb4ec	-1.8727088
239	0xc0d30b95	-6.595164
240	0xc02dd6ec	-2.7162428
241	0x3f95491c	1.1662936
242	0x407f122c	3.9854841
243	0xbd17c375	-0.037051637
244	0x409afbd7	4.843242
245	0x3f889fea	1.0673802
246	0x3fc50220	1.5391273
247	0x41feb385	31.837656
248	0x4090e379	4.5277677
249	0xbf0c9cd9	-0.5492683
250	0xc021a774	-2.5258455
251	0xbfe5696f	-1.7922801
252	0x3f8d27ac	1.1027732
253	0x3d1b4075	0.037903268
254	0xbf1e7aa5	-0.6190589
255	0xc0eebbda	-7.460431

inter_layer.bias f4 [32]
0	0x4159b8a7	13.607581
1	0x4128e959	10.55697
2	0xc1373426	-11.450232
3	0x414ac48b	12.672984
4	0x41001d0a	8.00709
5	0x4100d58e	8.052137
6	0xc1351e53	-11.319903
7	0xc10f2d5a	-8.948572
8	0xc13361c0	-11.211365
9	0x413b08d9	11.68966
10	0x4139ca75	11.611928
11	0xc1329e27	-11.163611
12	0x410809e1	8.502412
13	0xc1386ef5	-11.527089
14	0xc0c85766	-6.2606688
15	0x40a2982c	5.0810757
16	0xc124042a	-10.251017
17	0xc129a01b	-10.601588
18	0x414dfbbb	12.873958
19	0xc13f0c9c	-11.940578
20	0x4168f90d	14.560803
21	0xc12839ae	-10.514082
22	0x4148928a	12.535776
23	0xc13013cd	-11.004834
24	0x414e04ab	12.87614
25	0x414dcae7	12.862037
26	0xc1288bf8	-10.534172
27	0x40cc7374	6.3890934
28	0xc128be87	-10.546515
29	0xc135e1d8	-11.367638
30	0xc12b942b	-10.723674
31	0x41298990	10.596085

final_layer.weight f4 [1, 32]
0	0x41a37fdb	20.43743
1	0x41937877	18.43382
2	0xc0695580	-3.6458435
3	0x417a8618	15.657738
4	0x418efb7a	17.872791
5	0x414e2a4b	12.885325
6	0xc0790d80	-3.891449
7	0xc09dd5ff	-4.9323726
8	0xc12ddb2b	-10.866008
9	0x415c0d79	13.753289
10	0x41845643	16.54212
11	0xc0624a08	-3.5357685
12	0x4182f4cf	16.369535
13	0xc08ef758	-4.4676933
14	0xc14a4fc1	-12.644471
15	0x4162bafe	14.170652
16	0xc127c45c	-10.485439
17	0xc098cb87	-4.7748446
18	0x418683b6	16.814312
19	0xc0904169	-4.5079846
20	0x41b8c0c4	23.094124
21	0xc09afdbb	-4.843473
22	0x41515c08	13.084969
23	0xc0f3c4a9	-7.6177564
24	0x419c309a	19.523731
25	0x416f5280	14.957642
26	0xc10513a6	-8.317297
27	0x4176da59	15.428308
28	0xc0662694	-3.5961046
29	0xc10e86f1	-8.907945
30	0xc0a536ee	-5.1629553
31	0x418a7e67	17.31172
