continuous cartpole/rl_model/train_2022-02-16T23:10:08.409859/model/47210_actor.pt (torch, 6999 bytes, 5 tensors)

first_layer.weight f4 [32, 4]
0	0x3f579c97	0.8422331
1	0x402f915d	2.7432473
2	0x40669a22	3.6031575
3	0xbecada99	-0.39619902
4	0xbf9be1f4	-1.217833
5	0x3e33a32a	0.17542711
6	0xbf31dc3e	-0.6947669
7	0xbf73d4c7	-0.9524655
8	0x3fef6ca5	1.8705031
9	0xc007e092	-2.1230817
10	0xbdc47e5c	-0.09594414
11	0x3f6cb671	0.92465883
12	0x3ecd9f20	0.40160465
13	0xbf847514	-1.034823
14	0xc085822a	-4.172139
15	0x3fa5b485	1.2945715
16	0xbff3e98c	-1.9055648
17	0xbe93e457	-0.28885147
18	0xc0007797	-2.0072992
19	0xbf576f23	-0.84153956
20	0x3f334a24	0.70035005
21	0x3f9263db	1.1436723
22	0x3e542e83	0.20720868
23	0xbf863c37	-1.0487126
24	0x4051c22b	3.277476
25	0x3fa13ea8	1.2597246
26	0x40c24bdf	6.0717616
27	0x3f6535cd	0.8953522
28	0xc04a4c8a	-3.1609216
29	0xbe9ac099	-0.30225065
30	0xc08c00fa	-4.375119
31	0xbf867bd5	-1.050654
32	0xc006bd9f	-2.1053236
33	0x40449826	3.0717864
34	0x40f9dd8c	7.8082943
35	0xbfe9af5c	-1.825664
36	0x3fd9c764	1.7013974
37	0xbfcd75db	-1.6051592
38	0x3eeda7cd	0.46417084
39	0x3fc7d99d	1.5613285
40	0xc05298f7	-3.2905862
41	0xbe5ea700	-0.21743393
42	0x40a279aa	5.0773516
43	0xbffd9437	-1.9810857
44	0x4015028b	2.3282802
45	0x3fc0592e	1.5027215
46	0x41016551	8.087235
47	0x3f07b942	0.53017056
48	0xbf7caa3b	-0.9869725
49	0x3f96a2cc	1.1768432
50	0x40cf8324	6.4847584
51	0xbf2dfa3a	-0.6795994
52	0x40a6a9cd	5.2082276
53	0x3ffa2552	1.9542639
54	0xc036e6b0	-2.85783
55	0x40023646	2.0345626
56	0xbf8fdfee	-1.1240213
57	0x3f6306e3	0.88682383
58	0x40c93c07	6.2885776
59	0xbf718ad8	-0.94352484
60	0x40161021	2.3447344
61	0x3ff33c2c	1.9002738
62	0xbfcb9029	-1.5903369
63	0xbdf8a8eb	-0.121415935
64	0xbfedbe8c	-1.8573775
65	0x400175fa	2.0228257
66	0x3fa3cbe5	1.2796599
67	0xc02bd9e3	-2.6851737
68	0x404e58cb	3.2241695
69	0x40797f5d	3.8983986
70	0x3fe4cfee	1.7875955
71	0x3f5cd117	0.86256546
72	0x392bd616	0.00016387584
73	0x3f52c4d1	0.8233157
74	0xbf50a4f4	-0.815017
75	0xc016df31	-2.3573725
76	0x4048559c	3.1302252
77	0x3ebab8a2	0.3646899
78	0xbf7625fe	-0.9615172
79	0x3d29fc7c	0.041500553
80	0xbf7c149d	-0.98468953
81	0x3f03e49c	0.51520705
82	0x41802f5f	16.02313
83	0x4008c83c	2.1372213
84	0xbf867978	-1.0505819
85	0x4033dddd	2.8104165
86	0x3fc2ed7d	1.5228726
87	0xbf06eb6d	-0.5270298
88	0xbf048c70	-0.5177679
89	0xbf0ed7ed	-0.55798227
90	0xbfd30e84	-1.6488805
91	0x3e3b0190	0.18262315
92	0xbf8312ab	-1.0240072
93	0xbe985f5c	-0.29760253
94	0x3fdf236f	1.7432688
95	0xbe53d7fe	-0.20687863
96	0x4028c5c8	2.6370716
97	0xbf873363	-1.0562557
98	0xc12f9132	-10.972948
99	0xbd33b512	-0.043873854
100	0x409416f5	4.6278024
101	0x3fcb28ac	1.5871787
102	0x40442a2e	3.0650744
103	0xbf2bdfe2	-0.67138493
104	0x4098f53c	4.779936
105	0x3ed35c31	0.41281274
106	0xc0487c9d	-3.1326058
107	0x3fcffbb5	1.624869
108	0x3f9dfd03	1.2342838
109	0x3d8bf89e	0.06834529
110	0xc031664a	-2.7718682
111	0x3f0a7b3b	0.54094285
112	0xbf2dfdbb	-0.67965287
113	0x3fb6af26	1.4272201
114	0xbfe1d732	-1.7643797
115	0xbffa7b72	-1.9568923
116	0xc00b45cf	-2.1761358
117	0x3f09a207	0.5376286
118	0x41055a6e	8.334578
119	0xbf8e2f8d	-1.1108261
120	0x40b6a13e	5.707183
121	0x3faf0f64	1.3676572
122	0x3f0ca4ec	0.5493915
123	0x3f6a0d64	0.9142668
124	0x3f56904d	0.83813936
125	0x3f18a758	0.59630346
126	0xbe44b429	-0.1920935
127	0xbf05836b	-0.5215365

first_layer.bias f4 [32]
0	0x3eb25d00	0.34836578
1	0xbf677b7d	-0.90422803
2	0xc0d31019	-6.595715
3	0x3e3de0c0	0.18542767
4	0xbedd7dc3	-0.4326001
5	0x3fefd506	1.8736885
6	0xbfbebc9f	-1.4901313
7	0x3f72c5ef	0.9483327
8	0x3f3a5489	0.7278524
9	0x3ef9da9b	0.48799595
10	0x40878803	4.235353
11	0xbfda8f6c	-1.7075019
12	0x3fe80683	1.8126987
13	0xc06b1d76	-3.6736732
14	0x3f13fb9b	0.57805794
15	0x3fb8e1b3	1.4443878
16	0x406e54b8	3.7239208
17	0x3f6096d5	0.8773015
18	0x3ffd084f	1.976816
19	0x400bbf28	2.1835423
20	0xc008eb07	-2.139345
21	0x3e91c211	0.28468373
22	0xbee6e34b	-0.45095286
23	0xc0683fa4	-3.6288843
24	0xc0981d15	-4.75355
25	0x4004db13	2.0758712
26	0xc057ee26	-3.3739104
27	0x4038d499	2.887976
28	0x40314689	2.7699301
29	0x404c6bfc	3.1940908
30	0xc0ab099c	-5.344923
31	0x3fc2c488	1.5216227

inter_layer.weight f4 [32, 32]
0	0xbfb8015e	-1.4375417
1	0xc079f667	-3.9056642
2	0xbebf206a	-0.37329417
3	0xc086de26	-4.2146177
4	0x3fb25587	1.3932351
5	0xc05f63eb	-3.4904735
6	0xc01e0000	-2.46875
7	0x3fe0bbcf	1.7557315
8	0xc10463dd	-8.274381
9	0x3f5019fb	0.81289643
10	0x3f5cdc45	0.86273605
11	0x3f244ddb	0.641813
12	0x3f3632f3	0.7117149
13	0xc0c7ddc3	-6.2458205
14	0x3f652da8	0.8952279
15	0xc00b71a3	-2.1788108
16	0xc0176a15	-2.3658497
17	0xbdb086ed	-0.08619485
18	0xbd0488d5	-0.032357056
19	0xc08e5b50	-4.4486465
20	0xc10577c1	-8.341737
21	0xbf97734d	-1.1832062
22	0x3fe90488	1.8204508
23	0x3fd0931c	1.6294894
24	0xbf87c240	-1.0606155
25	0xbfa935c0	-1.3219528
26	0xc018dd75	-2.3885167
27	0x3f875d3b	1.0575327
28	0x3f4d15dd	0.80111486
29	0x3ff538ec	1.9157996
30	0xc1132a6f	-9.19786
31	0x3f37996b	0.7171847
32	0xbfb2086b	-1.3908819
33	0x4006d75c	2.1068945
34	0xbf8d1d29	-1.1024524
35	0xbecd707a	-0.40124875
36	0xc090e1b0	-4.5275497
37	0xc0621384	-3.5324411
38	0x4086b710	4.2098465
39	0x3da8b0ca	0.08236845
40	0x3fc9ec6c	1.5775275
41	0xc0283059	-2.627951
42	0xbdfec2b5	-0.12439481
43	0x3ece62ca	0.40309745
44	0xc0149e11	-2.3221476
45	0x4023ab63	2.5573356
46	0xbfdd70c4	-1.7300038
47	0xbfa2b1ce	-1.2710512
48	0x3fd6d800	1.6784668
49	0xbf410436	-0.7539705
50	0xc03551af	-2.8331106
51	0x4003d655	2.0599568
52	0xbfa01ac1	-1.2508165
53	0xbf7716e9	-0.96519333
54	0x3f0ea896	0.5572599
55	0xbfb116b8	-1.3835058
56	0x4084c9f9	4.149655
57	0xbedb30db	-0.4281071
58	0xbfe92ef4	-1.8217454
59	0x3ff1ab3e	1.8880384
60	0xc01c88ac	-2.4458418
61	0xc036fab4	-2.8590517
62	0xc097cdf1	-4.7438893
63	0xc04084a2	-3.0080953
64	0xbee579b4	-0.44819415
65	0xc0be5b7c	-5.9486675
66	0xc0310c62	-2.7663808
67	0xbd8c39b8	-0.068469465
68	0x40673721	3.6127398
69	0xbd01317f	-0.031541344
70	0xc0c9e4f7	-6.3092
71	0x403967cf	2.896961
72	0xc0a175da	-5.045636
73	0x3eb552d9	0.3541477
74	0x3ec626a8	0.38701367
75	0xbe3040f4	-0.17212278
76	0xc03887ea	-2.8832955
77	0xbef11cd0	-0.47092295
78	0x3f3a6887	0.72815746
79	0xbf4568fe	-0.7711333
80	0xc09eb08b	-4.9590507
81	0x4039c0fe	2.9024043
82	0xbeeeede9	-0.46665886
83	0x3f69f6a6	0.9139198
84	0xc011f712	-2.280705
85	0xbea171d3	-0.31532153
86	0xbf3d5c8c	-0.7396934
87	0xc08e6103	-4.4493423
88	0xc0c3122a	-6.0959673
89	0x40555cc5	3.3337872
90	0xbeead966	-0.45868987
91	0xc03cc156	-2.9493003
92	0xbecf185f	-0.4044828
93	0x3e8671fc	0.26258838
94	0xc0791d6f	-3.8924215
95	0x405d65b7	3.4593332
96	0xbd3c9560	-0.046040893
97	0xc0a6c4a4	-5.211504
98	0x3fd049df	1.6272544
99	0xc054288e	-3.3149753
100	0x406fb446	3.745378
101	0xbf8f0f4a	-1.1176541
102	0xc036f68b	-2.8587978
103	0x3edeed16	0.43540257
104	0xbfcfa980	-1.6223602
105	0xbe084ee6	-0.13311347
106	0x3e1ac058	0.15112436
107	0xc07ea3da	-3.9787507
108	0x3f7a1103	0.9768221
109	0xc0bd1215	-5.9084573
110	0x3fbccc31	1.4749814
111	0x3e3d5aa4	0.18491608
112	0xc04c1ac3	-3.1891334
113	0xbf5ab811	-0.85437113
114	0x3eaa4b6e	0.33260673
115	0xbf87a1d5	-1.0596262
116	0xbfa10a5d	-1.2581288
117	0x3fb48bf6	1.4105213
118	0x3eb6dbc5	0.35714546
119	0xc00c60d9	-2.193411
120	0xc0d97a4d	-6.7961793
121	0xbf2c57b1	-0.67321306
122	0x3f2cca20	0.6749592
123	0xbee4215f	-0.4455671
124	0x3f1a9747	0.6038708
125	0x3fd84174	1.6894975
126	0xc021b937	-2.5269296
127	0xbfcf1ca2	-1.6180613
128	0x3fe0c127	1.7558945
129	0xc0de2d0a	-6.942998
130	0xbc886750	-0.016650826
131	0x3fa27f73	1.2695144
132	0x3fbf8d09	1.4964916
133	0x3fbecb4b	1.490579
134	0xc01004c0	-2.25029
135	0xbfc49e5f	-1.5360831
136	0xc0317bb6	-2.7731757
137	0x3f9f1a4a	1.2429898
138	0xc0759fb7	-3.8378732
139	0x3f59b82d	0.85046655
140	0xbfb03e18	-1.376895
141	0xbfd8bf7e	-1.6933439
142	0x406c9e63	3.6971672
143	0x3f91da77	1.1394795
144	0xc0b8246d	-5.7544465
145	0x402381bb	2.5547931
146	0x3f168f5c	0.588125
147	0x3f407f4d	0.75194246
148	0xc023a863	-2.5571525
149	0x3f88815f	1.0664481
150	0xbff5a76c	-1.9191718
151	0xbf22a1f5	-0.63528377
152	0xc0063fab	-2.097636
153	0x3fa5f587	1.2965554
154	0x3f895823	1.0730022
155	0xbf827f05	-1.0195013
156	0x3deba72d	0.115064956
157	0x3d4a5119	0.049393747
158	0x3fe1f9a9	1.7654315
159	0x4009785c	2.1479712
160	0xc0335dd9	-2.802603
161	0x3ff77ed6	1.9335582
162	0xbdcce834	-0.10005227
163	0x3f8c2a6c	1.0950446
164	0xc0dd4bbd	-6.9154954
165	0xc06ae4eb	-3.670222
166	0xc0559711	-3.3373454
167	0xc03194f0	-2.7747154
168	0xbfd18617	-1.6369046
169	0x3f2e6844	0.68127847
170	0xc02e3b88	-2.7223835
171	0x3f02ae78	0.5104747
172	0xbf1fead5	-0.624677
173	0x3feaad36	1.833411
174	0xc047b287	-3.1202714
175	0xbfa5afb1	-1.2944242
176	0xbf9543de	-1.1661336
177	0xc03459a2	-2.8179708
178	0xc049c8c3	-3.1528785
179	0xbde6734b	-0.11252459
180	0xbef31862	-0.4747954
181	0xc029737f	-2.6476743
182	0x4015ae2a	2.3387551
183	0xc09e3dd2	-4.9450464
184	0x40bc2e49	5.88065
185	0xbff4df3c	-1.9130626
186	0xbf20ac61	-0.6276303
187	0x3fbbb929	1.4665881
188	0xc023805d	-2.5547097
189	0xc08d392f	-4.4132304
190	0xc087086a	-4.219777
191	0xc050d618	-3.2630672
192	0xbe2206bc	-0.15822881
193	0xc0429650	-3.0404243
194	0x3e950507	0.29105398
195	0x3faf7168	1.3706484
196	0x40d98bcb	6.7983146
197	0xbe1b6fb9	-0.15179338
198	0xc056fdc5	-3.3592389
199	0x3fc4ecdd	1.5384785
200	0xc064107f	-3.5635068
201	0x3e84b591	0.25919774
202	0x3f9cb2d1	1.224207
203	0xc0774056	-3.8633018
204	0xc00e782f	-2.2260854
205	0xc0a7e826	-5.2470884
206	0x3fb2fd24	1.3983502
207	0xbe2047c6	-0.1565238
208	0xc0b8223e	-5.75418
209	0x3fbf4957	1.4944257
210	0x3ef644a6	0.4809925
211	0xbf519d98	-0.81881094
212	0x3d41a17d	0.047273148
213	0x3e5329a3	0.20621352
214	0xbfe82541	-1.8136369
215	0xc02004f7	-2.500303
216	0xc112a984	-9.166386
217	0x3fc3e7e7	1.5305146
218	0x3efeae7c	0.49742496
219	0x3f6209b6	0.8829607
220	0x3cd36424	0.025804587
221	0x3fc7fe18	1.5624418
222	0xc0c02873	-6.0049376
223	0x3fb6c3b8	1.4278479
224	0xbf1cc06b	-0.61231107
225	0x400ce06d	2.2011979
226	0xc01d6a95	-2.4596303
227	0xc001a7e2	-2.0258718
228	0xc05fd5ed	-3.497432
229	0xbeabd120	-0.33557987
230	0x401efc2b	2.484141
231	0xc011f12c	-2.280345
232	0x3f8a63b1	1.0811673
233	0xbf95f33e	-1.1714857
234	0x3f8f0404	1.11731
235	0x3da9463f	0.082653515
236	0x3f61e42e	0.882388
237	0x4017578d	2.3647187
238	0xbfc82760	-1.5637016
239	0x3e15727c	0.14594454
240	0x3f933beb	1.150266
241	0xbf362d9a	-0.7116333
242	0xbe46ee11	-0.19426753
243	0x3feea9a1	1.8645517
244	0xc0562041	-3.3457186
245	0xbe8a82d5	-0.27052942
246	0xbf1ed924	-0.6205008
247	0x3e1df4d2	0.15425423
248	0x40a131fc	5.0373516
249	0xbeedd6a7	-0.4645283
250	0xc018f2c2	-2.3898168
251	0x4008ef26	2.1395965
252	0xbe76be47	-0.24096023
253	0xbf0a9d1b	-0.54145974
254	0xc02adfe6	-2.6699157
255	0xbf50bd01	-0.815384

inter_layer.bias f4 [32]
0	0xbe7cdce2	-0.24693635
1	0xbf1376bf	-0.5760307
2	0x3ca6fdc8	0.020384684
3	0x3f4f743e	0.81036747
4	0x3fb4cc1c	1.4124789
5	0x3fe3dcb7	1.7801732
6	0x4032af26	2.7919402
7	0xbeefe7fa	-0.46856672
8	0xbea94a60	-0.33064556
9	0xbf271e1e	-0.6528033
10	0x3f130d20	0.574419
11	0x3e0b9f1d	0.13634916
12	0xbf560089	-0.83594567
13	0x3e4fab0c	0.20280093
14	0x3e66677b	0.22500412
15	0x3fc28c6d	1.5199105
16	0xbe36ed17	-0.1786388
17	0xbec36c69	-0.38168648
18	0x3f3a3465	0.727362
19	0xbe969c74	-0.2941624
20	0x3e1df9d7	0.15427338
21	0x3f7b5d49	0.98189217
22	0x3fbc1d8f	1.469652
23	0x3efbca1c	0.49177635
24	0x406d7e48	3.7108326
25	0x3ee6adac	0.45054376
26	0x3f70dbe9	0.94085556
27	0x3e57513a	0.21027079
28	0x3e6d31f8	0.23163593
29	0x3f1e5e7f	0.6186294
30	0xbf4f6f96	-0.8102964
31	0x3e0e3041	0.13885595

final_layer.weight f4 [1, 32]
0	0xc0b470ad	-5.6387544
1	0x404aeb6a	3.1706185
2	0xc116a269	-9.414651
3	0xc0cf4dc2	-6.478242
4	0xc0e88da4	-7.26729
5	0x40fcf954	7.9054356
6	0xc0aa389f	-5.3194118
7	0x4036a2f6	2.8536963
8	0xc09635ca	-4.694066
9	0xc0d2bbd1	-6.585427
10	0x40327bfb	2.7888172
11	0x40296609	2.6468527
12	0xc0a2680b	-5.0752006
13	0xc04b051d	-3.172187
14	0x401da665	2.463281
15	0x412f7881	10.96692
16	0x402ddc5d	2.716575
17	0x401ede80	2.4823303
18	0xc0d72310	-6.72303
19	0x4028142c	2.6262312
20	0x40264061	2.5976794
21	0xc08950f9	-4.2911344
22	0x408ffa8a	4.4993334
23	0xc0edcec8	-7.431492
24	0xc089269e	-4.285964
25	0xc0076e5c	-2.1161108
26	0xc09e340a	-4.9438524
27	0xc0cd9998	-6.424999
28	0x404c24a4	3.1897364
29	0xc011510a	-2.2705712
30	0x4114229f	9.258452
31	0xc059f1e1	-3.405388
