continuous cartpole/rl_model/train_2022-02-16T23:10:08.409859/model/49610_critic.pt (torch, 8580 bytes, 9 tensors)

norm_layer.weight f4 [4]
1.0 1.0 1.0 1.0
00000000: 0000 803f 0000 803f 0000 803f 0000 803f

norm_layer.bias f4 [4]
0.0 0.0 0.0 0.0
00000000: 0000 0000 0000 0000 0000 0000 0000 0000

norm_layer.running_mean f4 [4]
0.0 0.0 0.0 0.0
00000000: 0000 0000 0000 0000 0000 0000 0000 0000

norm_layer.running_var f4 [4]
1.0 1.0 1.0 1.0
00000000: 0000 803f 0000 803f 0000 803f 0000 803f

first_layer.weight f4 [32, 5]
9.081547 3.6817026 -9.459253 2.2959688 0.2858119 4.4192996 0.9394429 -8.506594
-0.37059224 0.019868068 -7.2172503 -3.4631689 -6.3542113 -2.161283 0.025128614 -3.378231
-1.4011493 0.18902239 0.004217609 0.76864475 -8.423151 -1.5032411 -2.2490685 -2.5118082
0.6174529 9.911776 2.8994143 9.375317 1.4294746 0.048897594 5.0110183 0.9213019
-10.077118 0.049318843 -0.016499987 -7.89036 -5.558183 0.8943181 -2.1067705 0.48346308
6.2176466 0.9294199 -11.34388 -0.44101703 0.01969018 -9.141858 -3.675852 -11.101386
-2.9382362 0.0070650727 -2.5100582 -3.1574957 3.9134488 0.5121989 -0.58042794 -3.601526
-1.0895383 -16.170885 -1.5215513 0.6834268 7.891149 0.5155613 7.6203785 0.70047206
-0.047347955 3.7177265 0.552643 22.60602 0.5556927 0.009838607 -13.947662 -6.026185
-1.4529895 -2.0387914 0.27910993 -12.872393 -2.6591072 -2.4807024 -2.7909648 0.020178508
4.6186113 0.7861959 1.9789636 -0.5807772 0.14519 4.005803 2.5619729 6.117345
2.097526 -0.19479686 5.3071413 -0.37886602 -12.439193 -0.99229664 0.047473606 -12.290466
-3.2371066 -8.09748 -1.7554309 -0.39651823 7.8990808 3.212927 3.604803 1.2311443
-0.14967567 -10.854121 -2.2996442 -28.038633 -1.2443 -0.21017773 5.9573064 -1.4333279
8.520413 1.8450239 -0.081890896 1.9522849 0.4405822 18.195478 0.9975247 -0.0019557036
10.157643 3.4112487 8.964636 2.2694907 0.18294232 -1.2317314 0.86964107 -3.528084
0.3242859 -0.49272606 -2.0078027 1.5050119 -15.792859 0.01306998 -0.30445474 -13.557494
1.48333 3.2376392 -0.14559205 -0.805289 7.50683 1.1286802 15.3308935 1.3478589
0.24843295 -2.4613433 -1.3001093 -0.7584083 -0.0038149643 0.6149371 3.32865 1.5180118
-8.561049 -7.366273 -0.75601923 -5.430544 -2.3213603 -10.409944 -0.7745003 0.0058198357
00000000: 044e 1141 04a1 6b40 1a59 17c1 27f1 1240
00000010: f055 923e e76a 8d40 547f 703f 021b 08c1
00000020: 44be bdbe 5cc2 a23c b7f3 e6c0 8fa4 5dc0
00000030: b355 cbc0 7652 0ac0 86da cd3c f034 58c0
00000040: dc58 b3bf 168f 413e de33 8a3b e7c5 443f
00000050: 3ac5 06c1 346a c0bf bdf0 0fc0 77c1 20c0
00000060: 6511 1e3f a296 1e41 0190 3940 4c01 1641
00000070: 06f9 b63f d848 483d 435a a040 71da 6b3f
00000080: e03b 21c1 8e02 4a3d fb2a 87bc d47d fcc0
00000090: a3dc b1c0 08f2 643f 54d5 06c0 7988 f73e
000000a0: f6f6 c640 76ee 6d3f 8880 35c1 fccc e1be
000000b0: 4d4d a13c 0d45 12c1 2941 6bc0 479f 31c1
000000c0: 100c 3cc0 2082 e73b cba4 20c0 6914 4ac0
000000d0: f275 7a40 781f 033f ed96 14bf 677f 66c0
000000e0: fe75 8bbf f95d 81c1 31c2 c2bf 0ff5 2e3f
000000f0: 4b84 fc40 d3fb 033f 24da f340 2352 333f
00000100: eeef 41bd 3bef 6d40 037a 0d3f 21d9 b441
00000110: e041 0e3f 1c32 213c a029 5fc1 82d6 c0c0
00000120: 8ffb b9bf 8f7b 02c0 7fe7 8e3e 52f5 4dc1
00000130: d02e 2ac0 d4c3 1ec0 2b9f 32c0 664d a53c
00000140: aacb 9340 2244 493f ae4e fd3f d1ad 14bf
00000150: b0ac 143e 8a2f 8040 5df7 2340 4ac1 c340
00000160: de3d 0640 d478 47be 1ad4 a940 bafa c1be
00000170: ef06 47c1 2707 7ebf af73 423d c0a5 44c1
00000180: c12c 4fc0 478f 01c1 f6b1 e0bf 7004 cbbe
00000190: 45c5 fc40 99a0 4d40 18b5 6640 2396 9d3f
000001a0: 9444 19be 7baa 2dc1 5f2d 13c0 1f4f e0c1
000001b0: 3945 9fbf d538 57be 41a2 be40 4a77 b7bf
000001c0: 9d53 0841 be29 ec3f 6ab6 a7bd 79e4 f93f
000001d0: fd93 e13e 5790 9141 c75d 7f3f 432b 00bb
000001e0: b585 2241 e651 5a40 266f 0f41 563f 1140
000001f0: 3b55 3b3e 60a9 9dbf cca0 5e3f 21cc 61c0
00000200: cd08 a63e 9746 fcbe d77f 00c0 3ba4 c03f
00000210: 8daf 7cc1 7823 563c 7ee1 9bbe 7feb 58c1
00000220: c2dd bd3f 7b35 4f40 1516 15be 6b27 4ebf
00000230: f437 f040 9878 903f 574b 7541 a486 ac3f
00000240: 3565 7e3e a686 1dc0 fb69 a6bf 0c27 42bf
00000250: 7b04 7abb 856c 1d3f 9a08 5540 364e c23f
00000260: 0ffa 08c1 82b8 ebc0 7a8a 41bf 04c7 adc0
00000270: 2b91 14c0 218f 26c1 a745 46bf 52b4 be3b

first_layer.bias f4 [32]
2.0991805 -3.3958604 9.459928 -2.5803142 2.1830285 2.2610278 -6.9543934 2.6083632
-3.534654 5.3940635 7.847678 4.31442 -7.344691 -4.602678 3.544207 2.7486494
8.066477 -0.5242965 -9.168506 2.1974354 -0.66314995 0.53337425 -2.2256467 -1.2217896
-0.11943754 6.9506164 3.5645323 -1.0517819 -2.2037973 -8.24712 4.0213385 10.095173
00000000: f958 0640 c755 59c0 dd5b 1741 de23 25c0
00000010: bdb6 0b40 aeb4 1040 648a dec0 6cef 2640
00000020: c537 62c0 2b9c ac40 2e20 fb40 bb0f 8a40
00000030: b507 ebc0 2349 93c0 4ad4 6240 dfe9 2f40
00000040: 4a10 0141 4c38 06bf 33b2 12c1 c8a2 0c40
00000050: 32c4 29bf 378b 083f ff70 0ec0 9a63 9cbf
00000060: ab9b f4bd 736b de40 4c21 6440 caa0 86bf
00000070: 040b 0dc0 34f4 03c1 ceae 8040 d485 2141

inter_layer.weight f4 [32, 32]
0.56907034 -30.762259 10.712666 0.14323127 1.4151162 -2.7546663 -28.279295 1.1227776
-9.120223 10.698395 1.5359477 1.6843073 -8.317948 -78.857605 1.832529 10.224222
1.9359248 -5.9120717 -12.414036 1.6278216 -9.55675 0.473487 -6.32665 -70.25901
-8.529862 1.1607308 2.58816 -0.025579838 -8.36065 -1.2194701 0.7329413 9.122636
-3.1048832 -21.953745 7.933097 1.1764954 0.32978493 -3.782512 -18.094341 1.8348696
-3.9889355 9.074851 1.1701686 0.27307576 -4.418792 -55.92264 3.2414923 8.362473
1.5035261 -6.3610363 -4.9717383 1.5064448 -11.7002735 0.9481993 -5.9750667 -41.331917
-6.1904874 0.19130316 0.4655981 1.2909889 -4.505019 -2.7772021 1.096852 8.040282
-1.4115736 1.7319307 -10.396679 -2.252872 -1.9954116 -0.5890143 20.74835 -2.5754309
4.280197 -10.72775 -1.9603496 -1.4870111 0.7867598 51.10901 -3.2777014 -8.815202
-4.3953404 0.6883338 8.353839 -1.6724818 4.9874225 -1.2260066 0.594358 27.755129
4.2301188 -2.46633 -2.1225753 -1.1814355 0.63031435 -1.1825256 -1.6649724 -9.738536
-0.13370778 -36.381042 10.054245 0.14186743 1.5089025 -2.5187967 -23.72444 -0.000179177
-8.222178 9.05525 -0.04639003 1.5218859 -5.310615 -67.629524 1.4757538 10.075402
1.0896732 -7.3299866 -7.5598216 1.8094841 -8.752332 1.1972601 -5.621341 -49.527695
-7.870956 -0.759161 2.6212442 1.0561295 -5.8973255 -1.0481379 1.1969224 7.7768917
-3.819122 -20.727758 7.719342 -0.35585192 0.60321295 -4.806204 -19.914726 2.7784007
-2.8307922 9.790467 0.46508884 0.17178397 -1.5984839 -49.244434 3.1909583 10.325652
1.0159863 -7.13683 -5.0834994 1.7829897 -13.186299 2.9366755 -4.9442887 -44.869568
-8.017954 -0.23948443 1.0191281 1.6399125 -1.8670028 -0.76233023 0.45985544 5.51378
0.6527578 -9.305432 8.052896 0.46359652 0.9401489 -3.3694327 -7.647601 0.4424907
-2.183053 9.172 -0.865272 2.9387317 -3.8511484 -58.425133 2.0906258 8.792687
-0.02359079 -6.746773 -3.2645254 2.5261576 -6.1646953 9.081844 -3.051053 -29.279995
-9.340625 -1.0842164 1.9359137 -0.90024215 -5.4806843 4.0718083 0.3569755 6.128791
-1.5577227 0.6002845 -10.355418 -2.2006507 -1.5992374 -0.706108 20.851997 -2.555564
3.8956337 -10.749071 -1.7371608 -3.2125762 1.2305521 49.47588 -4.5707254 -8.044325
-3.72557 -0.5286541 7.9663496 -1.4295002 5.094175 -2.868255 0.518158 28.613108
3.9961655 -2.493874 -2.1542857 -1.0950707 1.022978 -0.9600143 -1.8790374 -9.69291
-3.811919 2.26278 -9.141041 -1.3805405 -2.0655732 -3.2600048 13.908722 -1.7366024
-1.4692715 -9.013934 -1.7730821 -1.8261415 0.059378657 45.592903 -3.151815 -6.458024
-4.722762 -1.1281977 6.4711747 -1.0604885 2.4584336 -0.01837668 -0.76144785 28.050522
2.7497015 -2.1501086 -3.697122 -2.5546558 -0.7906386 -0.5173664 -1.7733239 -11.105601
00000000: 98ae 113f 1b19 f6c1 1467 2b41 38ab 123e
00000010: 8722 b53f 744c 30c0 ff3b e2c1 2db7 8f3f
00000020: 6fec 11c1 a02c 2b41 ef99 c43f 6297 d73f
00000030: 5116 05c1 18b7 9dc2 4f90 ea3f 6a96 2341
00000040: 62cc f73f b12f bdc0 e49f 46c1 755c d03f
00000050: 73e8 18c1 e36c f23e eb73 cac0 9d84 8cc2
00000060: 517a 08c1 d492 943f 6aa4 2540 cf8c d1bc
00000070: 39c5 05c1 9917 9cbf 0ba2 3b3f 51f6 1141
00000080: 68b6 46c0 45a1 afc1 eedb fd40 6797 963f
00000090: 92d9 a83e ad14 72c0 36c1 90c1 02dd ea3f
000000a0: b84a 7fc0 9732 1141 16c8 953f 96d0 8b3e
000000b0: be66 8dc0 c9b0 5fc2 9c74 4f40 b0cc 0541
000000c0: 8b73 c03f 9c8d cbc0 7b18 9fc0 2fd3 c03f
000000d0: 5234 3bc1 30bd 723f bf33 bfc0 e253 25c2
000000e0: 7918 c6c0 fae4 433e e062 ee3e 203f a53f
000000f0: 1e29 90c0 aebd 31c0 a565 8c3f ffa4 0041
00000100: 72ae b4bf e8af dd3f cc58 26c1 0e2f 10c0
00000110: a669 ffbf a4c9 16bf 9ffc a541 dcd3 24c0
00000120: 60f7 8840 dda4 2bc1 bcec fabf 6156 bebf
00000130: 1769 493f a06f 4c42 dcc5 51c0 110b 0dc1
00000140: a1a6 8cc0 a536 303f 53a9 0541 e213 d6bf
00000150: f798 9f40 c9ed 9cbf d927 183f 810a de41
00000160: 225d 8740 5ad8 1dc0 46d8 07c0 4739 97bf
00000170: 485c 213f 005d 97bf d11d d5bf 0bd1 1bc1
00000180: b1ea 08be 3086 11c2 30de 2041 b245 113e
00000190: b823 c13f f733 21c0 a7cb bdc1 76e1 3bb9
000001a0: 0b8e 03c1 4ee2 1041 7903 3ebd 28cd c23f
000001b0: 8ff0 a9c0 5142 87c2 80e5 bc3f d934 2141
000001c0: 697a 8b3f 408f eac0 0fea f1c0 2d9d e73f
000001d0: 8d09 0cc1 d23f 993f 07e2 b3c0 5c1c 46c2
000001e0: dfde fbc0 6058 42bf 77c2 2740 402f 873f
000001f0: e4b6 bcc0 6229 86bf c134 993f 4cdc f840
00000200: 7f6c 74c0 73d2 a5c1 da04 f740 3932 b6be
00000210: 2a6c 1a3f 6ccc 99c0 5c51 9fc1 51d1 3140
00000220: b32b 35c0 c1a5 1c41 2020 ee3e 23e8 2f3e
00000230: 1f9b ccbf 4dfa 44c2 a938 4c40 df35 2541
00000240: d70b 823f e960 e4c0 07ac a2c0 0239 e43f
00000250: 15fb 52c1 7ef2 3b40 9d37 9ec0 707a 33c2
00000260: 8a49 00c1 683b 75be ca72 823f a7e8 d13f
00000270: f3f9 eebf 1328 43bf 2c72 eb3e e370 b040
00000280: 231b 273f 0de3 14c1 a9d8 0041 865c ed3e
00000290: 99ad 703f c9a4 57c0 26b9 f4c0 248e e23e
000002a0: 24b7 0bc0 83c0 1241 7782 5dbf 2e14 3c40
000002b0: 3779 76c0 56b3 69c2 d0cc 0540 d9ae 0c41
000002c0: 7941 c1bc 90e5 d7c0 fced 50c0 91ac 2140
000002d0: 2f45 c5c0 3c4f 1141 7444 43c0 6e3d eac1
000002e0: 3373 15c1 9ac7 8abf 05cc f73f 4576 66bf
000002f0: c461 afc0 414c 8240 7ec5 b63e 0e1f c440
00000300: 7563 c7bf 3fac 193f cbaf 25c1 76d7 0cc0
00000310: d0b3 ccbf 7ec3 34bf e4d0 a641 5c8e 23c0
00000320: 1052 7940 32fc 2bc1 495b debf d99a 4dc0
00000330: bb82 9d3f 4de7 4542 6243 92c0 8eb5 00c1
00000340: bd6f 6ec0 e055 07bf 56ec fe40 ddf9 b6bf
00000350: 7b03 a340 7d91 37c0 01a6 043f a5e7 e441
00000360: 2dc1 7f40 a29b 1fc0 d1df 09c0 472b 8cbf
00000370: f1f0 823f 7fc3 75bf 4c84 f0bf 2916 1bc1
00000380: 7bf6 73c0 63d1 1040 b441 12c1 8db5 b0bf
00000390: 5a32 04c0 eba3 50c0 208a 5e41 fd48 debf
000003a0: 1711 bcbf 1339 10c1 5bf4 e2bf 01bf e9bf
000003b0: 0937 733d 225f 3642 56b7 49c0 22a8 cec0
000003c0: de20 97c0 c868 90bf dd13 cf40 16be 87bf
000003d0: fa56 1d40 b18a 96bc 3fee 42bf 7867 e041
000003e0: 1cfb 2f40 619b 09c0 a69d 6cc0 7b7f 23c0
000003f0: 4b67 4abf 2072 04bf 47fc e2bf 8bb0 31c1

inter_layer.bias f4 [32]
9.500519 7.4706116 -11.834707 8.164637 4.5491 -1.2448713 -11.561034 -12.336511
-12.061243 5.3898206 3.4000971 -10.543735 5.1919217 -11.547696 -0.5798777 -3.0615976
-9.637799 -9.505901 8.959192 -12.870384 8.440949 -10.122954 8.1161375 -10.261803
9.17755 9.000892 -10.331611 3.6100492 -10.4940815 -10.706536 -10.456666 6.988782
00000000: 2002 1841 400f ef40 f65a 3dc1 5aa2 0241
00000010: 3a92 9140 f157 9fbf fff9 38c1 5962 45c1
00000020: dafa 40c1 6979 ac40 319b 5940 23b3 28c1
00000030: 3924 a640 5dc3 38c1 dd72 14bf 37f1 43c0
00000040: 6d34 1ac1 2c18 18c1 da58 0f41 18ed 4dc1
00000050: 210e 0741 9ff7 21c1 b3db 0141 5830 24c1
00000060: 3fd7 1241 a703 1041 474e 25c1 0c0b 6740
00000070: c2e7 27c1 f94d 2bc1 814e 27c1 1aa4 df40

final_layer.weight f4 [1, 32]
21.92549 20.026197 -1.7055242 17.199768 19.35752 13.40067 -2.06614 -4.0791783
-9.384186 13.760353 16.393356 -2.1737914 17.575806 -2.478036 -11.729188 14.3700485
-8.5516205 -2.9767866 18.301292 -2.9936447 23.779987 -3.0728471 14.677055 -5.9522853
20.96862 16.485802 -6.7129574 17.596577 -1.8191748 -6.914772 -3.579812 18.739632
00000000: 6767 af41 a735 a041 9e4e dabf 2099 8941
00000010: 33dc 9a41 2569 5641 a33b 04c0 a188 82c0
00000020: a025 16c1 682a 5c41 9825 8341 661f 0bc0
00000030: 409b 8c41 2498 1ec0 c1aa 3bc1 b8eb 6541
00000040: 70d3 08c1 ac83 3ec0 0c69 9241 e097 3fc0
00000050: 6a3d be41 87a9 44c0 38d5 6a41 1f79 bec0
00000060: bcbf a741 ece2 8341 8cd0 d6c0 cac5 8c41
00000070: b8da e8bf d045 ddc0 a41b 65c0 c4ea 9541
