continuous cartpole/rl_model/train_2022-02-16T23:10:08.409859/model/55420_critic.pt (torch, 8580 bytes, 9 tensors)

norm_layer.weight f4 [4]
0	0x3f800000	1.0
1	0x3f800000	1.0
2	0x3f800000	1.0
3	0x3f800000	1.0

norm_layer.bias f4 [4]
0	0x00000000	0.0
1	0x00000000	0.0
2	0x00000000	0.0
3	0x00000000	0.0

norm_layer.running_mean f4 [4]
0	0x00000000	0.0
1	0x00000000	0.0
2	0x00000000	0.0
3	0x00000000	0.0

norm_layer.running_var f4 [4]
0	0x3f800000	1.0
1	0x3f800000	1.0
2	0x3f800000	1.0
3	0x3f800000	1.0

first_layer.weight f4 [32, 5]
0	0x40f7d85c	7.745161
1	0x405c9667	3.4466798
2	0xc0e6f946	-7.217929
3	0x40482613	3.1273239
4	0x3e9c341c	0.30508506
5	0x410b17eb	8.693339
6	0x3f9b1322	1.2115214
7	0xc17f51c3	-15.957461
8	0xbf3dc9b2	-0.7413589
9	0x3d024660	0.031805396
10	0xc1060ebf	-8.3786
11	0xc07f0e71	-3.9852564
12	0xc0c84227	-6.258075
13	0xc02cd090	-2.7002296
14	0x3c940cf4	0.018072583
15	0xc09481c2	-4.6408396
16	0xbfe62080	-1.7978668
17	0xbf54b3c2	-0.8308679
18	0xbb8639ba	-0.004096237
19	0x3f425ca7	0.75922626
20	0xc121ba88	-10.10804
21	0xc022dcf6	-2.5447364
22	0xc069f175	-3.6553624
23	0xc03e75ff	-2.975952
24	0x3f193c90	0.59858036
25	0x40ce0fc3	6.439424
26	0x4098bfd1	4.773415
27	0x415326ac	13.196941
28	0x3e95c2b2	0.29250103
29	0x3e499665	0.19686277
30	0x412e84e2	10.907442
31	0xbfabbdb3	-1.3417267
32	0xc19272e4	-18.306099
33	0x400949e6	2.1451354
34	0xbe9623da	-0.29324228
35	0xc11f5b1e	-9.959745
36	0xc0e3b156	-7.1153975
37	0xbfd65c61	-1.6746942
38	0xc029cc5f	-2.6530988
39	0x3ed85e96	0.42259663
40	0x40d5441f	6.6645656
41	0x3f30664e	0.68906105
42	0xc18aa907	-17.332533
43	0xbf385de6	-0.7201828
44	0x3c5b9bcb	0.013403843
45	0xc1253dd6	-10.327597
46	0xc08ac173	-4.3361144
47	0xc131b004	-11.105473
48	0xc053f03f	-3.3115385
49	0x3dc3d66c	0.09562382
50	0xc06296f0	-3.5404625
51	0xc0617afc	-3.5231314
52	0x408f678d	4.4813905
53	0x3dacbc20	0.084343195
54	0xbf1c358f	-0.61019224
55	0xc01461bf	-2.318466
56	0xbf64f17f	-0.89430994
57	0xc1946957	-18.551435
58	0xc0523dda	-3.2850251
59	0x3ee32cc9	0.44370106
60	0x40d3eb8e	6.622504
61	0x3e8205cc	0.25395048
62	0x4102df6d	8.179547
63	0x3f74f1a8	0.9568124
64	0xbba66197	-0.0050775516
65	0x4009f7c8	2.1557484
66	0x3ea52afd	0.3225936
67	0x41a2d847	20.355604
68	0x3f3c99f5	0.7367242
69	0x3c056b18	0.008143209
70	0xc18ae409	-17.361345
71	0xc0e9ac04	-7.302248
72	0xc01188c3	-2.2739723
73	0xc0314a71	-2.7701685
74	0x3e78ccfa	0.24296942
75	0xc1619b0c	-14.100353
76	0xc0586a78	-3.3814983
77	0xc018d41a	-2.3879457
78	0xc04478a1	-3.0698626
79	0x3d112431	0.035434905
80	0x406ff562	3.749352
81	0x3f3a0e44	0.7267802
82	0x3ff7f12a	1.9370472
83	0xbfc90854	-1.5705667
84	0x3df4bf25	0.119505204
85	0x40cae888	6.340885
86	0x4007e1a4	2.123147
87	0x40521602	3.2825933
88	0x4036d094	2.8564806
89	0xbe1fe9bf	-0.15616511
90	0x411d58bc	9.834164
91	0xbf8bcb91	-1.0921499
92	0xc1ad9f1e	-21.702694
93	0xbf7ba866	-0.9830383
94	0x3d7bf56b	0.061513346
95	0xc162a996	-14.166403
96	0xc077fa40	-3.874649
97	0xc0e99756	-7.2997236
98	0xbff6a4c0	-1.9269028
99	0xbec234f5	-0.37931028
100	0x41010181	8.062867
101	0x40652822	3.5805745
102	0x3fdce055	1.7255961
103	0x3f97ba66	1.1853759
104	0xbe00ef04	-0.12591177
105	0xc14abe25	-12.671422
106	0xc026fa3a	-2.6090226
107	0xc1db42aa	-27.40755
108	0xbfd71162	-1.680218
109	0xbe6d48ef	-0.23172353
110	0x40c3042f	6.0942607
111	0xbf587a5e	-0.8456172
112	0x41216263	10.08652
113	0x3fc91069	1.5708133
114	0xbb928501	-0.0044714217
115	0x3f7e0f77	0.9924235
116	0x3f105e57	0.5639395
117	0x417d6af4	15.838612
118	0x3f6eddc5	0.93307143
119	0xba7610d7	-0.00093866646
120	0x41278f78	10.472527
121	0x4082ed3b	4.091459
122	0x4118ec1b	9.557643
123	0x40073c40	2.1130524
124	0x3e4aa652	0.19790009
125	0xbfcc7f2a	-1.5976307
126	0x3f67d044	0.90552163
127	0xc0589544	-3.3841105
128	0xbedc6904	-0.4304887
129	0xbf06cdb9	-0.5265766
130	0xc02c3c34	-2.6911745
131	0x3f9ff457	1.2496442
132	0xc17637be	-15.388609
133	0xbee91887	-0.45526525
134	0xbe8fc29e	-0.2807817
135	0xc17a72a8	-15.652992
136	0x3fa2611e	1.2685888
137	0x4097a7d6	4.739238
138	0xbf095a75	-0.5365365
139	0xbf3f925b	-0.74832696
140	0x40d6cd8d	6.7125916
141	0x3fed9498	1.8560972
142	0x419446b9	18.534533
143	0x3fa8b816	1.3181179
144	0x3e97bc57	0.2963588
145	0xbf84a091	-1.0361501
146	0xbeb4adf6	-0.35288972
147	0x3f72151b	0.94563454
148	0xbf4db016	-0.8034681
149	0x3f27dcb5	0.6557115
150	0x4044a98b	3.072848
151	0x3f7e6941	0.99379355
152	0xc107bd96	-8.483786
153	0xc0f7368e	-7.7254095
154	0xbf23e6e9	-0.64024216
155	0xc0d2a223	-6.582292
156	0xc035437f	-2.8322446
157	0xc1257477	-10.340934
158	0xbfaa2f46	-1.3295677
159	0x3c79cd6b	0.015246729

first_layer.bias f4 [32]
0	0x3edda037	0.43286297
1	0xc09cb93a	-4.8976107
2	0x4142d1af	12.176192
3	0xbf3dbac5	-0.7411311
4	0x406ef6a0	3.7338028
5	0x3fbb5c56	1.4637554
6	0xc0f123ed	-7.5356355
7	0x40800bac	4.001425
8	0xc08ba3dd	-4.363753
9	0x41013e77	8.07775
10	0x411b526a	9.707621
11	0x40e8afe5	7.2714715
12	0xc0f2024b	-7.56278
13	0xc0b4ae6a	-5.646291
14	0x408296b6	4.0808973
15	0x40ba8daf	5.8297954
16	0x412c4a09	10.768075
17	0xbfeaf462	-1.835583
18	0xc116e174	-9.430042
19	0x406bec59	3.6863005
20	0xc00d9c38	-2.2126598
21	0x403abb0b	2.9176662
22	0xc08647dd	-4.1962724
23	0xc057489c	-3.3638067
24	0xbf8e17c4	-1.1101003
25	0x41163ea2	9.390291
26	0x40c0597c	6.0109234
27	0x3f76cd50	0.9640703
28	0xc07bfede	-3.9374309
29	0xc118039e	-9.500883
30	0x40d0c7df	6.5243983
31	0x414d2f25	12.82401

inter_layer.weight f4 [32, 32]
0	0x3ef507e5	0.47857586
1	0xc21a8fcc	-38.640427
2	0x415f9cb8	13.975761
3	0x3d413632	0.047170825
4	0x3fc37f54	1.5273232
5	0xc08e31b5	-4.4435678
6	0xc2109110	-36.141663
7	0x3fa763f5	1.307738
8	0xc1968f0d	-18.819849
9	0x415e3051	13.886796
10	0x3ff14ace	1.8850954
11	0x3febc230	1.8418636
12	0xc1182317	-9.508567
13	0xc29f909a	-79.782425
14	0x401939e1	2.3941576
15	0x415eee1f	13.933135
16	0x40623cf3	3.53497
17	0xc0d50f1a	-6.6580935
18	0xc162d76d	-14.177594
19	0x3fe81a98	1.8133116
20	0xc120e30c	-10.055431
21	0x3f1fff07	0.62498516
22	0xc0db14ce	-6.8462896
23	0xc28f1d5c	-71.55734
24	0xc10d0b79	-8.815301
25	0x3fb7f0f3	1.4370407
26	0x4031a7db	2.77587
27	0xbe580809	-0.21096815
28	0xc10cdc69	-8.803811
29	0xbfc738a3	-1.5564159
30	0x3f44fc53	0.76947516
31	0x41438f44	12.222477
32	0xc0481a53	-3.1266067
33	0xc1f02641	-30.018679
34	0x41332d80	11.198608
35	0x3f95df66	1.1708801
36	0x3f068bf9	0.5255733
37	0xc0aeacef	-5.45861
38	0xc1d2f2f1	-26.368624
39	0x4007b837	2.1206186
40	0xc1639b02	-14.225344
41	0x41441903	12.256106
42	0x3fb7de1d	1.4364659
43	0x3f047efe	0.51756275
44	0xc0b35606	-5.604251
45	0xc2633357	-56.800137
46	0x407a519a	3.9112306
47	0x4140796f	12.029647
48	0x4049bdf3	3.1522186
49	0xc0e932b1	-7.287438
50	0xc0dd3a81	-6.9133916
51	0x3fce355b	1.6110033
52	0xc1459d7c	-12.350948
53	0x3f8262ce	1.0186403
54	0xc0c90b05	-6.282595
55	0xc22a6b0c	-42.604538
56	0xc0cd45c3	-6.414766
57	0x3ec2d285	0.3805124
58	0x3f103e90	0.5634546
59	0x3f8027a1	1.0012094
60	0xc09bdf43	-4.8710036
61	0xc042678c	-3.03757
62	0x3f84aeb1	1.0365812
63	0x41328327	11.15702
64	0xbfbee3b5	-1.4913241
65	0x40b6f842	5.717805
66	0xc146b30a	-12.418711
67	0xc00faffd	-2.2451165
68	0xc002a611	-2.041386
69	0xbecc32a6	-0.39882392
70	0x41c067f7	24.050764
71	0xc025e772	-2.5922513
72	0x4112d14a	9.176096
73	0xc1451e19	-12.319848
74	0xc0120b1f	-2.2819288
75	0xbfc7d7f7	-1.5612782
76	0x3f85f53f	1.0465468
77	0x424bb303	50.924816
78	0xc0544472	-3.3166776
79	0xc11d4bb7	-9.830985
80	0xc0a27331	-5.0765615
81	0x3f10f44d	0.56622773
82	0x410dc6de	8.861052
83	0xbfe1b5a1	-1.7633554
84	0x409bde6f	4.8709025
85	0xbf7ffb29	-0.99992615
86	0x3f2e43a2	0.6807195
87	0x41dacff0	27.351532
88	0x40845d94	4.136423
89	0xc02de472	-2.7170682
90	0xc010048d	-2.2502778
91	0xbfa1dbad	-1.2645165
92	0x3f25cdc5	0.64767104
93	0xbf91d048	-1.1391687
94	0xbfe6a3de	-1.8018758
95	0xc138c79c	-11.548733
96	0xbe2dd85d	-0.16977067
97	0xc23113a9	-44.2692
98	0x4155878e	13.345594
99	0x3ddfc2ef	0.109258525
100	0x3fd73504	1.6813054
101	0xc086078d	-4.1884217
102	0xc1fed955	-31.85612
103	0x3e805897	0.2506759
104	0xc19149d9	-18.161058
105	0x4143f544	12.247379
106	0x3ec9ab65	0.39388576
107	0x3fdec981	1.7405244
108	0xc0cd9a4c	-6.425085
109	0xc2892a62	-68.58278
110	0x4006a6fe	2.1039424
111	0x415cc702	13.798586
112	0x402f80f1	2.742245
113	0xc1005139	-8.01983
114	0xc1158111	-9.34401
115	0x40069954	2.1031084
116	0xc1138cac	-9.221844
117	0x3fbb32a5	1.462483
118	0xc0bd6414	-5.9184666
119	0xc24b26ce	-50.787895
120	0xc101a304	-8.102299
121	0xbed29607	-0.41130087
122	0x4037f9e1	2.8746264
123	0x3f743ab5	0.9540208
124	0xc0c8f391	-6.279732
125	0xbfa9ba60	-1.3260002
126	0x3fa49952	1.285929
127	0x412e8134	10.906544
128	0xc075c642	-3.8402257
129	0xc1e4ac6c	-28.58419
130	0x412f570e	10.958754
131	0xbeaffba2	-0.34371668
132	0x3f508fa4	0.8146918
133	0xc0d0a2b3	-6.5198607
134	0xc1ddde17	-27.733442
135	0x404414a2	3.0637593
136	0xc14ecc18	-12.924828
137	0x414f84f5	12.96996
138	0x3f73c011	0.95214945
139	0x3ed9c711	0.42534688
140	0xc02b52c8	-2.6769276
141	0xc248c9ca	-50.19706
142	0x40759cfb	3.8377063
143	0x41606023	14.023471
144	0x40297ffc	2.6484365
145	0xc10098d3	-8.037311
146	0xc0dd12a3	-6.908525
147	0x400ee572	2.2327542
148	0xc15e9f66	-13.913916
149	0x405bd0ab	3.434611
150	0xc0a1e4e9	-5.059193
151	0xc2380314	-46.003006
152	0xc103a020	-8.226593
153	0x3de1cb33	0.11025085
154	0x3fa53fbc	1.2910075
155	0x3fc73b63	1.5564998
156	0xc00ca056	-2.1972861
157	0xbf7e5710	-0.99351597
158	0x3f01e707	0.50743145
159	0x41096f06	8.589605
160	0x3f32a28d	0.6977928
161	0xc158c0b9	-13.547051
162	0x411f5bc5	9.959905
163	0x3eea8db4	0.45811236
164	0x3f7ba9a3	0.9830572
165	0xc071bae9	-3.777033
166	0xc173121d	-15.191922
167	0x3eedfb9f	0.46481034
168	0xc0f8007c	-7.750059
169	0x412c520e	10.770033
170	0xbf4168df	-0.75550646
171	0x4040791a	3.0073915
172	0xc0915ceb	-4.5425925
173	0xc268b550	-58.177063
174	0x40085aea	2.130549
175	0x411c40f3	9.765857
176	0x3f0d95bc	0.553066
177	0xc10272fd	-8.153073
178	0xc0704905	-3.7544568
179	0x402569a0	2.5845718
180	0xc0e78be4	-7.2358265
181	0x4113bc8f	9.233535
182	0xc034d305	-2.8253796
183	0xc1d747a3	-26.909979
184	0xc114b99c	-9.295315
185	0xbf891e4e	-1.0712373
186	0x3ff18a1e	1.8870275
187	0xbfae479b	-1.3615602
188	0xc0b07fa5	-5.5155816
189	0x40810930	4.0323715
190	0x3dbfea03	0.09370806
191	0x40ffdd09	7.995732
192	0xbfd156a1	-1.6354562
193	0x409318ae	4.5967627
194	0xc146077a	-12.376825
195	0xc00c7678	-2.1947308
196	0xbfd29574	-1.645186
197	0xbf022712	-0.50840867
198	0x41c135d0	24.151276
199	0xc024c770	-2.5746727
200	0x410ce6e2	8.806368
201	0xc1457359	-12.340661
202	0xc003dc74	-2.0603304
203	0xc0526120	-3.287178
204	0x3fbd998c	1.4812484
205	0x4245264c	49.2874
206	0xc0938614	-4.610117
207	0xc110f3bf	-9.059508
208	0xc08cb87e	-4.397521
209	0xbf268f1b	-0.6506211
210	0x410791d9	8.473107
211	0xbfc29e98	-1.5204649
212	0x409f71a3	4.9826217
213	0xc0291eba	-2.6425004
214	0x3f157610	0.58383274
215	0x41e1067e	28.12817
216	0x4079ecd3	3.9050796
217	0xc02fae2a	-2.7450051
218	0xc01211e9	-2.2823431
219	0xbf96cc93	-1.1781181
220	0x3f851ebf	1.0400008
221	0xbf6b1138	-0.9182315
222	0xc000ee44	-2.0145426
223	0xc138452f	-11.516891
224	0xc0775fee	-3.86523
225	0x40cb8f6c	6.3612576
226	0xc13292c9	-11.160836
227	0xbfb00658	-1.3751936
228	0xc006f6c5	-2.1088116
229	0xc03a42d4	-2.9103289
230	0x41899bd3	17.201086
231	0xbfe11d4d	-1.7587067
232	0x406c4340	3.6916046
233	0xc129b27c	-10.606075
234	0xc0069be0	-2.1032639
235	0xbff2ba61	-1.8963128
236	0x3e97e608	0.29667687
237	0x4235d631	45.45917
238	0xc04c2c40	-3.1902008
239	0xc0ef2bd1	-7.4740987
240	0xc0aa8617	-5.3288684
241	0xbf9fa94a	-1.2473538
242	0x40df4157	6.976726
243	0xbf936e8f	-1.1518115
244	0x40184a1c	2.3795233
245	0x3e533348	0.20625031
246	0xbf3cf2c4	-0.7380793
247	0x41d5a726	26.706615
248	0x402c5424	2.6926355
249	0xc019a464	-2.4006586
250	0xc0749853	-3.8217971
251	0xc028bbf7	-2.6364725
252	0xbf42b28e	-0.760537
253	0xbef46f7a	-0.477413
254	0xbff2ecf2	-1.897856
255	0xc151543d	-13.083066

inter_layer.bias f4 [32]
0	0x4143ca46	12.236883
1	0x41237309	10.215585
2	0xc15d7d7d	-13.843137
3	0x412ed61d	10.927274
4	0x40e72dff	7.2243648
5	0x3f8ee0de	1.1162374
6	0xc15990e4	-13.597874
7	0xc16aa19c	-14.664455
8	0xc1620683	-14.12659
9	0x41028492	8.157366
10	0x40ba3751	5.8192525
11	0xc146419d	-12.391019
12	0x40fbadb0	7.864952
13	0xc15a6d1a	-13.651636
14	0x3ff120fa	1.8838189
15	0xbef8e590	-0.48612642
16	0xc13c2661	-11.75937
17	0xc139b1f4	-11.605946
18	0x413ba062	11.726656
19	0xc16b042a	-14.688517
20	0x412d8fe9	10.847634
21	0xc141f85a	-12.123133
22	0x412eb3fd	10.918942
23	0xc1423860	-12.138763
24	0x413f09ad	11.939862
25	0x413c392d	11.763959
26	0xc1487752	-12.529131
27	0x40cd6cca	6.41953
28	0xc14bd3db	-12.739223
29	0xc1444950	-12.267899
30	0xc143ef53	-12.245929
31	0x411b65b9	9.712335

final_layer.weight f4 [1, 32]
0	0x41db7953	27.43424
1	0x41ccf5dc	25.620049
2	0xc01bb73c	-2.4330587
3	0x41b6fc8a	22.87331
4	0x41c88df7	25.069319
5	0x41669ab1	14.412766
6	0xc02f16ef	-2.7357748
7	0xc0956bf8	-4.66943
8	0xc11f41e4	-9.953587
9	0x4196d7a3	18.855291
10	0x419b294f	19.39517
11	0xc031558f	-2.770847
12	0x41b9963e	23.19836
13	0xc050186c	-3.2514906
14	0xc14ec814	-12.923847
15	0x4180463b	16.034292
16	0xc1157810	-9.341812
17	0xc070b165	-3.7608273
18	0x41bc1dcd	23.514551
19	0xc064c670	-3.5746117
20	0x41da322c	27.274498
21	0xc06d4b2b	-3.707713
22	0x41a0fd9b	20.12383
23	0xc0d7154e	-6.7213507
24	0x41d1d9fe	26.231441
25	0x41acb10d	21.58645
26	0xc0ede5cc	-7.4343014
27	0x41bade02	23.358402
28	0xc01feac9	-2.4987051
29	0xc0fb4384	-7.8519917
30	0xc0861321	-4.189835
31	0x41c4755b	24.557302
