continuous cartpole/rl_model/train_2022-02-16T23:10:08.409859/model/60450_actor.pt (torch, 6999 bytes, 5 tensors)

first_layer.weight f4 [32, 4]
00000000: 5352 97bf b6e9 1740 821e 7140 e903 7abf
00000010: d2e1 da3e 5e54 96be 1965 1bc0 37be 21bf
00000020: 2004 de3f 5673 b8bf 7109 c13e c0fb 893e
00000030: a7c4 29c0 3bea 97c0 3ae0 b7be 7e9f 6540
00000040: 3be8 fabe 6dba 68be fb3e efbf 6c91 4abf
00000050: 1042 ecbd e619 bf3f 4534 803e fedc b4bf
00000060: 7359 1c40 7b09 8d3f 9e7c d640 ae20 363f
00000070: d14d 07c0 5442 70bf cb9c b2c0 8416 4bbf
00000080: 4d5e 9cbf 1e67 3a40 591e fa40 8ce4 afbf
00000090: 6fe5 34c0 3777 f3bf fe6d 93bf 7b0e d63f
000000a0: e2b1 7bc0 03d0 6dbe 60a3 a940 296f 09c0
000000b0: d10c ecbe 0333 a83f 4b2c 6c40 7e89 263f
000000c0: ecb8 71bf 6379 533f d192 bf40 9403 7dbf
000000d0: 1674 9d40 3a2a 2040 d7f2 a0c0 9c2a 6c3f
000000e0: 786e 27bf 1688 ae3f c545 a540 434e b1bf
000000f0: 57c8 7640 a5ac 2740 2f42 cebf 8582 7cbf
00000100: 4b13 b2bf 094f fb3f 6637 493f 38fe 40c0
00000110: 0b2e 4b40 efb2 5340 f115 f03e 0f6d 393f
00000120: 1721 403f 4af5 493f 58f3 abbf d40e 14c0
00000130: 2d62 d23f fa8a b23e b54b e2be 84f5 f2bd
00000140: 67d1 983f 67d5 eb3f d3ec 5c41 0ad9 143f
00000150: e61b 0ec0 3138 2d40 25a1 1b40 ff72 5cbf
00000160: f6c7 a9bf 8095 b8bf 0cd3 1f3f 01ad e93e
00000170: 13ab cb3f d31d 623f 3489 0ec0 584b 87bf
00000180: e303 cb3f 248c 64bf 6d0d 16c1 24be 17be
00000190: 9784 4840 d844 cb3f 8ed9 4e40 e866 7abf
000001a0: 422b 5640 d1b2 d93d 7d34 89c0 1493 cc3f
000001b0: 45dd 92bf f338 85bd 49c3 1fc0 8d6d e43e
000001c0: e115 bdbe 513f c93f 3e04 00c0 6f5e 07c0
000001d0: 28fc 9bbf 1f45 873f e159 fa40 2014 bbbf
000001e0: 7dba d240 2654 923f 07eb a2bf 7f7a 803f
000001f0: 6c6a 523f 46da 9f3e 0aa9 1dbf 8e2e bcbe
-1.1821998 2.3736396 3.767487 -0.97662216 0.42750412 -0.29361242 -2.4280455 -0.6318087
1.7345009 -1.4410198 0.37702516 0.26949883 -2.6526277 -4.7473426 -0.3591326 3.5878596
-0.49005303 -0.22727366 -1.8691095 -0.79128146 -0.11536038 1.4929779 0.25039878 -1.4129941
2.4429595 1.1018518 6.702712 0.71143615 -2.1141245 -0.9385121 -5.58164 -0.7933123
-1.2216278 2.9125438 7.8162045 -1.3741622 -2.8265035 -1.9020756 -1.1517942 1.6723169
-3.932732 -0.23223881 5.301193 -2.1474097 -0.46103528 1.3140568 3.6902034 0.65053546
-0.94422793 0.82607096 5.986672 -0.98833585 4.9204206 2.5025773 -5.0296435 0.92252517
-0.65402937 1.363528 5.164767 -1.3852009 3.8559778 2.6199124 -1.6113948 -0.98636657
-1.3912138 1.9633495 0.78600156 -3.0155163 3.1746852 3.3077962 0.4689174 0.72432035
0.7505049 0.78889906 -1.3433638 -2.313405 1.6436211 0.34871656 -0.44198385 -0.11863235
1.1938905 1.84245 13.807818 0.58143675 -2.2204528 2.7065547 2.4317105 -0.8611297
-1.3264148 -1.4420624 0.62431407 0.45639804 1.5911583 0.8832676 -2.2271242 -1.0569868
1.5860561 -0.8927634 -9.378278 -0.14818627 3.1330926 1.5880384 3.2320285 -0.9781327
3.3463902 0.1062981 -4.2876573 1.5982385 -1.1473776 -0.06505003 -2.4962943 0.4461483
-0.36930755 1.5722448 -2.000259 -2.1151388 -1.2186327 1.0567969 7.8234715 -1.4615517
6.5852647 1.143193 -1.2727975 1.0037383 0.82193637 0.31221217 -0.6158606 -0.36754268

first_layer.bias f4 [32]
00000000: 7fb5 383f 69b5 60bf f367 dfc0 065c 053f
00000010: 89e6 64bf 0177 c23f 4f0b 90bf 5d3a 6a3f
00000020: 10f7 9b3f b375 53bf d109 7e40 2630 35c0
00000030: aa9d 0840 48f5 abc0 cd83 113f 990c ce3f
00000040: ec11 6540 3e91 843f d0a6 0640 737c 1940
00000050: 3e9f 9fc0 d771 0b3f 08ca 3fbd af73 33c0
00000060: 1a0d a5c0 b663 0140 1e4d 49c0 331a 2040
00000070: 40e8 2d40 a902 3440 f83f b1c0 726c be3f
0.7215194 -0.8777681 -6.981439 0.5209354 -0.8941427 1.5192567 -1.1253451 0.91495305
1.2184772 -0.8260147 3.9693491 -2.8310637 2.134623 -5.3736916 0.5684174 1.6097594
3.5792189 1.0356824 2.1039314 2.3982208 -4.9881887 0.5447058 -0.04682353 -2.8039358
-5.1578493 2.0217109 -3.1453319 2.501599 2.7173004 2.8126624 -5.5390587 1.4876845

inter_layer.weight f4 [32, 32]
00000000: da16 c2bf e30c 8ac0 4847 60bf dd73 9bc0
00000010: 3612 993f 2bf6 6bc0 eb3c 9bbf e01d ff3f
00000020: 5f83 04c1 04c5 65be 809c 1c3f 195c 413f
00000030: 834b e53e c26f 24c1 bcb8 0d3f 8340 11c0
00000040: 56b0 20c0 9f3e 7ebe c306 83be 8767 8bc0
00000050: e959 1cc1 cca9 9fbf 1244 153f 5731 cf3f
00000060: 97cf 7abf 20c8 b5bf 525a 30c0 267a cc3f
00000070: c5db 263f ceef be3f 7ff3 0ac1 1045 233f
00000080: 0f1e b0bf 1fbf f93f 04e9 63bf bdde ffbd
00000090: ac8b 96c0 42a6 5cc0 f5e1 4b40 6352 95bf
000000a0: f44b b93f 4289 e2bf 0ac9 c0be 7ccd 9d3e
000000b0: c4c7 d8bf 1756 4240 0213 cdbf 26b4 6b3a
000000c0: 3424 663f e8e8 ed3e 29a3 5fc0 2c27 1f40
000000d0: 2b3e b2be 6c3d 79bf 6162 e53f 2b3a 17c0
000000e0: cb75 6040 6229 053f 3172 c1bf b022 eb3f
000000f0: d54c 2dc0 8097 18c0 073b 99c0 79e7 29c0
00000100: ca0c c3be 263c c2c0 95bd 2ec0 8419 9dbf
00000110: a0da 6c40 731a 2fbe 5837 b8c0 624b 3f40
00000120: 0ca0 9ec0 f9f0 61bf b3c9 24be 9cf1 b1bd
00000130: 85b3 4dc0 7c4b 8cc0 385e 2c3f 5250 95bf
00000140: 27b0 9fc0 2fc9 2140 e698 00bf a472 d23e
00000150: 2e12 50c0 d2e2 82be 80e3 18c0 f121 8dc0
00000160: a2f4 b4c0 7b9d 3340 0309 43bf 8c42 3dc0
00000170: 4ce2 ffbe e3e9 96be ecd1 5dc0 81ae 4940
00000180: f690 03be ecf7 acc0 5f88 973f 0d07 85c0
00000190: f605 6e40 88bf 87bf 6bbe c8bf d4f0 133f
000001a0: 521c cdbf 0ac6 94bf 3b04 31be 00c1 7cc0
000001b0: 061b 383f 606f 1ec1 1e34 a93f 9472 bb3d
000001c0: 9a02 4cc0 d633 83bf a376 c43e 130e 72bf
000001d0: f896 24c0 32e0 ad3f 9d1b a5bf 35f7 14c0
000001e0: 54df d6c0 758e 45bf 53fa 8a3e 0145 0e3e
000001f0: df06 2a3f d7d0 ae3f 7ef6 10c0 96fc b6bf
00000200: 4381 a43f 7902 d2c0 6370 c73e 067f db3f
00000210: a32b e93f 8e9b b43d e10f 1ac0 bfd4 23be
00000220: 7f07 36c0 bdaf 6c3f 3233 60c0 1f39 783e
00000230: c4cf 23be ee65 a7bf 9ef6 6140 d828 9bbf
00000240: 77d0 b9c0 bd87 fcbe 89e7 1cbe 87de 103f
00000250: ff15 5cc0 dfb0 7e3f e4a7 fdbf 2beb 863d
00000260: ee29 3bc0 cc7d 08c0 c564 743f 67eb 65bf
00000270: ca85 c4bf 020a 66be 7e00 ea3f d535 ea3d
00000280: d8fa 38c0 e436 a53f ae2b 933d c56c b03f
00000290: af98 dbc0 4193 d7bf 800a 8ec0 b242 7bc0
000002a0: b8e9 28c0 d1b2 e93f 58fc aabf 8171 813c
000002b0: 38c8 833f 080f 8b3e 26e1 3dc0 26bc 273f
000002c0: 0fcc 54bf 122f e1bd 93e2 3ac0 b61d 363e
000002d0: 5ac6 b83f c944 2cc0 c580 6540 9c51 c2c0
000002e0: 78e9 cd40 4153 863f 0b2a 0bbf 591c eb3f
000002f0: 8113 f6bf 4f7b efbf 9640 c1c0 2502 0ac0
00000300: c892 db3f ad7e 66c0 74d3 3b3e a26b 1d40
00000310: bcd4 b340 4fc7 8c3e 5ab2 88bf dc29 1440
00000320: e41a 913e 53a4 423d f74d 6c3f c86a 11c0
00000330: caa3 0dc0 d21c a0c0 2f27 5440 9c5b 88be
00000340: d6c4 adc0 6282 a23e 97ba 103f 1982 3dbe
00000350: f136 17be f8f4 e03f 7f97 1abf 9fc9 d1bf
00000360: d8d5 27c1 5aa9 ca3f 8bda f23e 1a46 ab3f
00000370: bc40 d33e 72f8 b13f 2055 abc0 adf0 e63f
00000380: a338 a1be cd0e 2340 26be 29c0 b6f1 b0bf
00000390: 7f45 5cc0 dbaf 65be f346 763f dbe7 10c0
000003a0: b8ab 9f3f ea19 87bf ebb9 993f 527c 1abd
000003b0: fd1c 703f cb3f cd40 59af 9fbf aba0 cf3e
000003c0: 0fed a23f f61d e1be b28d c73c a472 fc3f
000003d0: 93b8 23c0 e10e c4bc 5c5d 4bbf bec8 3f3f
000003e0: f697 9b40 2c82 85be 0179 fbbf 3f18 c53f
000003f0: 08fe bfbd 3444 efbe da68 1ec0 6e8c 23bf
-1.5163224 -4.314073 -0.87608767 -4.8578935 1.1958683 -3.6869 -1.2127966 1.9930992
-8.282073 -0.22438437 0.611763 0.75531155 0.44784173 -10.277285 0.5536001 -2.2695625
-2.5107627 -0.24828576 -0.25591096 -4.3563876 -9.771951 -1.2473693 0.5830699 1.6186932
-0.97973007 -1.4201698 -2.7555127 1.5974777 0.6517909 1.4916933 -8.684447 0.63777256
-1.3759173 1.951145 -0.8902743 -0.12493656 -4.70455 -3.4476476 3.1856663 -1.1665767
1.4476304 -1.7698138 -0.3765338 0.30820835 -1.6935964 3.0365045 -1.6021426 0.0008991383
0.8989899 0.46466756 -3.4943335 2.4867659 -0.34813055 -0.9735935 1.7920648 -2.3629253
3.5071895 0.5201627 -1.5112973 1.8369961 -2.7078145 -2.3842468 -4.7884555 -2.654753
-0.38095695 -6.0698423 -2.7303212 -1.2273412 3.7008438 -0.17099933 -5.756756 2.988976
-4.957037 -0.8825832 -0.16092567 -0.086886615 -3.214082 -4.3842144 0.67331266 -1.1665137
-4.990253 2.5279043 -0.50233305 0.4110309 -3.2511096 -0.25563675 -2.3888855 -4.410393
-5.6548624 2.8064868 -0.76185626 -2.9571867 -0.49977338 -0.29475316 -3.4659376 3.1512759
-0.12848267 -5.405264 1.1838492 -4.1571107 3.7191138 -1.0605326 -1.5683111 0.5778935
-1.6024268 -1.1622937 -0.1728677 -3.9492798 0.71916234 -9.902191 1.321903 0.091527134
-3.1876588 -1.0250194 0.38371763 -0.94552726 -2.5717144 1.3584044 -1.2899052 -2.3275883
-6.7147617 -0.771705 0.27144107 0.1389351 0.66416734 1.3657483 -2.2650447 -1.4295833
1.2851948 -6.562802 0.38952932 1.714814 1.8216442 0.08818732 -2.4072192 -0.15999125
-2.8442075 0.92455655 -3.5031247 0.2424054 -0.15997225 -1.3077981 3.5306773 -1.212184
-5.8066974 -0.4932231 -0.15322699 0.5658955 -3.4388425 0.99488634 -1.9816861 0.065878235
-2.9244342 -2.132678 0.9546626 -0.8981232 -1.5353329 -0.22464755 1.82814 0.11436049
-2.8903103 1.2907376 0.071860656 1.3783194 -6.862388 -1.6841813 -4.4387817 -3.9259458
-2.639265 1.8257695 -1.3358259 0.015801193 1.0295477 0.27159905 -2.966867 0.65521467
-0.8312387 -0.10995306 -2.920079 0.17784771 1.4435532 -2.6916983 3.5859845 -6.072462
6.4347496 1.0494157 -0.5436103 1.8368026 -1.9224702 -1.8709506 -6.039134 -2.156381
1.7154169 -3.6014817 0.18342382 2.4596944 5.6197186 0.2749581 -1.0679429 2.315055
0.28340828 0.047519993 0.92306465 -2.2721424 -2.213122 -5.003518 3.3148916 -0.26632392
-5.430278 0.317401 0.56534714 -0.1850666 -0.14767052 1.7574759 -0.60387415 -1.6389655
-10.489708 1.5832932 0.4743236 1.3380768 0.41260326 1.3903944 -5.354141 1.8042198
-0.31488523 2.5477784 -2.6522307 -1.3823764 -3.4417417 -0.22430365 0.9620201 -2.2641513
1.2474279 -1.0554783 1.2009863 -0.037716217 0.9379423 6.414037 -1.2475387 0.40552267
1.2728595 -0.4396817 0.024359558 1.9722486 -2.5581405 -0.023932876 -0.7943933 0.74915683
4.8623 -0.26075876 -1.9646302 1.5398024 -0.093746245 -0.46731722 -2.4751496 -0.63886154

inter_layer.bias f4 [32]
00000000: a306 d9be b738 2b3d d461 35bf ed44 163f
00000010: 81a2 a83f 896d 2540 b7bf 4a40 b7d0 acbe
00000020: 632d 1ebf 7f76 63bf b7fc 263f 0d8c 863e
00000030: 10e8 89bf c9ec 9bbe 951a a63e 23ed 933f
00000040: 9811 4bbd 610b 93be b298 003f 2abf 1bbe
00000050: 0282 873e 997b cb3e cd6c 603f 966a 473e
00000060: 6d1e 5f40 53cd fc3e 91c9 7c3f 7027 31bb
00000070: 2ac7 c53e d972 243f 981e 0cbf e07c 003e
-0.42387876 0.041802134 -0.708524 0.5869892 1.3174592 2.5848105 3.1679513 -0.33752987
-0.61788005 -0.88852686 0.6522936 0.26278725 -1.0773945 -0.3045409 0.32442155 1.1556743
-0.049577326 -0.2871962 0.50232995 -0.15209642 0.26466376 0.39742735 0.87666017 0.19474253
3.486232 0.493754 0.98745066 -0.0027031563 0.38628513 0.64237744 -0.5473418 0.12547636

final_layer.weight f4 [1, 32]
00000000: 67ab bdc0 177d 5c40 abf0 18c1 76c0 dbc0
00000010: b381 f4c0 b490 0341 fd82 a6c0 7649 3140
00000020: 8c1d 9cc0 5a6c dfc0 1aba 3640 fd5e 2f40
00000030: 8b07 a9c0 4314 5fc0 f988 2240 9f41 2841
00000040: 147c 2b40 30e6 1940 0584 03c1 a8e2 2440
00000050: cee4 2440 af3e 8ac0 5112 a940 1d29 e2c0
00000060: 060c 89c0 9fde 07c0 9f86 91c0 0a2a d3c0
00000070: 8469 5440 2f07 11c0 8346 1641 575c 8ec0
-5.927173 3.4451349 -9.558757 -6.867244 -7.6408324 8.222828 -5.20349 2.7701087
-4.878607 -6.9819765 2.8551087 2.7401726 -5.282171 -3.4856117 2.5396101 10.516021
2.6794481 2.4046745 -8.219731 2.576334 2.5764651 -4.320152 5.283486 -7.0675187
-4.2827177 -2.1229627 -4.5476832 -6.5988817 3.3189402 -2.2660635 9.392215 -4.448772
