continuous cartpole/rl_model/train_2022-02-16T23:10:08.409859/model/70300_critic.pt (torch, 8580 bytes, 9 tensors)

norm_layer.weight f4 [4]
00000000: 0000 803f 0000 803f 0000 803f 0000 803f
1.0 1.0 1.0 1.0

norm_layer.bias f4 [4]
00000000: 0000 0000 0000 0000 0000 0000 0000 0000
0.0 0.0 0.0 0.0

norm_layer.running_mean f4 [4]
00000000: 0000 0000 0000 0000 0000 0000 0000 0000
0.0 0.0 0.0 0.0

norm_layer.running_var f4 [4]
00000000: 0000 803f 0000 803f 0000 803f 0000 803f
1.0 1.0 1.0 1.0

first_layer.weight f4 [32, 5]
00000000: 3ed8 5a41 75ab b940 5df0 4440 9def 5840
00000010: 86f7 803e 3b17 9241 4799 3140 98f4 91c1
00000020: a30e 08bf aa0c bbbd 954a 85c1 d39a 2ac1
00000030: f9bf 8cc1 ac2e d2c0 5157 bb3c 2bb3 efc0
00000040: 9f88 3ec0 bba1 34c1 93eb cac0 8bc5 6a3f
00000050: a22c 88c1 288b 3cc1 1e15 88c1 a0cd 20c1
00000060: 093a f03d d5d3 7341 1a76 da40 dee6 5741
00000070: 91b1 483f a43e 943e 509f b841 eaba 9940
00000080: bd09 cbc1 8d56 6a3f 9a1f 2e3d e674 8ac1
00000090: 0a97 2bc1 d0a6 73c1 b885 d3c0 30de 87bc
000000a0: f98c 6741 71f4 1840 ff38 ccc1 5f5a 8ebf
000000b0: 0cf9 8b3d 295d 91c1 626f 2dc1 456a b3c1
000000c0: 34ab e6c0 b4a4 003d 40f0 23c1 7219 16c1
000000d0: 6594 0dc1 4c67 a2c0 8493 dcbb ff9d 89bf
000000e0: c992 1dc0 378d 00c2 a518 20c1 7aaa 283e
000000f0: 4647 5141 7cb9 273f b547 373f 7d2d 5640
00000100: e480 eebe 63df b440 49b1 cc3f 828e 8541
00000110: 63e9 0c40 ce44 933d 5139 bcc1 c0e9 48c1
00000120: 85a1 67c1 bc51 f9c0 255e 2fbc 1b97 aec1
00000130: 3014 1dc1 54d9 5ac1 2554 e0c0 7465 153d
00000140: 9c80 a4c0 970b cfc0 578e 13c1 5964 aac0
00000150: 877f 0c3d 5299 9741 0f68 4540 1ccc 183c
00000160: 0d6f 3340 52ee acbe 4604 a341 a044 1540
00000170: 8e9b d8c1 dd23 61c0 85c2 023e 8f38 b5c1
00000180: 8981 2ac1 93f7 a6c1 44f1 cac0 8bc7 563c
00000190: 3053 8641 15dd 6a40 822f 2dc0 8b36 c73f
000001a0: 4be3 02be b9e7 9cc1 e45c 0bc1 29bc 1ac2
000001b0: 3bfe b1c0 cae8 45bc 3ee9 6541 4a11 9b40
000001c0: a5a9 7841 fccf 223e e20b aa3d cd1f 3e40
000001d0: 44ad ba3e a340 9641 a675 6140 2c9f 13bd
000001e0: e542 1d41 bdd9 1540 e80d 1341 28bc 8640
000001f0: b568 8a3d c776 1fc1 b1e1 c8c0 f5cb 81c1
00000200: eb6a 83c0 e56d a63c 7fc5 38c1 19bf b8c0
00000210: f605 e0c1 d898 88c0 cb0e b83c 26c7 9bc1
00000220: c756 a3c0 0a11 27c1 69e3 85c0 6f16 88bf
00000230: 7cf6 c140 2e9b a6be 6164 9641 0a25 a940
00000240: d982 573e 946b 9d3f 7d52 db3f ab43 1a40
00000250: b7cf 6fc0 dd34 003e 55f4 66c0 fd8c d5c0
00000260: 64a5 adc1 bf1f 35c1 f730 05bf e521 6ec1
00000270: c219 15c1 c760 adc1 0894 adc0 a5c3 b3bc
13.6777935 5.80218 3.0771706 3.3896248 0.25188845 18.261343 2.7749803 -18.24443
-0.53147334 -0.09133275 -16.661417 -10.662799 -17.593737 -6.5681973 0.022868784 -7.490621
-2.9770887 -11.289485 -6.3412566 0.91707677 -17.021793 -11.783974 -17.010311 -10.050201
0.11729819 15.239217 6.8269167 13.493864 0.78395945 0.2895404 23.07779 4.8040667
-25.379755 0.91538316 0.042510606 -17.30708 -10.724375 -15.228226 -6.610073 -0.01658544
14.471917 2.3899195 -25.52783 -1.1121329 0.06834611 -18.170488 -10.839693 -22.42689
-7.208399 0.031407073 -10.246155 -9.381212 -8.848729 -5.0751095 -0.0067314524 -1.0751342
-2.462084 -32.137905 -10.006017 0.16471282 13.079901 0.655174 0.7159379 3.3465264
-0.4658271 5.652269 1.5991603 16.694584 2.2017448 0.07190858 -23.527987 -12.557068
-14.4769335 -7.7912273 -0.010703598 -21.823782 -9.817429 -13.678059 -7.0102715 0.036473706
-5.1406994 -6.470165 -9.222251 -5.3247495 0.034301307 18.949863 3.0844762 0.009326007
2.803653 -0.33775574 20.377087 2.3323135 -27.075954 -3.517814 0.12769516 -22.652617
-10.656625 -20.870886 -6.3419514 0.013109098 16.790619 3.6697438 -2.7060246 1.556352
-0.12782018 -19.613146 -8.710178 -38.68375 -5.562284 -0.012079427 14.369444 4.8458605
15.541417 0.15899652 0.08303048 2.970691 0.36460316 18.78156 3.5228057 -0.03604047
9.828832 2.3414147 9.190895 4.2104683 0.067582525 -9.966498 -6.27755 -16.224588
-4.1068015 0.020316074 -11.548217 -5.7733274 -28.00291 -4.2686577 0.022467991 -19.47224
-5.104343 -10.44166 -4.18401 -1.0631846 6.0613384 -0.32540268 18.799013 5.2857714
0.21046008 1.2298455 1.7134548 2.4103801 -3.747053 0.12520166 -3.6086628 -6.6734605
-21.705757 -11.3202505 -0.5202784 -14.883275 -9.318789 -21.672255 -5.42432 -0.021943877

first_layer.bias f4 [32]
00000000: 97ab 1fc1 6c88 7bc1 f586 d241 f5cd f040
00000010: b9dd 4a41 caa6 0c40 5ca4 0fc1 fe7d a141
00000020: 2d33 31c1 015d b441 cee2 c941 5d8c 8341
00000030: b4b7 53c1 a719 5dc1 3f32 9841 4064 a241
00000040: 068d c641 ddad 5bbf c1be a3c1 54ee 9941
00000050: c7c5 2fc1 59f1 8341 e0bb 41c1 e3bc 28c1
00000060: b7e9 813f 6c79 c541 04ce a841 1e11 6941
00000070: 82ab 10c1 5597 9ec1 6c63 9941 33c5 d741
-9.979392 -15.720806 26.315897 7.5251412 12.6791315 2.19768 -8.977627 20.18652
-11.074994 22.545412 25.235744 16.443537 -13.232349 -13.818763 19.024534 20.29895
24.81886 -0.8581217 -20.468142 19.241371 -10.9857855 16.492846 -12.108368 -10.546115
1.0149449 24.684288 21.100594 14.566679 -9.041872 -19.823893 19.173546 26.971289

inter_layer.weight f4 [32, 32]
00000000: 67d2 b6bf 2f8d 68c2 0c5e 0142 30a1 fe3f
00000010: b9f8 0941 f650 e8c0 6547 32c2 cced bb41
00000020: b61c 02c2 db88 0542 7bc3 9741 96b3 5641
00000030: 9aa4 85c1 dfb6 b5c2 883e cb41 6b7c 0442
00000040: 5ce7 9541 0f77 e2c0 30d8 cac1 2ba1 be41
00000050: 174b 82c1 acc7 7841 1bca 64c1 deaf a3c2
00000060: 7650 0dc1 8df5 9341 bb8a ab41 64a5 4c40
00000070: 14aa 0ec1 c19e 15c1 13c9 f040 6333 f241
00000080: f2a1 bac0 d6cd 43c2 4f9a ea41 765f 0f40
00000090: fe65 d840 f471 12c1 b80f 0ec2 6522 bf41
000000a0: b834 e2c1 09c7 fb41 2942 9241 508d 3241
000000b0: 3e5e 60c1 b336 89c2 e54c d441 cdbe f641
000000c0: 216b 9041 0de2 12c1 d4fc 94c1 e3b2 ba41
000000d0: 332b 9cc1 6436 7641 2d97 6cc1 9dfb 56c2
000000e0: 4346 f1c0 3f82 8941 aab0 9741 1d3b 4540
000000f0: a7fc bbc0 5a7c 3bc1 b7b6 d440 8865 e841
00000100: 16fa 903f 3994 9e41 477a d9c1 f794 22c0
00000110: bf5c adc0 583c 70bf 48a9 f641 5b0e b4c1
00000120: a5bb a841 6a3d e6c1 6296 87c1 9079 f3c0
00000130: 9a6f f940 c5a1 7342 0201 bac1 82ff c7c1
00000140: 1af4 81c1 8c6a c8bd 9962 8d41 7e6a acc1
00000150: 94f6 9440 ee37 51c1 758f a340 e98d 0b42
00000160: 32a7 e640 cfb3 85c1 cd7c 8dc1 9430 94c0
00000170: 6577 4a40 2f6b 5540 8111 fcc0 48a8 e3c1
00000180: 380a 2ec0 034f 7cc2 01a8 fc41 aadd ad3f
00000190: 3154 0241 b3ec eec0 987c 21c2 5ede b141
000001a0: 6e36 ffc1 559b fc41 70c4 8b41 ceaa 4f41
000001b0: 05ac 6fc1 f298 a0c2 d4e8 c641 5c10 0342
000001c0: 9a75 8e41 521c 15c1 eac0 a4c1 47f8 bf41
000001d0: 88dd 80c1 901b 7f41 e186 5dc1 8784 78c2
000001e0: 9a85 0ac1 46b7 8441 a1d4 ab41 2dd1 6140
000001f0: ba8a e3c0 1889 18c1 eecc ee40 0d38 e741
00000200: 4495 c5c0 df65 3bc2 e24a e941 c4ca 813f
00000210: 56a9 ef40 4280 22c1 c4bb 11c2 5757 c641
00000220: 5d0a d5c1 77e8 0042 de7b 8e41 34da 3241
00000230: cfc2 32c1 a1bf 76c2 f091 d341 ab58 0342
00000240: 18da 8c41 eaea 22c1 983f 95c1 7a88 bf41
00000250: 79d7 a6c1 a4dc 8a41 c08a 52c1 e8c9 61c2
00000260: 6af2 0cc1 1149 8841 8703 9e41 4816 4b40
00000270: 6dbc 32c0 50ac 19c1 8a7f b340 673c d441
00000280: b0e5 21c0 56f4 ebc1 0805 dc41 f33f 233f
00000290: 9b65 cb40 b6fc f6c0 8f29 b0c1 fa17 b241
000002a0: 39d3 adc1 5048 f041 0eab 8041 f9ee 5541
000002b0: 6188 41c1 39f3 8bc2 1c45 c541 5255 e141
000002c0: 7220 6e41 a890 06c1 246f 58c1 5431 c341
000002d0: 0e12 30c1 babf c041 c683 1ac1 31e2 17c2
000002e0: 9ed0 29c1 ba01 7841 e889 a041 4022 1740
000002f0: 28f7 e5c0 7945 2ec0 7388 f340 cb89 cb41
00000300: 7d61 943f 3d69 9441 8ac8 d8c1 ffc5 15c0
00000310: 9be8 a1c0 a5a2 9dbe 16d1 f641 b6d2 b3c1
00000320: 1096 a541 5ad4 e6c1 b7be 85c1 5f7a 1ec1
00000330: 0784 0341 615a 6f42 4150 c4c1 63a7 c2c1
00000340: 178a 7dc1 7c4a a3bf a08d 8941 fa49 aac1
00000350: 0294 a040 d87a 6bc1 c317 ab40 9faa 0e42
00000360: 8bf5 e640 99ae 86c1 bea3 8fc1 fdba 91c0
00000370: 84f2 7f40 47ad 6b40 ffab 04c1 2e9d e3c1
00000380: 6306 80bf 3af5 9e41 34d3 cec1 1b58 b6bf
00000390: bcd7 b1c0 26a8 c2bf 3323 bb41 562c adc1
000003a0: bddc 7141 f8e5 d8c1 402c 86c1 29bf 14c1
000003b0: 3633 e040 5da5 6042 31db b8c1 63f1 b5c1
000003c0: ba15 88c1 8763 efbf 89ad 7241 2734 a7c1
000003d0: fafb 2440 71bb 3dc1 97e3 8840 d802 0942
000003e0: 46b8 c440 f4c8 84c1 314f 9ec1 7c6a c1c0
000003f0: c490 2140 65bf 8740 c128 05c1 14f7 efc1
-1.428296 -58.137875 32.341843 1.989294 8.623223 -7.259883 -44.56972 23.491112
-32.528038 33.383648 18.97045 13.418844 -16.705372 -90.85717 25.405533 33.121502
18.737968 -7.0770335 -25.35556 23.828695 -16.286665 15.548748 -14.299342 -81.84349
-8.832144 18.494898 21.44274 3.1975946 -8.916523 -9.351258 7.524545 30.275091
-5.8322687 -48.95101 29.325346 2.2402015 6.76245 -9.152821 -35.51535 23.891794
-28.275742 31.472185 18.282305 11.1595 -14.023008 -68.606834 26.537546 30.843164
18.052309 -9.180188 -18.623451 23.337347 -19.521093 15.388279 -14.786908 -53.745716
-7.539827 17.188597 18.961262 3.081733 -5.8745914 -11.717859 6.647304 29.049576
1.132632 19.822374 -27.184706 -2.540342 -5.4175715 -0.9384208 30.832657 -22.50701
21.091623 -28.779987 -16.94843 -7.608589 7.794873 60.907978 -23.250492 -24.99976
-16.24419 -0.09785947 17.673143 -21.551998 4.6551 -13.076155 5.111262 34.888584
7.2079096 -16.712797 -17.685938 -4.63093 3.1635373 3.334667 -7.8771367 -28.457169
-2.7193737 -63.07716 31.582033 1.3583272 8.145555 -7.466394 -40.371674 22.233578
-31.901577 31.575846 17.470917 12.9792 -14.979497 -80.29872 24.863686 32.765976
17.807423 -9.319414 -20.594196 23.99623 -16.10817 15.944229 -13.845429 -62.12942
-8.657618 16.589489 21.478823 3.528392 -7.1106844 -9.53347 7.462516 28.902369
-6.174471 -46.849483 29.161564 1.0140004 7.489421 -10.156313 -36.433365 24.792646
-26.63006 32.227016 17.810482 11.178272 -11.172561 -61.687138 26.446259 32.83659
17.606491 -10.182352 -18.656052 23.941639 -20.855211 17.357735 -13.1588745 -56.447174
-8.809183 17.035677 19.751722 3.173235 -2.7927506 -9.6045685 5.6093187 26.529493
-2.529644 -29.494305 27.502457 0.63769454 6.356153 -7.7183485 -22.020292 22.261707
-21.728136 30.035309 16.083523 13.370843 -12.095796 -69.975044 24.658745 28.16666
14.882921 -8.410316 -13.527134 24.399086 -11.004408 24.093616 -9.657171 -37.97089
-10.613432 15.500422 20.067337 2.3614655 -7.1864204 -2.7229903 7.6104064 25.442282
1.1592251 18.551386 -27.09792 -2.3402097 -5.059644 -0.3078815 30.852093 -22.477886
20.698273 -28.853687 -16.718122 -9.904876 8.219733 59.83826 -24.539186 -24.331732
-15.846213 -1.2757106 17.194153 -21.286121 5.0180674 -14.717491 5.3466506 35.666622
7.2174735 -16.835253 -17.954952 -4.5540757 3.999177 3.682451 -8.291991 -28.451748
-1.0001949 19.86974 -25.853127 -1.4245638 -5.557585 -1.5207565 23.392187 -21.646648
15.116391 -27.11229 -16.771606 -9.29667 7.0062513 56.161488 -23.107027 -22.742865
-17.010609 -1.8702248 15.167367 -20.900465 2.5778794 -11.858262 4.277782 34.252777
6.1474943 -16.598122 -19.788668 -6.0442486 2.5244608 4.2421136 -8.32245 -29.995644

inter_layer.bias f4 [32]
00000000: 54d3 d341 e4cc c141 e4d6 d6c1 c0ca c841
00000010: e26d aa41 c340 7641 fa38 d6c1 38b1 e0c1
00000020: cbe5 dbc1 356b b141 1f06 9e41 e8da cdc1
00000030: c93e b041 36eb d5c1 a1d2 2a40 0da6 5c41
00000040: fb53 c6c1 c86b c5c1 5ec4 cd41 506a e0c1
00000050: 6192 c641 3b05 c9c1 df6e c741 1799 c9c1
00000060: e8d4 d041 ffb0 ce41 81c5 cdc1 3c12 a641
00000070: 311f d0c1 fe6b c9c1 583d cbc1 39b6 bd41
26.478188 24.225044 -26.854927 25.098999 21.303654 15.390811 -26.77782 -28.086533
-27.487204 22.177347 19.752989 -25.731888 22.030657 -26.73985 2.6691058 13.79054
-24.791006 -24.677628 25.720882 -28.05191 24.821474 -25.127554 24.929136 -25.19975
26.103958 25.836424 -25.721437 20.758904 -26.01523 -25.17773 -25.404953 23.713976

final_layer.weight f4 [1, 32]
00000000: 6d98 4b42 dde5 4342 0941 8bc1 2065 3a42
00000010: 05ac 4142 e81e 1142 9f79 8ec1 e72c 9ac1
00000020: 8c6b c5c1 f1c2 2742 d5f3 2842 969c 89c1
00000030: 0704 3b42 d5bb 94c1 e24c bbc1 35dc 1c42
00000040: 3769 c2c1 dda9 97c1 e0b2 3942 d404 91c1
00000050: 3ab0 4842 f2e1 96c1 2082 2c42 e4d4 abc1
00000060: ffd6 4642 d45f 3242 f53a b1c1 e930 3d42
00000070: 5b16 89c1 a289 b3c1 6cab 98c1 f09f 3f42
50.898853 48.974476 -17.406755 46.598755 48.417988 36.28018 -17.809385 -19.271925
-24.677513 41.940372 42.238117 -17.201458 46.753933 -18.591715 -23.41254 39.215046
-24.301374 -18.957941 46.424683 -18.127357 50.172096 -18.860325 43.127075 -21.47895
49.709957 44.593582 -22.153788 47.297764 -17.135916 -22.442204 -19.083702 47.90619
