continuous cartpole/rl_model/train_2022-02-16T23:10:08.409859/model/75260_actor.pt (torch, 6999 bytes, 5 tensors)

first_layer.weight f4 [32, 4]
00000000: 132f 0ac0 9927 0b40 23bb 9340 5553 68bf
00000010: 0bd6 c93f b33a 4ebe 623a 4fc0 83ee 18bf
00000020: 3d94 07c0 1853 8fbf 3d8d 9740 4300 8f3e
00000030: a277 84be a40d b2c0 22a3 02c0 7d6b 8e40
00000040: 498e a93f 3e37 21be 422d 01c0 43aa 23bf
00000050: e91e ea3e 6fc7 c63f 23f4 93be aa03 bcbf
00000060: 0b25 f83f 27b4 923f 73d5 b340 4b07 523f
00000070: 3d8e c3bf 3cf9 45bf fe12 bbc0 7a22 40bf
00000080: 3e6d d2bf 5518 4240 0dae 0241 940a b1bf
00000090: e720 2e40 f1e8 37c0 def2 83c0 5d16 0c40
000000a0: ed1b 96c0 fdf4 4abe 2268 b440 48b1 11c0
000000b0: c3d7 84c0 2e97 b73e 0895 e540 bd63 e83f
000000c0: 3356 04c0 e07b 4b3f 0301 dc40 6437 85bf
000000d0: ae34 9b40 d68b 0440 382d a3c0 1fc2 b93f
000000e0: 2e70 fdbf 0c3b 9b3f 25af d540 b648 90bf
000000f0: 3040 8f40 11cf 1b40 7656 0fc0 cebe c8bf
00000100: 8d72 0cc0 1d62 0140 3933 0240 9d1b 3cc0
00000110: 0d6c 5340 90bf 4b40 df11 61bf dc48 e23e
00000120: 130f d03f d464 663f 34c0 0dc0 ac76 16c0
00000130: 203f f73f 82e9 b73e ce8c 42bf d475 3abe
00000140: 0c13 b53f 316b ed3f 31f2 4541 bc02 b63f
00000150: 8f8b 15c0 0f2b 2340 b727 4740 ab1a 51bf
00000160: bbe5 f5bf a625 94bf 0390 933f 3302 603f
00000170: ef6c 32bf 8f11 453f 6fef 35c0 6d8a 97bf
00000180: 4a7b 043f cbb8 2bbf 3e90 06c1 ee68 29be
00000190: 3451 3040 cf7b cd3f e8d2 5140 85d3 89bf
000001a0: 194d 8640 8fa6 05bd c8eb c1bf b29d 0740
000001b0: 8340 62c0 8f3d efbe ea98 22bf e844 ad3f
000001c0: 7296 f53e 9a4d d13f ed9b 25c0 29e1 0ac0
000001d0: 241f d3bf 9d16 8d3f 83d4 0441 9d54 bdbf
000001e0: 6207 ee40 50b4 ba3f 2e10 82bf 59b9 613f
000001f0: 6af4 1040 2ddb c03e e7dd 97bf 3057 b4be
-2.1591232 2.1742918 4.616594 -0.90752155 1.5768446 -0.2013958 -3.2379384 -0.5973894
-2.1184227 -1.1197233 4.735991 0.27929887 -0.25872523 -5.564165 -2.0412068 4.450621
1.3246547 -0.1574373 -2.0183873 -0.63931674 0.45726708 1.5529612 -0.288972 -1.4688618
1.9386305 1.1461228 5.619806 0.8204238 -1.5277783 -0.77333426 -5.8460684 -0.7505261
-1.6439588 3.032735 8.167493 -1.3831353 2.7207582 -2.8735926 -4.123397 2.188865
-4.690909 -0.19820018 5.6377115 -2.2764454 -4.151338 0.35857528 7.1744423 1.8155438
-2.0677612 0.79485893 6.8751235 -1.0407529 4.8501806 2.071035 -5.09927 1.4512366
-1.979986 1.2127395 6.67763 -1.127219 4.4765854 2.4345133 -2.2396522 -1.5683229
-2.1944916 2.0216134 2.0343764 -2.9391854 3.30347 3.183567 -0.87917894 0.44196212
1.62546 0.899976 -2.2148561 -2.3509932 1.9316139 0.3592034 -0.759961 -0.1820901
1.4146438 1.8548337 12.371629 1.4219584 -2.336643 2.549503 3.111799 -0.8168132
-1.9210733 -1.1573989 1.1528324 0.87503356 -0.6969747 0.7697992 -2.8427389 -1.1839119
0.51750624 -0.67078847 -8.410215 -0.16543934 2.7549562 1.6053408 3.2784977 -1.0767676
4.1969113 -0.032629546 -1.515008 2.119 -3.5351875 -0.46726653 -0.6351458 1.3536654
0.47966343 1.6351807 -2.587642 -2.1699927 -1.6493878 1.1022526 8.301883 -1.4791447
7.438401 1.4586277 -1.0161188 0.88173443 2.2649179 0.37667218 -1.1864594 -0.3522277

first_layer.bias f4 [32]
00000000: 0240 57bf 5fb0 f73e bb9a e6c0 ba2f be40
00000010: a3f2 75bf 595c 9d3f ce59 c5bf 7c0d 9c3f
00000020: ccee 633f 830f 1340 8779 4440 2058 cbc0
00000030: 214a f63f 7316 bcc0 ff67 0e3f 6d67 fb3f
00000040: ce7b 4440 eb50 e03f 3140 ef3f 3597 2d40
00000050: a226 97c0 8a40 133e 3035 a53f 1189 2bc0
00000060: 2e05 bbc0 c079 0940 06e2 12c0 704d 2640
00000070: c819 2040 00df 1040 52fd abc0 e710 bd3f
-0.84082043 0.48376748 -7.206388 5.943326 -0.9607336 1.2293807 -1.5418031 1.2191615
0.8903625 2.2978218 3.0699174 -6.3545074 1.9241372 -5.8777404 0.55627435 1.9640938
3.0700564 1.7524694 1.8691465 2.712354 -4.723466 0.14380088 1.2906857 -2.6802409
-5.8443823 2.148056 -2.2950454 2.5984764 2.5015736 2.2636108 -5.374673 1.4770783

inter_layer.weight f4 [32, 32]
00000000: 0472 c2bf 7aba 87c0 ee3a 82bf 85f2 97c0
00000010: b3f2 893f ed48 67c0 d5d6 9ebf 3b8d 0e40
00000020: e8dc 03c1 d2ec 9e3e e2ad 463f 1801 8b3f
00000030: f47e 0b3f b218 23c1 2143 1a3f 2d2c 0cc0
00000040: 42fc 17c0 0a14 7dbe 0ffa 27be d115 86c0
00000050: 529f 1dc1 cadb a6bf d062 3bbe 9755 c53f
00000060: 9b7d ddbf f468 a9bf c578 40c0 9c74 bb3f
00000070: d05c 433f ac49 cd3f 735e 11c1 d3cd 463f
00000080: 5555 afbf 62bf 093f 6168 eebf 08f9 46bd
00000090: 60a7 8fc0 4350 37c0 cd59 6040 3342 243e
000000a0: 905e 9e3f 8abd cdbf 3b3c c73e 2386 93bf
000000b0: e772 12c0 3d25 1040 e91a debf e3d2 c8be
000000c0: db66 abbd ff05 2abf 1856 44c0 679b 2e40
000000d0: 6af7 acbf cda2 66bf 01b5 fb3f 79f9 05c0
000000e0: 266d 4940 7b5e ebbe 1109 ebbf 2bf7 0940
000000f0: ae4a 2ac0 5b49 05c0 4137 b3c0 22f0 2fc0
00000100: ff1e c4be 85d2 bfc0 fc9d 36c0 e4a5 90bf
00000110: 465f 6540 77ba e6bd 4e15 b8c0 422c 4e40
00000120: a450 9dc0 1881 b4be ef8b 6dbc af45 803e
00000130: d7c0 47c0 6c8a 89c0 2f04 393f f1a9 8dbf
00000140: 25c9 9bc0 4d9e 2040 5983 dbbe 189f 133f
00000150: e8ea 55c0 e943 9fbe d725 4ac0 ef8c 8fc0
00000160: 485e ccc0 c095 3840 d35d 81bf 2260 43c0
00000170: ce75 d0be 390d 48be 681b 77c0 ee61 5140
00000180: 2f9c 05be 08a3 aac0 709d 853f b28b 81c0
00000190: c089 6640 ebe3 7cbf 1626 ccbf 0f6f 4f3f
000001a0: bddb c7bf 0861 20bf 2daf 36bc 7681 67c0
000001b0: 2795 503f d30d 1dc1 708d af3f dcce 2e3e
000001c0: 5264 43c0 e20e 83bf 2913 f33e 7548 48bf
000001d0: 0391 29c0 faca a63f bdaf 03c0 d6da 19c0
000001e0: 85d3 eec0 3912 2dbf 0b99 a53c 3e9d e83a
000001f0: 8e3e 463f b3fb bc3f 1267 2ac0 5c80 a5bf
00000200: e926 ae3f 6933 69c0 e72b 743f 2261 b53f
00000210: 3226 cf3f 8b3e 343e 9294 ecbf f90c c8bf
00000220: 7362 2fc0 66fc 0e3f e15a 85c0 93d4 a83f
00000230: 820d dc3e 040c 39bf 99db 6640 bf27 83bf
00000240: 2cab b4c0 f017 723e 7790 e4be 3223 313f
00000250: 9811 22c0 0714 813f 801d 18c0 9487 91bc
00000260: 1064 5cc0 1764 c9bf 21ac ea3e 5a7a b2bf
00000270: 292e 0cc0 a301 983e 3c28 e13f af41 323f
00000280: 4d9d 67be 4ad7 9f3c dccc b9bf 1645 d33f
00000290: b138 dec0 16ed 23bf 225a a7c0 18f0 58c0
000002a0: 1da4 b4bf 81cd f43f d97d 3a3f 168f c7bf
000002b0: d34b 0240 4312 d2bf 60d4 c6bf 9b9d a23f
000002c0: 9d7f fbbe a233 063f de33 e1bf dacb 873f
000002d0: 8e93 283f 1c0f 34bf 8500 9140 7275 d2c0
000002e0: f572 ac40 bc54 cc3f f55a 3bbf df01 4f40
000002f0: 4e3d 55bf c8ad 1fbe 4772 e4c0 5e35 e1bf
00000300: d99e db3f c221 62c0 ea94 9fbc 322c 2f40
00000310: b81f b040 27c2 b03e f7f5 8bbf f169 2040
00000320: 1eda af3e 42d9 143f 035e 8e3f 5189 febf
00000330: 2e78 05c0 af86 a1c0 479d 5740 e94a 40be
00000340: f33f a9c0 77ee a73e 318b 263f 2e47 123d
00000350: 00ed 71be 9100 da3f 4a5d a2bf 33a2 dbbf
00000360: d693 35c1 bf42 d83f 7866 343e efcf b03f
00000370: 2d4f 053f 0ae3 c23f 8eff bbc0 3425 f93f
00000380: e7c7 93be 9719 3140 e8c0 f4bf b370 80c0
00000390: 4cc8 4ac0 ed02 aabe 210e 1140 5586 31c0
000003a0: 3ce7 953f 76ba 78c0 6f17 333f 06a1 943e
000003b0: 080b 163f e650 ef40 af7b a9bf c5e1 b33e
000003c0: d539 843f 7de5 f0be 1bae d5bd f2c2 9c3f
000003d0: acd8 f3bf b4f9 9eba fce0 31c0 1a25 6e3f
000003e0: 4cb5 be40 b0a7 01bf 9c97 c1bf 9990 f5be
000003f0: de38 91be d10c 58bf ba0d b2bf 59c2 87bf
-1.5191045 -4.2415133 -1.0174234 -4.7483544 1.0777191 -3.613826 -1.2409312 2.22737
-8.241432 0.31040055 0.77609074 1.0859709 0.5449059 -10.193529 0.6025868 -2.1901963
-2.3747716 -0.24714676 -0.16403984 -4.190163 -9.851397 -1.3035824 -0.18299413 1.5416745
-1.7303957 -1.3235154 -3.0073712 1.4644961 0.76313496 1.6038108 -9.085559 0.7765781
-1.3697916 0.5380765 -1.8625604 -0.04857734 -4.4891815 -2.8642738 3.505481 0.16040878
1.2372608 -1.6073468 0.3891314 -1.152531 -2.288263 2.2522728 -1.7351962 -0.39223394
-0.083692275 -0.664154 -3.0677547 2.728235 -1.3513005 -0.90092164 1.9664613 -2.0933516
3.147287 -0.4597052 -1.8362142 2.155711 -2.660808 -2.0826023 -5.600495 -2.7490315
-0.38304898 -5.994448 -2.8533926 -1.1300626 3.58394 -0.11266034 -5.7526007 3.2214513
-4.916094 -0.3525474 -0.014498695 0.25053164 -3.121145 -4.298147 0.7227201 -1.1067487
-4.868304 2.509662 -0.42873648 0.5766463 -3.3424625 -0.311065 -3.1585596 -4.485954
-6.386509 2.88414 -1.0106758 -3.0527425 -0.40714878 -0.19536294 -3.8610477 3.2716022
-0.1304786 -5.3324013 1.0438671 -4.0483027 3.6021576 -0.98785275 -1.5949123 0.81028837
-1.5613934 -0.6264806 -0.011150164 -3.6172767 0.8147759 -9.815875 1.3715038 0.17071098
-3.052998 -1.0238917 0.47475556 -0.7823556 -2.6494758 1.3030694 -2.0576012 -2.4039817
-7.4633203 -0.6760593 0.020214578 0.0017747057 0.774392 1.4764313 -2.662541 -1.2929797
1.3605624 -3.6437628 0.9537949 1.4170268 1.6183531 0.17601983 -1.848284 -1.5628959
-2.7403839 0.5585388 -4.1673436 1.3189873 0.42979056 -0.7228396 3.6071532 -1.0246505
-5.645895 0.23641944 -0.44641468 0.6919433 -2.5323238 1.0084237 -2.3768005 -0.017764844
-3.4436073 -1.573367 0.4583445 -1.3943589 -2.1903174 0.2968875 1.7590404 0.69631475
-0.22618599 0.019511838 -1.4515643 1.6505458 -6.9444203 -0.6403364 -5.2297525 -3.3896542
-1.4112583 1.9125215 0.7284828 -1.5590541 2.035878 -1.6411823 -1.5533562 1.2704347
-0.491208 0.52422535 -1.7593954 1.0609086 0.6585015 -0.70335555 4.5313134 -6.5768366
5.389033 1.5963359 -0.73185664 3.2344892 -0.8329667 -0.15593636 -7.13895 -1.7594411
1.7157851 -3.5333104 -0.019480187 2.7370725 5.503872 0.34523126 -1.0934438 2.5064662
0.34346098 0.5814401 1.112244 -1.9885656 -2.0854602 -5.047691 3.3689744 -0.18778576
-5.2890563 0.32799122 0.6505614 0.035712413 -0.23625565 1.7031423 -1.268472 -1.7158874
-11.348593 1.6895369 0.17617214 1.3813456 0.5207394 1.5225537 -5.8749456 1.9464478
-0.2886345 2.7671869 -1.912137 -4.013757 -3.1684752 -0.33205357 2.2664874 -2.773824
1.1711192 -3.8863807 0.6995763 0.290291 0.5861058 7.4786253 -1.324087 0.35133186
1.0330149 -0.47050086 -0.104335986 1.2246993 -1.9050498 -0.0012128861 -2.779357 0.9302536
5.959631 -0.50646496 -1.5124393 -0.47961882 -0.283637 -0.84394556 -1.3910439 -1.0606185

inter_layer.bias f4 [32]
00000000: 661a 8bbe 990f e33e 98f8 0dbf b065 3c3f
00000010: 0acc 973f a726 7240 96a8 5a40 7d2c b5bf
00000020: 94a9 eebe 1f10 3dbf 1faf 023f 44b4 f73d
00000030: bbef 6cbf f7cd 21be a29e 3a3e fc8a 5b3f
00000040: 37f6 73bf db40 b6bf d190 4c3f 948e a4bf
00000050: 6ff0 f0bd ba60 0a3f 2f01 793e 4d52 60be
00000060: ca75 0840 38ec 063e 6c29 923f cea5 97bf
00000070: fe4c 863e 26bd 913f ec0b 4cbf d4cc 1040
-0.27168578 0.44347838 -0.5545745 0.7359266 1.1859143 3.7836092 3.4165397 -1.4154202
-0.46613753 -0.73852724 0.51048464 0.1209493 -0.925533 -0.15801226 0.18224576 0.8575895
-0.9529757 -1.4238542 0.7990847 -1.2856011 -0.11764609 0.54053843 0.24316858 -0.21906395
2.1321893 0.13176048 1.1418891 -1.1847475 0.26230615 1.1385849 -0.7970569 2.2625017

final_layer.weight f4 [1, 32]
00000000: 076e bcc0 ece2 7940 d889 17c1 71e7 d6c0
00000010: ff22 ebc0 147c 0241 5360 a3c0 465e 3140
00000020: 0869 9ac0 add2 dcc0 0348 3240 ed20 2d40
00000030: ee2d a8c0 bf75 64c0 2d0b 1f40 1f93 2941
00000040: 2140 2c40 980f 1740 5e90 02c1 9b6f 2740
00000050: fe5f 3140 113f 8dc0 aba3 b440 55c3 2dc1
00000060: af3e 90c0 7cd8 16c0 c76b 92c0 8f1f d3c0
00000070: 62ea 5340 244a 1bc0 3121 1741 7cf6 a3c0
-5.888431 3.9044752 -9.471153 -6.715752 -7.348022 8.1552925 -5.1055083 2.771379
-4.825321 -6.9007173 2.7856452 2.7051346 -5.2556067 -3.5696867 2.485057 10.598418
2.691414 2.3603268 -8.160246 2.6161869 2.771484 -4.4139485 5.644979 -10.8601885
-4.507652 -2.3569632 -4.5756564 -6.5976024 3.3111806 -2.4264002 9.445603 -5.1238384
