continuous cartpole/rl_model/train_2022-02-16T23:10:08.409859/model/77220_critic.pt (torch, 8580 bytes, 9 tensors)

norm_layer.weight f4 [4]
00000000: 0000 803f 0000 803f 0000 803f 0000 803f
1.0 1.0 1.0 1.0

norm_layer.bias f4 [4]
00000000: 0000 0000 0000 0000 0000 0000 0000 0000
0.0 0.0 0.0 0.0

norm_layer.running_mean f4 [4]
00000000: 0000 0000 0000 0000 0000 0000 0000 0000
0.0 0.0 0.0 0.0

norm_layer.running_var f4 [4]
00000000: 0000 803f 0000 803f 0000 803f 0000 803f
1.0 1.0 1.0 1.0

first_layer.weight f4 [32, 5]
00000000: 1f12 5141 69d4 dd40 1b4a 2241 c404 fd40
00000010: d062 fe3d 990d b141 837c 3040 8c57 9ac1
00000020: ff8e 9b3e effc b3bd 2b5b 9fc1 f349 3bc1
00000030: 32b1 b1c1 9f72 e9c0 a989 953c 77e3 f5bf
00000040: d6e0 1ac1 d892 abc1 c132 11c1 db18 7f3f
00000050: 57c1 a0c1 0ab9 4cc1 b5e2 acc1 8591 2cc1
00000060: d35e 083e 13ee 5d41 879f 8b40 1177 9841
00000070: 87aa 0a41 350f bd3e 0539 ce41 d8c7 9540
00000080: 2522 02c2 2cbb 7e3f 249d 453d 4de8 a3c1
00000090: a9f7 3cc1 2dbe 9ec1 5d4c e9c0 9cd3 d7bc
000000a0: 2bcd b441 cdae 1240 c0d7 09c2 f34e 83bf
000000b0: a9a8 153d a72d abc1 c906 3ec1 e444 d8c1
000000c0: 0ceb fdc0 19c3 ff3c 9f35 58c1 b3ed 28c1
000000d0: ba87 57c1 efb3 b5c0 bd53 10bb 3de9 8cc0
000000e0: cfde 65c0 110f 13c2 e891 2ac1 6e53 363e
000000f0: e04a 9041 d67f 94be 2030 b2c0 dedc 8840
00000100: d108 e4be d2a2 2141 a6e1 4a40 2af2 7641
00000110: 7b14 e93f 8889 523d bfa3 d4c1 5907 5ac1
00000120: c582 98c1 608a 07c1 eaf1 c4bc 895a c8c1
00000130: f7bb 2dc1 5d3f 92c1 0d67 f7c0 8415 0d3d
00000140: cb64 06c1 8e8f f0c0 f072 5dc1 7788 c1c0
00000150: 71e3 ed3c 2f0b d241 60fd 7440 e86c 2cc0
00000160: 8fe0 2e40 2a92 87be 194e ff41 b623 0c40
00000170: 2ce6 01c2 9ec8 50c0 9453 a53d 8335 cec1
00000180: 9b9b 3bc1 23b3 cbc1 ef24 e1c0 ed76 4a3c
00000190: 6146 b841 68e9 1d40 f0aa e5c0 02b2 4140
000001a0: 5d53 78be 9a1a b5c1 c200 1bc1 4c0d 2dc2
000001b0: ba89 cac0 b849 25bb 43c4 b041 edab b440
000001c0: 2a95 4d41 aea3 6c40 3632 c63d bc85 9f40
000001d0: fa25 e3be 9c43 ae41 0653 9e40 c6cc 35bd
000001e0: 201e 4541 4c31 a640 780e 9b41 0b8e 4040
000001f0: 69cc 033b 488a 53c1 eb8c eac0 ffc8 a6c1
00000200: 9376 9ac0 5f5f 893c 9de6 6cc1 76f9 d9c0
00000210: 357d 02c2 bd01 a0c0 f706 a83c 34c0 c3c1
00000220: 77d0 c4c0 2732 48c1 2d05 90c0 e3ff a3bf
00000230: 6147 c340 10e3 94bf f9cf bd41 d858 2c41
00000240: ed76 553e fe5a ed40 b8d9 e23f 49cf 43bf
00000250: d570 3ec0 5fb0 db3d 4f26 dac0 034a fec0
00000260: bb39 ccc1 3198 39c1 b80e 4bbe e40e 91c1
00000270: eb86 26c1 ad7a d2c1 9b7c c3c0 e5b2 1abd
13.066924 6.932179 10.143092 7.9068317 0.12421191 22.13164 2.7575996 -19.292747
0.30382535 -0.08788478 -19.919516 -11.705554 -22.211521 -7.295242 0.018254118 -1.9210042
-9.679892 -21.446701 -9.074891 0.996473 -20.094404 -12.795176 -21.610697 -10.785527
0.13317423 13.870624 4.3632236 19.058138 8.666633 0.36925665 25.777842 4.680645
-32.533344 0.9950435 0.048245564 -20.488428 -11.810464 -19.84286 -7.2905717 -0.02634602
22.60018 2.291919 -34.460693 -1.0258468 0.0365378 -21.397291 -11.876657 -27.033638
-7.9349422 0.03122096 -13.513091 -10.558032 -13.470636 -5.6782146 -0.0022022568 -4.4034715
-3.5917242 -36.764713 -10.660622 0.17805263 18.03656 -0.2900378 -5.5683746 4.2769613
-0.44537976 10.102251 3.1700225 15.434122 1.8209375 0.05140069 -26.579954 -13.626794
-19.063852 -8.471283 -0.024041135 -25.044207 -10.85839 -18.28094 -7.7313294 0.034444347
-8.399608 -7.517524 -13.840561 -6.0479083 0.029039117 26.25546 3.8279648 -2.694147
2.732456 -0.26478702 31.913134 2.1896796 -32.474777 -3.2622447 0.08072582 -25.776129
-11.72549 -25.46247 -7.0357585 0.012357456 23.034365 2.467371 -7.1771164 3.0264897
-0.2425055 -22.637989 -9.687685 -43.262985 -6.3293123 -0.0025220942 22.09583 5.645987
12.848917 3.6974902 0.09677546 4.985075 -0.4436491 21.783012 4.9476347 -0.04438474
12.319855 5.1935177 19.382065 3.0086696 0.0020110852 -13.22126 -7.329702 -20.848143
-4.8269744 0.01676911 -14.806302 -6.811702 -32.622272 -5.000212 0.020511134 -24.46885
-6.1504474 -12.512244 -4.500632 -1.2812465 6.1024632 -1.1631794 23.72655 10.77169
0.20846148 7.4173574 1.7722692 -0.7648817 -2.9756367 0.107269995 -6.8171763 -7.9465346
-25.528189 -11.599656 -0.19829834 -18.13227 -10.407939 -26.3099 -6.1089606 -0.037768263

first_layer.bias f4 [32]
00000000: 68fc 38c1 12f4 a7c1 6efe 0042 38a6 5f41
00000010: d910 9541 42ab 863f f771 0ec1 7315 d141
00000020: a5a4 1bc1 85db e341 7f53 f941 c02a b341
00000030: 19ba 72c1 3dbb 97c1 bb00 c841 8fe4 d141
00000040: 1306 f641 7779 54c0 b977 acc1 ceb2 c941
00000050: 8b5d 70c1 19ed b341 c77d 52c1 9598 4ac1
00000060: d94c 413e eaf4 f441 6449 d841 07d3 a241
00000070: 3909 1cc1 11d0 b6c1 1057 cc41 fd9e 0342
-11.561623 -20.994175 32.248466 13.978081 18.633226 1.0521014 -8.902823 26.135473
-9.727696 28.482187 31.16577 22.395874 -15.170434 -18.966425 25.000357 26.2366
30.752966 -3.3199136 -21.558458 25.212307 -15.022838 22.49077 -13.155707 -12.662251
0.18876971 30.619587 27.035835 20.35304 -9.752252 -22.851595 25.542511 32.905262

inter_layer.weight f4 [32, 32]
00000000: 16d3 2ec0 2c8a 82c2 9359 1e42 d329 3540
00000010: 7055 6b41 f409 f6c0 7d95 68c2 36dc fa41
00000020: 2475 37c2 9295 2242 32bb d241 5157 8c41
00000030: 0a26 a2c1 f59c c1c2 aaf4 0642 a67d 2142
00000040: b5aa c841 959b 23c1 3643 f7c1 2fc8 fd41
00000050: 0c79 adc1 9f4e b941 c438 81c1 3c22 aac2
00000060: 1fef 8dc1 d7e0 c941 ed12 e141 d368 b140
00000070: 7608 22c1 3510 88c1 a207 3341 6f85 1642
00000080: 7d7c e1c0 c390 60c2 b84a 1242 a39e 4940
00000090: 4503 4e41 b61e 18c1 c616 44c2 1afc fd41
000000a0: 3617 26c2 70f5 1a42 f43f cd41 cb83 7441
000000b0: e51c 8dc1 bfda 94c2 1173 0b42 f864 1842
000000c0: d229 c341 c98e 46c1 3570 c0c1 7dec f941
000000d0: 5708 c8c1 b705 b841 4374 84c1 d81c 63c2
000000e0: 9744 83c1 a76d bf41 5638 cd41 bd1c ab40
000000f0: 3c47 e0c0 0260 9ac1 6000 2441 8691 1142
00000100: 4a82 883f 24e5 bf41 48ab 0ac2 e147 86c0
00000110: 946a 33c1 7151 e2bf ba11 2042 f463 f3c1
00000120: 3627 f341 26e8 10c2 cabf c3c1 8253 3bc1
00000130: 9b04 3341 a652 8142 cc3c fdc1 e1aa 01c2
00000140: d4c5 b4c1 35dc 2140 5bde 9941 4e65 edc1
00000150: 6660 0141 fb4b a7c1 e6f7 7e40 2528 1a42
00000160: 0b33 6041 ec25 bdc1 d9b3 c3c1 db6b eec0
00000170: fa63 4540 7c55 f240 392f 41c1 3c57 0fc2
00000180: 11ba 7bc0 2e48 8cc2 3e5d 1b42 881e 1140
00000190: fe3c 6441 3145 fac0 524b 57c2 4ae4 f041
000001a0: 2769 34c2 ad6c 1b42 2dd0 c641 d242 8941
000001b0: 13c1 93c1 cb3b acc2 f2d3 0442 f928 2042
000001c0: ab6e c141 dc6c 46c1 66d8 cfc1 0833 ff41
000001d0: 339d abc1 df95 bc41 a625 79c1 a66d 82c2
000001e0: 731d 8cc1 83c7 ba41 4a88 e141 a306 be40
000001f0: d7cb 03c1 1e6e 88c1 0d1c 3341 e513 1142
00000200: 7530 ecc0 5e6e 58c2 cb9d 1142 b8f0 f63f
00000210: f767 5941 ab21 28c1 c8f6 47c2 0d8f 0242
00000220: b0c2 1fc2 31f2 1d42 fb79 c941 0f13 7441
00000230: e080 6dc1 74ff 86c2 2a0e 0b42 e551 2042
00000240: ba75 bf41 9b71 57c1 f869 c1c1 a2c2 fe41
00000250: e135 d3c1 fdb7 c741 01c4 6fc1 e7c7 6dc2
00000260: 7b51 8dc1 0422 be41 8271 d341 b3f6 ab40
00000270: 5cb6 7ac0 d8d3 89c1 fa50 1241 ac73 0742
00000280: b57d 38c0 039d 09c2 96c2 0b42 c7a5 0a40
00000290: 10bd 4c41 bf8e e6c0 020e 03c2 fd88 f141
000002a0: 0e00 01c2 a434 1642 2bbf bc41 82d6 9141
000002b0: 4053 71c1 2385 95c2 2359 0442 4c01 0f42
000002c0: 1025 ad41 e0f4 2dc1 4519 82c1 a710 0242
000002d0: 1675 69c1 989a fe41 4764 13c1 0025 27c2
000002e0: 44d3 91c1 c90c b441 eeb2 d841 35c4 ad40
000002f0: 9c6c ebc0 cc48 fbc0 b665 4041 5d5d 0342
00000300: 9624 953f 3952 b541 9837 0ac2 4e6c 7bc0
00000310: 9234 2dc1 668b 88bf f37c 2042 952e f3c1
00000320: 439a f041 552a 11c2 70c5 c1c1 407b 5fc1
00000330: 2c98 3841 fe9c 7e42 18c8 03c2 2801 fec1
00000340: b48c b1c1 9ccb a03f 9698 9641 e122 ebc1
00000350: abef 0541 4d48 b4c1 3a0a 8940 313d 1d42
00000360: 3674 6141 970c bec1 94d4 c5c1 371a eec0
00000370: 5bb0 7e40 535a ff40 bbf8 48c1 5a57 0fc2
00000380: 9fb6 43bf 1c87 c241 6c42 05c2 3521 35c0
00000390: eadd 35c1 9509 03c0 427b 0442 bb96 ecc1
000003a0: 3066 c741 09aa 0ac2 37cb c1c1 9926 55c1
000003b0: 1f1a 2141 0cdc 7042 fe28 fcc1 c39a f2c1
000003c0: 0779 bbc1 1f8e 213f ede8 8941 6226 e8c1
000003d0: c01b c540 cc68 9dc1 3e9d 6440 5acd 1742
000003e0: 181c 5241 3470 bcc1 343a d5c1 b169 11c1
000003f0: 0a2c 3840 3b25 0e41 7fc7 4bc1 d18e 15c2
-2.7316337 -65.26987 39.587475 2.8306777 14.708359 -7.688715 -58.145985 31.357525
-45.864395 40.646065 26.341404 17.542635 -20.268574 -96.80656 33.73893 40.372704
25.083353 -10.225484 -30.907818 31.722746 -21.684105 23.16339 -16.152718 -85.066864
-17.741758 25.234785 28.134241 5.544046 -10.127066 -17.007914 11.1893635 37.630306
-7.0464463 -56.14137 36.572968 3.1503074 12.875798 -9.507498 -49.02224 31.748096
-41.522667 38.739685 25.656227 15.282176 -17.639109 -74.42724 34.86237 38.098602
24.39542 -12.40986 -24.054789 31.240473 -25.004072 23.00279 -16.556768 -56.778168
-16.408491 23.928541 25.652508 5.347258 -7.0086956 -19.296879 10.250092 36.392113
1.0664761 23.986885 -34.667267 -4.1962743 -11.21352 -1.7681104 40.01731 -30.423805
30.394146 -36.226707 -24.468647 -11.707888 11.188624 64.66142 -31.654686 -32.416874
-22.596596 2.5290654 19.233572 -29.674465 8.086035 -20.9121 3.9838805 38.539204
14.012462 -23.643517 -24.462816 -7.450666 3.084227 7.572935 -12.074029 -35.83519
-3.9332316 -70.140976 38.841057 2.2674885 14.264891 -7.820946 -53.823555 30.11147
-45.102688 38.85613 24.851648 17.157627 -18.469275 -86.11678 33.206978 40.040012
24.179037 -12.401577 -25.980663 31.899918 -21.451757 23.57318 -15.5716915 -65.21416
-17.51438 23.347418 28.191547 5.93831 -8.237266 -17.053768 11.194348 36.26943
-7.380915 -54.10778 36.404095 1.9292212 13.587882 -10.50822 -49.990997 32.639698
-39.940125 39.486515 25.18456 15.254653 -14.843964 -67.49893 34.763832 40.079975
23.932484 -13.465236 -24.176743 31.845036 -26.401308 24.964838 -14.9853525 -59.445217
-17.664785 23.76661 26.430424 5.3738647 -3.9173803 -17.22844 9.14477 33.86296
-2.8826725 -34.40333 34.940025 2.1663682 12.796158 -7.204925 -32.76368 30.191889
-32.250053 37.551407 23.593344 18.22974 -15.082825 -74.76003 33.087048 35.751266
21.643097 -10.872284 -16.262339 32.516262 -14.591085 31.825485 -9.211982 -41.786133
-18.228157 22.506243 27.087368 5.430201 -7.357008 -7.8526363 12.024832 32.841175
1.165179 22.665148 -34.55429 -3.9284854 -10.825335 -1.0667541 40.12202 -30.397745
30.075323 -36.29134 -24.221405 -13.96759 11.537151 63.653313 -32.945404 -31.750565
-22.193703 1.2562137 18.824505 -29.39203 8.371013 -22.535303 4.2824984 39.309757
14.090872 -23.756147 -24.728798 -7.4407 3.979514 7.979776 -12.560725 -35.835304
-0.7645053 24.315971 -33.314865 -2.8301518 -11.366678 -2.0474598 33.12037 -29.573599
24.924896 -34.66605 -24.224226 -13.321923 10.068877 60.21489 -31.520016 -30.325567
-23.434095 0.63107485 17.238733 -29.018742 6.1596375 -19.67617 3.5720973 37.95054
13.131859 -23.554787 -26.65342 -9.088304 2.877688 8.884089 -12.736205 -37.38947

inter_layer.bias f4 [32]
00000000: b093 0142 4215 f141 5b99 03c2 1b48 f841
00000010: dd9c d941 2487 ac41 903a 03c2 e75c 08c2
00000020: 2985 05c2 9cb3 e041 9b43 cd41 86d5 fcc1
00000030: 1f53 df41 e700 03c2 9432 41bf 3a26 9d41
00000040: 75a2 f5c1 11c5 f5c1 190b fd41 2dbc 07c2
00000050: ccee f541 60af f9c1 b3f2 f641 058f f9c1
00000060: de27 0042 4bff fd41 a9eb fcc1 ed5c d541
00000070: b5c9 fec1 1621 f9c1 406f fac1 edcf ec41
32.394226 30.13538 -32.89976 31.035208 27.201593 21.565987 -32.80719 -34.090725
-33.38004 28.0877 25.65801 -31.60426 27.915586 -32.75088 -0.754678 19.643665
-30.704325 -30.721224 31.630419 -33.933765 30.7416 -31.210632 30.868505 -31.194834
32.038933 31.749655 -31.615068 26.670374 -31.84849 -31.141155 -31.304321 29.601526

final_layer.weight f4 [1, 32]
00000000: 6acd 6a42 df2b 6342 dfde c4c1 50a9 5942
00000010: 110c 6142 3063 2f42 f676 c8c1 9ef2 d4c1
00000020: 9308 00c2 78f1 4642 2532 4842 1c1a c4c1
00000030: 207c 5a42 42a2 cec1 4b52 e3c1 a24d 3c42
00000040: c99e fcc1 3b6a d1c1 d1d0 5842 86b3 cbc1
00000050: 0bdf 6742 2fae d0c1 72c0 4b42 34e5 e5c1
00000060: ba0b 6642 478f 5142 4f32 ebc1 6888 5c42
00000070: 8b7e c3c1 8695 edc1 da2c d3c1 67f6 5e42
58.7006 56.792843 -24.608824 54.415344 56.261784 43.846863 -25.058086 -26.618465
-32.008373 49.73581 50.04897 -24.512749 54.621216 -25.829227 -28.415182 47.075813
-31.577532 -26.17687 54.203922 -25.462658 57.967815 -26.08505 50.937935 -28.736916
57.51145 52.38992 -29.399565 55.13321 -24.436789 -29.69801 -26.3969 55.740627
