continuous cartpole/rl_model/train_2022-02-16T23:10:08.409859/model/87070_critic.pt (torch, 8580 bytes, 9 tensors)

norm_layer.weight f4 [4]
1.0 1.0 1.0 1.0
00000000: 0000 803f 0000 803f 0000 803f 0000 803f

norm_layer.bias f4 [4]
0.0 0.0 0.0 0.0
00000000: 0000 0000 0000 0000 0000 0000 0000 0000

norm_layer.running_mean f4 [4]
0.0 0.0 0.0 0.0
00000000: 0000 0000 0000 0000 0000 0000 0000 0000

norm_layer.running_var f4 [4]
1.0 1.0 1.0 1.0
00000000: 0000 803f 0000 803f 0000 803f 0000 803f

first_layer.weight f4 [32, 5]
10.581644 7.3070865 10.856589 12.169443 0.07244191 18.695578 3.4879715 -17.823193
0.913116 -0.08840989 -18.207336 -12.656681 -23.543879 -7.7893806 0.030479424 6.6932673
-19.490252 -28.9486 -8.830684 0.99474585 -18.379375 -13.747705 -22.94753 -11.279851
0.14536028 14.86779 10.010856 16.499321 4.7776427 0.14561006 28.901094 5.2751627
-36.954136 1.3345716 0.046834003 -18.775158 -12.761688 -21.176558 -7.784904 -0.014072039
27.117554 2.6422892 -39.255035 -1.0407354 0.03160771 -19.68537 -12.827664 -28.36584
-8.429232 0.043489613 -11.799225 -11.509442 -14.805308 -6.1726575 0.010063896 -2.690602
-4.54389 -38.099102 -11.154605 0.19023718 22.350103 -1.272369 -13.173141 5.1803594
-0.551604 8.39229 4.121109 16.764194 2.3146627 0.039330702 -24.867054 -14.577939
-20.397085 -8.965599 -0.01175197 -23.332386 -11.809396 -19.612951 -8.2256 0.046722528
-6.6858473 -8.468958 -15.174828 -6.5422797 0.041290674 30.445856 3.451246 -6.3901143
3.7919576 -0.1926536 35.61537 3.5948343 -36.84474 -4.0018663 0.25972754 -24.063015
-12.676651 -26.796 -7.530151 0.024650658 23.481306 2.5510643 -8.71301 3.547316
-0.20582813 -20.922884 -10.639004 -44.59868 -6.8238597 0.009752302 21.042892 8.376474
15.747645 5.1526856 0.07114276 3.3999681 0.34872732 23.021202 5.2785177 -0.03944043
16.65569 6.283473 19.687107 2.1676836 0.16318613 -11.507373 -8.28114 -22.182756
-5.3213797 0.029014753 -13.092762 -7.7631135 -33.956455 -5.4946175 0.03276849 -23.1782
-6.270642 -13.929398 -5.71394 -1.4798336 4.3373 -0.9000205 24.1754 13.135755
0.12721373 14.444523 2.4270074 -3.015632 -2.061727 0.0808783 -5.662379 -8.866824
-26.690071 -12.064472 -0.8748081 -16.419966 -11.359117 -27.642775 -6.6031733 -0.025544772
00000000: 6a4e 2941 a7d3 e940 97b4 2d41 0ab6 4241
00000010: 6d5c 943d 8b90 9541 ed3a 5f40 e695 8ec1
00000020: f8c1 693f 3f10 b5bd a0a8 91c1 c481 4ac1
00000030: dd59 bcc1 9b42 f9c0 fcaf f93c 3f2f d640
00000040: 09ec 9bc1 bc96 e7c1 7b4a 0dc1 aaa7 7e3f
00000050: f608 93c1 9af6 5bc1 8b94 b7c1 457a 34c1
00000060: 53d9 143e 78e2 6d41 772c 2041 9cfe 8341
00000070: 73e2 9840 ce1a 153e 7135 e741 22ce a840
00000080: 09d1 13c2 3ed3 aa3f 03d5 3f3d 8633 96c1
00000090: e02f 4cc1 9769 a9c1 ef1d f9c0 698e 66bc
000000a0: c0f0 d841 441b 2940 2805 1dc2 d136 85bf
000000b0: 1677 013d a37b 9dc1 1d3e 4dc1 3eed e2c1
000000c0: 22de 06c1 2a22 323d a0c9 3cc1 ad26 38c1
000000d0: 8be2 6cc1 6986 c5c0 0ae3 243c d332 2cc0
000000e0: 8c67 91c0 7b65 18c2 4379 32c1 89cd 423e
000000f0: 03cd b241 fddc a2bf 2fc5 52c1 81c5 a540
00000100: eb35 0dbf d246 0641 20e0 8340 121d 8641
00000110: 6f23 1440 3b19 213d baef c6c1 3d3f 69c1
00000120: 3b2d a3c1 1873 0fc1 568b 40bc baa8 bac1
00000130: 49f3 3cc1 53e7 9cc1 0f9c 03c1 1f60 3f3d
00000140: 76f2 d5c0 da80 07c1 18cc 72c1 5b5a d1c0
00000150: 6920 293d 1d91 f341 37e1 5c40 d17b ccc0
00000160: 6faf 7240 fc46 45be 2476 0e42 c411 6640
00000170: 0461 13c2 4a0f 80c0 02fb 843e 0e81 c0c1
00000180: 90d3 4ac1 355e d6c1 fff6 f0c0 2df0 c93c
00000190: b7d9 bb41 a344 2340 7d68 0bc1 3a07 6340
000001a0: 9cc4 52be 1162 a7c1 5c39 2ac1 0c65 32c2
000001b0: 0f5d dac0 1fc8 1f3c d857 a841 0a06 0641
000001c0: 5bf6 7b41 cde2 a440 4cb3 913d 1499 5940
000001d0: 638c b23e 6c2b b841 9ee9 a840 4a8c 21bd
000001e0: da3e 8541 3612 c940 327f 9d41 54bb 0a40
000001f0: 441a 273e 331e 38c1 8d7f 04c1 4976 b1c1
00000200: be48 aac0 59b0 ed3c f47b 51c1 6d6b f8c0
00000210: 69d3 07c2 e8d3 afc0 4138 063d f46c b9c1
00000220: 19a9 c8c0 d0de 5ec1 99d8 b6c0 306b bdbf
00000230: 29cb 8a40 be67 66bf 3867 c141 0d2c 5241
00000240: 5144 023e c41c 6741 1754 1b40 1d00 41c0
00000250: 56f3 03c0 86a3 a53d 3532 b5c0 83de 0dc1
00000260: 4485 d5c1 1408 41c1 6cf3 5fbf 175c 83c1
00000270: f1be 35c1 6724 ddc1 324d d3c0 4543 d1bc

first_layer.bias f4 [32]
-11.877934 -24.97331 36.061184 20.721273 22.450832 1.3260714 -8.5829935 29.950428
-8.839571 32.2954 34.980507 26.211151 -12.346793 -22.77845 28.815035 30.050337
34.567455 -2.674877 -22.129 29.027067 -16.541183 26.306885 -13.3989105 -16.327436
0.6163033 34.434196 30.851032 24.152687 -10.128188 -22.993483 29.10846 36.71825
00000000: 050c 3ec1 57c9 c7c1 a73e 1042 2bc5 a541
00000010: 4e9b b341 b5bc a93f f153 09c1 7a9a ef41
00000020: e26e 0dc1 7d2e 0142 0aec 0b42 70b0 d141
00000030: 778c 45c1 443a b6c1 3185 e641 1767 f041
00000040: 1345 0a42 2f31 2bc0 3108 b1c1 6f37 e841
00000050: 5854 84c1 8074 d241 f061 56c1 979e 82c1
00000060: 0ec6 1d3f 9ebc 0942 eace f641 b438 c141
00000070: 0f0d 22c1 a7f2 b7c1 20de e841 7ddf 1242

inter_layer.weight f4 [32, 32]
-3.351102 -68.955574 43.928284 4.311045 18.487463 -7.4827714 -66.92522 35.927532
-52.560173 44.931557 30.820297 20.327253 -21.261557 -100.77729 38.516697 44.658733
29.06235 -13.224986 -34.481247 36.233315 -23.351591 27.313465 -16.84114 -87.47594
-22.097694 29.304403 32.054317 7.137855 -10.224135 -18.27654 14.138036 41.945133
-7.6659293 -59.826534 40.9131 4.630741 16.655504 -9.301503 -57.800518 36.316833
-48.217987 43.024887 30.13378 18.066872 -18.599123 -78.39638 39.63872 42.384586
28.374386 -15.420611 -27.614313 35.750042 -26.649147 27.152117 -17.245045 -59.030163
-20.764456 27.997665 29.572472 6.932512 -7.1081486 -20.560314 13.198282 40.705368
1.6860375 27.674942 -39.01079 -5.677566 -14.996012 -1.974141 48.797894 -34.99623
37.09074 -40.51539 -28.949842 -14.494506 12.148982 68.633965 -36.434837 -36.70626
-26.578703 5.5403905 22.794672 -34.188152 9.731929 -25.065134 4.6730623 40.79348
18.371233 -27.716106 -28.386194 -9.036843 3.183696 8.837052 -15.02449 -40.152264
-4.5527267 -73.82666 43.181347 3.7479267 18.044342 -7.614977 -62.60191 34.68009
-51.798115 43.141434 29.329306 19.942427 -19.42931 -90.08605 37.98342 44.3261
28.158092 -15.412361 -29.540228 36.409874 -23.096867 27.722641 -16.260124 -67.46692
-21.870432 27.416674 32.111576 7.523613 -8.336707 -18.317225 14.142626 40.5828
-8.000398 -57.792984 40.74428 3.4096398 17.367516 -10.302224 -58.769295 37.2085
-46.635445 43.771744 29.66213 18.039373 -15.803818 -71.4681 39.54021 44.365986
27.91147 -16.476051 -27.73627 36.354855 -28.04639 29.114208 -15.674242 -61.69724
-22.020792 27.835777 30.35044 6.959131 -4.016849 -18.491875 12.092991 38.17627
-3.5021234 -38.089024 39.280945 3.6469643 16.576567 -6.998932 -41.54244 34.761295
-38.945705 41.8374 28.071753 21.015001 -16.042925 -78.73013 37.86424 40.038063
25.622774 -13.883163 -19.82214 37.026955 -16.23638 35.975258 -9.900995 -44.038597
-22.584774 26.576172 31.008217 7.015708 -7.4564834 -9.116435 14.973589 37.155323
1.7847323 26.35313 -38.897728 -5.4097457 -14.607734 -1.2727826 48.90252 -34.969994
36.771908 -40.57993 -28.702494 -16.75458 12.497484 67.6263 -37.7253 -36.03993
-26.17572 4.2675743 22.385542 -33.9055 10.01688 -26.688221 4.9716563 41.56395
18.44957 -27.828623 -28.652061 -9.026848 4.0790277 9.243917 -15.511111 -40.15227
-0.14498304 28.003714 -37.65792 -4.3113456 -15.1487665 -2.2534819 41.900585 -34.14531
31.621191 -38.954296 -28.704939 -16.108482 11.029128 64.18877 -36.299652 -34.614452
-27.415756 3.6423118 20.799555 -33.531773 7.805347 -23.828669 4.261147 40.204487
17.490252 -27.626926 -30.57629 -10.674391 2.9771588 10.148152 -15.686341 -41.706062
00000000: 7578 56c0 41e9 89c2 90b6 2f42 15f4 8940
00000010: 53e6 9341 dd72 efc0 b6d9 85c2 cbb5 0f42
00000020: 9e3d 52c2 eab9 3342 f88f f641 379e a241
00000030: ab17 aac1 f98d c9c2 1911 1a42 8ba2 3242
00000040: b17f e841 8b99 53c1 ccec 09c2 eaee 1042
00000050: 0fd0 bac1 fa81 da41 a8ba 86c1 aef3 aec2
00000060: 14c8 b0c1 6b6f ea41 9f37 0042 4f69 e440
00000070: 0f96 23c1 5b36 92c1 6535 6241 d1c7 2742
00000080: 4b4f f5c0 5f4e 6fc2 04a7 2342 082f 9440
00000090: 793e 8541 f5d2 14c1 bb33 67c2 7044 1142
000000a0: 38df 40c2 7c19 2c42 fb11 f141 f488 9041
000000b0: 01cb 94c1 f2ca 9cc2 0d8e 1e42 d189 2942
000000c0: befe e241 d3ba 76c1 1dea dcc1 0b00 0f42
000000d0: 7431 d5c1 8937 d941 daf5 89c1 e31e 6cc2
000000e0: 9b1d a6c1 38fb df41 6c94 ec41 23d7 dd40
000000f0: f475 e3c0 867b a4c1 2a2c 5341 4cd2 2242
00000100: 14d0 d73f 4866 dd41 0d0b 1cc2 9fae b5c0
00000110: aaef 6fc1 a7b0 fcbf 0b31 4342 24fc 0bc2
00000120: eb5c 1442 c20f 22c2 4799 e7c1 7fe9 67c1
00000130: 3b62 4241 9744 8942 46bd 11c2 36d3 12c2
00000140: 2fa1 d4c1 e14a b140 7d5b b641 abc0 08c2
00000150: fbb5 1b41 6585 c8c1 ba89 9540 862c 2342
00000160: 49f8 9241 96ba ddc1 ed16 e3c1 e996 10c1
00000170: adc1 4b40 9164 0d41 5064 70c1 eb9b 20c2
00000180: f0af 91c0 40a7 93c2 b3b9 2c42 08de 6f40
00000190: d05a 9041 e4ad f3c0 5b68 7ac2 6ab8 0a42
000001a0: 4531 4fc2 d490 2c42 6ba2 ea41 178a 9f41
000001b0: 3a6f 9bc1 0f2c b4c2 06ef 1742 ed4d 3142
000001c0: c643 e141 0899 76c1 6352 ecc1 b6a3 1142
000001d0: 62c6 b8c1 f8c7 dd41 bc14 82c1 10ef 86c2
000001e0: a5f6 aec1 5955 db41 4172 0042 70c1 f040
000001f0: 2763 05c1 ad89 92c1 3248 6241 ca54 2242
00000200: a101 00c1 042c 67c2 25fa 2242 8a37 5a40
00000210: acf0 8a41 e9d5 24c1 c213 6bc2 81d5 1442
00000220: b28a 3ac2 4416 2f42 0b4c ed41 a350 9041
00000230: 70dc 7cc1 abef 8ec2 2d29 1e42 c576 3142
00000240: b14a df41 f4ce 83c1 e2e3 ddc1 5f6b 1142
00000250: 025f e0c1 e6e9 e841 b2c9 7ac1 f9c9 76c2
00000260: 952a b0c1 acaf de41 b3cd f241 33b1 de40
00000270: 078a 80c0 5cef 93c1 e47c 4141 80b4 1842
00000280: ca22 60c0 295b 18c2 b01f 1d42 dd67 6940
00000290: cf9c 8441 40f7 dfc0 752b 26c2 910b 0b42
000002a0: 67c8 1bc2 7f59 2742 f392 e041 b91e a841
000002b0: e957 80c1 d475 9dc2 fb74 1742 fa26 2042
000002c0: 71fb cc41 7021 5ec1 be93 9ec1 9a1b 1442
000002d0: 1be4 81c1 aae6 0f42 7a6a 1ec1 8627 30c2
000002e0: 9ead b4c1 009c d441 d410 f841 ae80 e040
000002f0: 839b eec0 ebdc 11c1 d293 6f41 0d9f 1442
00000300: 1c72 e43f 36d3 d241 4697 1bc2 a31c adc0
00000310: 47b9 69c1 8aea a2bf 2e9c 4342 46e1 0bc2
00000320: 6f16 1342 d951 22c2 b59e e5c1 6109 86c1
00000330: b2f5 4741 aa40 8742 b5e6 16c2 e328 10c2
00000340: e067 d1c1 f88f 8840 9715 b341 3b9f 07c2
00000350: 2445 2041 7a81 d5c1 cf17 9f40 7c41 2642
00000360: b898 9341 05a1 dec1 6c37 e5c1 f86d 10c1
00000370: 6587 8240 16e7 1341 832d 78c1 ed9b 20c2
00000380: 6f76 14be 9b07 e041 b6a1 16c2 8bf6 89c0
00000390: 5961 72c1 0c39 10c0 339a 2742 cc94 08c2
000003a0: 33f8 fc41 33d1 1bc2 b7a3 e5c1 2cde 80c1
000003b0: 4f77 3041 a660 8042 d832 11c2 3375 0ac2
000003c0: 7853 dbc1 a31b 6940 7d65 a641 8920 06c2
000003d0: 67c5 f940 1da1 bec1 515b 8840 65d1 2042
000003e0: 09ec 8b41 f203 ddc1 3e9c f4c1 4eca 2ac1
000003f0: c589 3e40 d55e 2241 41fb 7ac1 02d3 26c2

inter_layer.bias f4 [32]
36.203365 33.944084 -36.71118 34.843674 31.011206 25.37625 -36.61852 -37.90171
-37.190132 31.89733 29.468443 -35.415825 31.725058 -36.56208 -4.3583183 23.453754
-34.51467 -34.532436 35.43893 -37.745003 34.55104 -35.021805 34.67716 -35.005478
35.848137 35.559093 -35.425713 30.480043 -35.659954 -34.95168 -35.115406 33.41031
00000000: 3fd0 1042 bec6 0742 40d8 12c2 ec5f 0b42
00000010: f316 f841 8f02 cb41 5d79 12c2 5a9b 17c2
00000020: b2c2 14c2 bb2d ff41 5fbf eb41 cea9 0dc2
00000030: ebcc fd41 923f 12c2 5877 8bc0 4aa1 bb41
00000040: 060f 0ac2 3721 0ac2 77c1 0d42 e2fa 16c2
00000050: 4434 0a42 5416 0cc2 69b5 0a42 9c05 0cc2
00000060: 7e64 0f42 833c 0e42 eeb3 0dc2 21d7 f341
00000070: cba3 0ec2 85ce 0bc2 2d76 0cc2 28a4 0542

final_layer.weight f4 [1, 32]
63.204792 61.299496 -28.985472 58.914127 60.76904 48.26569 -29.427835 -30.944458
-36.357037 54.24947 54.551544 -28.877438 59.135162 -30.209784 -32.832546 51.597404
-35.95977 -30.54961 58.696655 -29.820524 62.454872 -30.444958 55.433147 -33.096226
62.007935 56.900455 -33.770016 59.628784 -28.809717 -34.077747 -30.782066 60.247433
00000000: b5d1 7c42 af32 7542 3fe2 e7c1 11a8 6b42
00000010: 7f13 7342 1110 4142 356c ebc1 408e f7c1
00000020: 9b6d 11c2 75ff 5842 c834 5a42 fe04 e7c1
00000030: 688a 6c42 a3ad f1c1 8754 03c2 be63 4e42
00000040: ced6 0fc2 9a65 f4c1 60c9 6a42 6f90 eec1
00000050: cad1 7942 468f f3c1 8bbb 5d42 8962 04c2
00000060: 2008 7842 119a 6342 7f14 07c2 e083 6e42
00000070: 4d7a e6c1 9d4f 08c2 ac41 f6c1 5ffd 7042
