continuous cartpole/rl_model/train_2022-02-16T23:10:08.409859/model/89410_actor.pt (torch, 6999 bytes, 5 tensors)

first_layer.weight f4 [32, 4]
-0.9273696 2.319537 3.862813 -0.8963578 1.4503559 -0.26842958 -2.7943492 -0.48804677
2.1054342 -2.2446163 1.0618747 1.2935748 -2.5385392 -6.174808 0.1695436 5.418249
1.4964545 -0.21625322 -3.112206 -0.5146107 0.34062544 1.5557101 -0.31432402 -1.4776734
1.7375988 1.0907071 5.1388187 0.67079103 -2.4483109 -0.88383114 -4.8940682 -0.6026176
-2.2595596 2.9659712 8.275743 -1.4060307 0.47168654 -3.3718152 -2.418371 2.1439028
-5.5753055 -0.22522046 6.271346 -2.3210022 -3.159873 1.024326 5.895156 0.9622585
-2.299973 1.1085056 5.923938 -1.2715206 5.1486125 2.1329165 -5.337727 1.3646433
-1.1184602 1.2713182 6.194475 -1.2215542 4.937826 2.8046591 -3.9353464 -2.1450448
-1.1195178 2.0482955 1.4469508 -2.9579413 3.5870342 3.1952968 -2.3810196 0.43285128
0.8880749 0.8419937 -1.7225527 -2.3564985 1.073668 0.4379734 0.015388967 -0.30184138
2.4381049 1.990148 11.429689 1.2660348 -2.4418085 2.5835383 4.4929724 -0.7125647
-0.40136322 -1.5744219 0.7381285 1.2364295 -0.25386044 0.8854798 -1.0937729 -1.2551885
2.011172 -0.61772937 -9.59649 -0.23157987 2.9672253 1.6585903 2.4193516 -1.1133922
3.6084816 -1.3588686 -2.1889713 2.6348825 -1.7944562 -0.7914668 -1.621131 1.8651624
0.18712515 1.6358622 -2.578109 -2.2292085 -1.4110774 1.2748321 7.874136 -1.6407386
6.2933307 1.2052068 -0.0058279904 1.1165859 1.0743665 0.36755136 -0.13823704 -0.32060066
00000000: 1868 6dbf 4b73 1440 5438 7740 b477 65bf
00000010: 43a5 b93f 9a6f 89be 9ed6 32c0 44e1 f9be
00000020: 6fbf 0640 cba7 0fc0 83eb 873f dc93 a53f
00000030: 6d77 22c0 0798 c5c0 d69c 2d3e 4c62 ad40
00000040: d28b bf3f 7c71 5dbe 622e 47c0 87bd 03bf
00000050: 7566 ae3e 8221 c73f 14ef a0be 6724 bdbf
00000060: a369 de3f 4a9c 8b3f 3471 a440 f6b8 2b3f
00000070: 20b1 1cc0 c242 62bf 359c 9cc0 2645 1abf
00000080: a09c 10c0 79d2 3d40 7169 0441 d0f8 b3bf
00000090: e680 f13e d2cb 57c0 97c6 1ac0 b435 0940
000000a0: e768 b2c0 31a0 66be deae c840 4d8b 14c0
000000b0: 5c3b 4ac0 1d1d 833f 1ea5 bc40 9356 763f
000000c0: c232 13c0 83e3 8d3f e690 bd40 30c1 a2bf
000000d0: 6fc1 a440 b481 0840 a9ce aac0 a2ac ae3f
000000e0: b429 8fbf 8eba a23f 2439 c640 e35b 9cbf
000000f0: ac02 9e40 897f 3340 b7dc 7bc0 6a48 09c0
00000100: 5c4c 8fbf 4617 0340 af35 b93f e94e 3dc0
00000110: f891 6540 be7f 4c40 a062 18c0 af9e dd3e
00000120: e058 633f e68c 573f 9b7c dcbf dfd0 16c0
00000130: f46d 893f 0d3e e03e 0122 7c3c f48a 9abe
00000140: e909 1c40 2bbd fe3f 02e0 3641 6e0d a23f
00000150: 9746 1cc0 b158 2540 6ec6 8f40 a46a 36bf
00000160: 7b7f cdbe a886 c9bf fdf5 3c3f 5243 9e3f
00000170: fff9 81be ceae 623f c000 8cbf 04aa a0bf
00000180: 0bb7 0040 8323 1ebf 398b 19c1 4623 6dbe
00000190: 05e7 3d40 b04c d43f a8d6 1a40 a383 8ebf
000001a0: 5df1 6640 68ef adbf 1b18 0cc0 eaa1 2840
000001b0: beb0 e5bf 919d 4abf 3881 cfbf a4bd ee3f
000001c0: bc9d 3f3e ef63 d13f bdff 24c0 5aab 0ec0
000001d0: 2f9e b4bf b32d a33f ecf8 fb40 b903 d2bf
000001e0: f762 c940 3744 9a3f baf8 bebb 49ec 8e3f
000001f0: d784 893f b12f bc3e 038e 0dbe c525 a4be

first_layer.bias f4 [32]
-0.2847237 0.84118414 -5.470336 5.3241925 -1.3555467 1.4789655 -2.0253394 1.4248754
0.924037 2.1525946 2.9615016 -5.8028455 1.0290866 -6.0225925 0.8875099 1.7994175
2.8098512 2.2661352 2.153448 2.4176054 -5.0032153 0.21895984 0.52757007 -2.5131586
-4.698066 2.2418144 -1.2219329 2.2855508 2.7378867 1.970969 -6.4204497 1.7829247
00000000: 4ec7 91be d857 573f fe0c afc0 c95f aa40
00000010: 8e82 adbf be4e bd3f 299f 01c0 5162 b63f
00000020: b08d 6c3f 1cc4 0940 3e89 3d40 e9b0 b9c0
00000030: 1cb9 833f 14b9 c0c0 d933 633f 5053 e63f
00000040: 9ad4 3340 5c08 1140 18d2 0940 0cba 1a40
00000050: 571a a0c0 0237 603e d50e 073f 97d7 20c0
00000060: 8f56 96c0 e379 0f40 4c68 9cbf 7746 1240
00000070: 8939 2f40 b648 fc3f 5374 cdc0 e036 e43f

inter_layer.weight f4 [32, 32]
-1.4748812 -4.352094 -1.048952 -4.5963826 1.4246888 -3.6350975 -0.8858958 2.1877584
-8.084939 0.26450363 0.8725815 1.554766 0.77957344 -10.6339445 0.72700536 -2.3321524
-2.3399408 -0.3632398 -0.19627555 -4.1073837 -9.679832 -1.2120271 -0.24653809 1.590911
-1.3616941 -1.3336991 -3.409505 1.222584 0.7436871 1.78154 -8.94513 0.82691246
-1.5528913 -0.41583195 -2.3139365 0.8412533 -4.761813 -3.9989855 3.435172 -0.26855808
0.8591371 -0.7263079 -0.0856667 -2.0694687 -2.822149 1.9111433 -2.4004996 -0.67222756
-1.4943674 -0.3940957 -3.8637404 2.938965 -1.5252255 -1.1667873 3.0952954 -2.1684349
1.9335744 -0.48666936 -3.3677607 2.9264834 -3.33601 -3.2735124 -6.3760443 -2.9309182
-0.337733 -6.065315 -2.8020835 -1.0249676 3.9153788 -0.15347137 -5.3095894 3.1924384
-4.761325 -0.4652439 0.05082562 0.78440595 -2.8903024 -4.638927 0.8357978 -1.2621012
-4.8561993 2.3795671 -0.47567856 0.62965924 -3.104831 -0.23045623 -3.2235124 -4.4344683
-5.923556 2.8521857 -1.409288 -3.3552213 -0.44176438 -0.048726834 -3.6612322 3.309514
-0.08632153 -5.443027 1.0124464 -3.898269 3.9486485 -1.0094283 -1.2396396 0.7712537
-1.4053065 -0.6736087 0.08478489 -3.1481936 1.0487529 -10.253985 1.4956952 0.028430915
-3.0184524 -1.1402723 0.4422528 -0.7004558 -2.4777231 1.3944918 -2.123541 -2.3548026
-7.093367 -0.68667537 -0.38136846 -0.24287502 0.75467855 1.6536244 -2.5218241 -1.2429986
1.4656911 -2.0647967 1.1490922 1.4975075 1.5016729 0.1696927 -2.6589367 -0.39621508
-2.504233 0.5605189 -4.767526 1.9366517 0.7334051 -1.5622993 3.8415663 -1.89281
-5.4773645 0.2606226 -0.99104255 1.7547317 -3.04294 1.1522571 -2.217177 -0.09679337
-2.955706 -2.0953364 -0.2923473 -1.1948012 -2.617951 0.21489558 1.8625789 1.9335126
0.09397172 1.0647204 -1.5765891 1.3428473 -5.4553237 0.07082884 -5.895476 -2.8695364
-2.1469934 1.6421332 0.56156474 -2.0485497 2.2431898 -1.081321 -1.1683661 2.4900088
-0.13172041 1.1706243 -0.9532489 1.0789198 0.1523345 -2.1685448 4.5055156 -6.258853
4.8398232 1.9336889 -1.1972991 2.8321574 -0.17019679 -0.51426035 -7.3745246 -1.6176333
1.8263644 -3.7145066 0.032507554 2.8834443 5.922223 0.31826022 -0.6737575 2.40264
0.5282904 0.5285508 1.2135152 -1.4527713 -1.8243715 -5.4257593 3.5330105 -0.35335493
-5.2590804 0.17664914 0.60111547 0.03571075 0.013446306 1.8310107 -1.3367348 -1.594301
-10.909973 1.6608449 -0.23882432 1.1110706 0.48368284 1.7123218 -5.677437 1.9315108
-0.01154648 2.572055 -1.646963 -4.4056582 -3.2516809 -0.20090295 2.5191355 -2.916874
1.4252378 -4.1035013 0.99484 0.23071986 0.95107156 7.1195846 -1.0397787 0.3825711
1.202784 -0.53788465 0.014464153 1.0535713 -1.5412904 0.20555143 -2.9819202 1.1574041
5.6095133 -0.39766273 -1.6388127 -0.65565294 -0.17482758 -0.54711354 -1.4725035 -1.0881695
00000000: e8c8 bcbf 5b44 8bc0 0f44 86bf 9115 93c0
00000010: 345c b63f 70a5 68c0 11ca 62bf 3c04 0c40
00000020: e95b 01c1 056d 873e 8061 5f3f 9302 c73f
00000030: 2092 473f a324 2ac1 061d 3a3f fc41 15c0
00000040: 97c1 15c0 91fa b9be 75fc 48be b06f 83c0
00000050: 98e0 1ac1 b423 9bbf 7b74 7cbe f9a2 cb3f
00000060: fe4b aebf a7b6 aabf 5435 5ac0 a27d 9c3f
00000070: 4762 3e3f 8109 e43f 411f 0fc1 89b0 533f
00000080: 24c5 c6bf ede7 d4be 8917 14c0 605c 573f
00000090: c660 98c0 61ef 7fc0 dcd9 5b40 7280 89be
000000a0: 69f0 5b3f 51ef 39bf 0672 afbd 2d72 04c0
000000b0: 179e 34c0 58a0 f43f c9a1 19c0 1b17 2cbf
000000c0: 6e47 bfbf e9c6 c9be 8647 77c0 0118 3c40
000000d0: 973a c3bf 4959 95bf 5219 4640 a3c7 0ac0
000000e0: 5e7f f73f ba2c f9be 6489 57c0 814b 3b40
000000f0: 3081 55c0 3a81 51c0 8e08 ccc0 2a94 3bc0
00000100: 57eb acbe 0f17 c2c0 5655 33c0 2332 83bf
00000110: 9195 7a40 9927 1dbe 28e8 a9c0 e950 4c40
00000120: c65c 98c0 7334 eebe 862e 503d d4ce 483f
00000130: b7fa 38c0 1772 94c0 d8f6 553f 888c a1bf
00000140: fc65 9bc0 d44a 1840 248c f3be 5931 213f
00000150: 8db5 46c0 b8fc 6bbe 074e 4ec0 2ae7 8dc0
00000160: c58d bdc0 368a 3640 8d63 b4bf f2bb 56c0
00000170: f12e e2be ca95 47bd a151 6ac0 14cf 5340
00000180: 58c9 b0bd 472d aec0 d897 813f 3d7d 79c0
00000190: a8b6 7c40 f234 81bf 83ac 9ebf e270 453f
000001a0: 15e1 b3bf 9f71 2cbf b3a3 ad3d 017c 49c0
000001b0: 893d 863f 5310 24c1 f172 bf3f f3e7 e83c
000001c0: 532e 41c0 71f4 91bf f66e e23e 1251 33bf
000001d0: 0493 1ec0 b57e b23f 19e8 07c0 16b5 16c0
000001e0: ddfc e2c0 f5c9 2fbf ba42 c3be 3bb4 78be
000001f0: 9d32 413f f7a9 d33f 9165 21c0 941a 9fbf
00000200: c49b bb3f a125 04c0 7415 933f 53ae bf3f
00000210: d136 c03f ecc3 2d3e 052c 2ac0 b4dc cabe
00000220: 5a45 20c0 2b7e 0f3f 938f 98c0 34e4 f73f
00000230: 70c0 3b3f 6cf9 c7bf 39dc 7540 9947 f2bf
00000240: 9246 afc0 5370 853e f7b4 7dbf 0c9b e03f
00000250: 87bf 42c0 297d 933f 3ae6 0dc0 9a3b c6bd
00000260: 492a 3dc0 fe19 06c0 8cae 95be 3fef 98bf
00000270: 828c 27c0 960d 5c3e fc68 ee3f 577d f73f
00000280: 3f74 c03d c248 883f accd c9bf 6ce2 ab3f
00000290: 0392 aec0 b60e 913d bda7 bcc0 7ca6 37c0
000002a0: 5768 09c0 6c31 d23f b5c2 0f3f 701b 03c0
000002b0: 6c90 0f40 ba68 8abf 058d 95bf 4e5c 1f40
000002c0: b7e1 06be 04d7 953f 1f08 74bf 0b1a 8a3f
000002d0: 93fd 1b3e 70c9 0ac0 2f2d 9040 8648 c8c0
000002e0: d5df 9a40 1e83 f73f 1941 99bf 1142 3540
000002f0: 1148 2ebe 91a6 03bf 1bfc ebc0 9c0e cfbf
00000300: 4fc6 e93f 7aba 6dc0 a426 053d 5a8a 3840
00000310: da82 bd40 01f3 a23e 5f7b 2cbf dbc4 1940
00000320: 0a3e 073f 1b4f 073f 7754 9b3f 69f4 b9bf
00000330: 0185 e9bf d29f adc0 d81c 6240 f0ea b4be
00000340: 634a a8c0 83e3 343e b4e2 193f 6f45 123d
00000350: e54d 5c3c 8f5e ea3f 201a abbf 0e12 ccbf
00000360: 408f 2ec1 9196 d43f 5d8e 74be 9037 8e3f
00000370: 47a5 f73e 5c2d db3f 90ad b5c0 bf3b f73f
00000380: 722d 3dbc 8d9c 2440 afcf d2bf 27fb 8cc0
00000390: 8a1b 50c0 81b9 4dbe 8439 2140 10ae 3ac0
000003a0: 316e b63f e24f 83c0 d6ad 7e3f d441 6c3e
000003b0: 6d79 733f a3d3 e340 7817 85bf 5ce0 c33e
000003c0: d3f4 993f cfb2 09bf 0efb 6c3c 6ddb 863f
000003d0: 0149 c5bf 137c 523e c8d7 3ec0 d125 943f
000003e0: 2281 b340 739a cbbe 9dc4 d1bf dfd8 27bf
000003f0: 0006 33be a20f 0cbf ff7a bcbf 2349 8bbf

inter_layer.bias f4 [32]
-0.11177513 0.9788652 -0.46330935 0.8943824 1.9524258 3.6344671 3.4900405 -1.5689709
-0.3062972 -0.5788644 0.2704372 -0.035293628 -0.76596683 -0.23491347 0.02588955 0.69797033
-0.9996441 -1.5232902 0.95902365 -1.3879335 -1.0074964 0.6994489 0.074647136 -0.27837005
1.8313417 0.23521203 1.30319 -0.8115099 0.14834593 1.6403604 -0.9566702 2.4239147
00000000: 5cea e4bd e996 7a3f e236 edbe 3ff6 643f
00000010: 17e9 f93f 1c9b 6840 d35c 5f40 0ad4 c8bf
00000020: fdd2 9cbe 7530 14bf bf76 8a3e 0d90 10bd
00000030: 6716 44bf 288d 70be 5216 d43c 2fae 323f
00000040: ade8 7fbf 2cfb c2bf 9382 753f cea7 b1bf
00000050: a4f5 80bf 150f 333f 99e0 983d 8586 8ebe
00000060: 6869 ea3f 6cdb 703e eece a63f 1dbf 4fbf
00000070: ffe7 173e 54f7 d13f 57e8 74bf 6b21 1b40

final_layer.weight f4 [1, 32]
-5.827386 5.8278546 -9.332586 -6.573715 -7.4006524 8.075344 -5.3454394 3.5325189
-4.7647314 -6.805484 2.6673577 2.505751 -5.1559024 -3.6673763 2.283349 10.563571
3.2627568 3.1362772 -8.179783 2.6587589 2.473006 -4.278648 5.632738 -10.832226
-4.309069 -2.3211536 -4.5813427 -6.4115834 3.132476 -2.3640401 9.410284 -4.9507656
00000000: f279 bac0 c97d ba40 4652 15c1 e05b d2c0
00000010: 25d2 ecc0 9c34 0141 d70d abc0 ca14 6240
00000020: ae78 98c0 86c6 d9c0 fdb5 2a40 395e 2040
00000030: 27fd a4c0 4bb6 6ac0 6422 1240 6304 2941
00000040: 02d1 5040 c4b8 4840 64e0 02c1 1b29 2a40
00000050: bb45 1e40 afea 88c0 643f b440 cc50 2dc1
00000060: e5e3 89c0 c88d 14c0 5c9a 92c0 b12b cdc0
00000070: 7d7a 4840 6f4c 17c0 8690 1641 ac6c 9ec0
